saved_models/rotate+gan+2samples.pth (torch, 538004 bytes, 26 tensors)

conv1.weight f4 [32, 1, 3, 3]
00000000: 0703 a1be 55ad 02bd 32ec 8d3e 986c 333d
00000010: 438e a83e e988 6dbe 42d8 d9bd 152d bc3c
00000020: 20bf 29be 6893 cbbe 7fe9 c23e 2020 afbe
00000030: 2345 0d3e 0afc c73d 07f8 373d 9155 e5bd
00000040: 969b 2d3e 4875 d13c afbd 453d d914 5ebe
00000050: 3ada 38bc f7c6 f33d 0f21 bf3e 1d65 5ebe
00000060: d035 b1be 7662 143e ab33 8dbd f73b c73c
00000070: ca71 8e3e 49d6 2b3c c322 a53c 3bad 413e
00000080: b878 a73d f89a 73be 9c7e c8be 4591 8cbd
00000090: c9d7 04be 9133 aabd e0d6 91be 46b9 a1bd
000000a0: 3be1 e23e 0f2c ae3e b8eb 40be 195d 8dbd
000000b0: b51a abbe dda0 3ebe ffc4 b13e 5108 78be
000000c0: 3640 9f3e 6ba4 db3d f154 22be c803 3bbe
000000d0: 1bbf fcbd c1f7 b1be 9f13 df3e 526c a93c
000000e0: a2ea 93bd 8145 f43d 6ae2 43be fb79 bcbe
000000f0: 5023 2c3e d622 71be 8ca5 043e c23b 743e
00000100: adf0 34be 2d80 443e 1070 97bd 9d8e 8bbc
00000110: aaf8 bdbe 05cd d93e 629b 093e 44f9 ba3d
00000120: a7af 783d 9d5a a03e 0024 fd3d 2a8c 3bbe
00000130: 19dd 8d3c cedf 11bd 70a4 70be ee44 a1be
00000140: 51c6 de3d e08c 9cbe 9a2c a2be a681 9dbe
00000150: feab 37be 28ec 2cbd 2dda 00bd 4ae6 3f3e
00000160: 6477 e03e 9eb0 2d3e ac94 c53d 0b0c 333e
00000170: 15ea 0d3e b541 06be aaee 683e 61bc ad3e
00000180: ffcf 8d3d a143 6f3e e845 733e e0a6 be3d
00000190: 3591 983e e077 6d3e 9516 bd3d 9fa5 e5bd
000001a0: 941c 243d 7dae e1bd a17f 36be b795 cdbe
000001b0: 72f2 213e 8034 4bbe 9004 a13e 0d35 edbe
000001c0: bca2 fbbc 326e a63e 8dd2 2cbe 7aea 623b
000001d0: 5cf5 093d 802e ee3d bf71 113e 9658 b1be
000001e0: c4a8 e83d 7e68 7a3e a660 abbe 77a1 183e
000001f0: eb6d 18be 1e97 dcbe 40da aebe 622c 15be
00000200: f235 a93e 0a3e 3b3e 49ca 27be bcd6 3c3e
00000210: 29c9 ec3d c079 8a3e 7258 023e 0ed0 be3d
00000220: 4172 dfbe b5db 033e 8805 07be 3f5a b03c
00000230: 15e6 9e3e eb6c 3a3e faf5 723b 45b9 2dbe
00000240: e6c0 d4be 7158 163d c728 d73d da83 753d
00000250: fc9f 1bbe bf92 d8bd a28c 9bbe 46b8 d8bc
00000260: e3b4 b93e 066c 993d e5f4 f13d 49fb 01bf
00000270: ad5c c23e 236e 333e 3a4a 7dbe 6751 91bd
00000280: c8a4 173e f110 883e 9d7f 363e ba3e 353e
00000290: beb4 8bbe 724b 20be c5f8 3b3e 9fdb 43be
000002a0: 2cf3 693e 7a32 7e3e 7055 84be c9d0 3c3d
000002b0: 2a3d 583e 432b a6bd 6858 a7be e65d 9cbe
000002c0: 1946 43be c9d5 b23d 4454 b13d 422b 9cbd
000002d0: 3344 873e 15b6 843e f2e7 9f3e e426 ad3e
000002e0: 9898 ea3d ae90 0b3c 4b78 683e 939e c33d
000002f0: 4e12 003d bfab 8abd 749a b3be da02 e93b
00000300: a7fa 853e 0ff9 efbd f749 62be 759e c13d
00000310: d713 453e a6f8 063e 430c 183e c784 243d
00000320: 468e b23c 2430 f5be 3b02 0ebe d5cf 1c3e
00000330: e72a b93d 4bec d83d 4703 b93e 590b 85be
00000340: cead 3b3d 14fe 8a3e 23de acbe 0a01 1abe
00000350: 9ba0 563e 714f d33d 0061 80be 9cb4 d83d
00000360: 4e37 b73d 35f1 0f3e 4f2f 3ebe d624 a13d
00000370: 30b5 b2be 42a6 29be efaf 93be 7b76 50be
00000380: 81b1 6a3e 0b77 e9bb 1609 5bbd 4dbc d0be
00000390: 0261 be3e 7dc7 5ebe befd 95bd a07b 49bc
000003a0: 8cb2 9fbe 3159 c3bd 19f4 d03d e986 0abe
000003b0: bc25 e5be e041 8c3d 6157 10be eb28 623d
000003c0: c6a5 e33c 68ce 6c3e 5cd9 863e 0ee5 74be
000003d0: 8519 6bbe eb45 a93b 72a6 1a3d 9a93 393e
000003e0: 242a 5e3e 2439 c53c 86a8 6f3d 870d adbd
000003f0: b135 b23d e2d2 7c3e c21b 843d f9c5 153e
-0.31447622 -0.031903584 0.27719265 0.043804735 0.32921037 -0.23196758 -0.10636951 0.022970716
-0.16576815 -0.397609 0.38068768 -0.34204197 0.13795905 0.097648695 0.04491427 -0.11197961
0.16953883 0.02556862 0.0482766 -0.2168764 -0.011282498 0.11903184 0.3732991 -0.21718259
-0.34611368 0.14490685 -0.068946205 0.024320586 0.2782119 0.010488101 0.020158177 0.18913738
0.08177322 -0.23789585 -0.39159095 -0.068636455 -0.1297294 -0.08310617 -0.2848425 -0.07896666
0.44312462 0.3401799 -0.1883992 -0.069025226 -0.33418813 -0.18616052 0.3472061 -0.24221922
0.31103677 0.107247196 -0.15852715 -0.18263161 -0.12341138 -0.34759334 0.43569657 0.020681534
-0.07222487 0.11927319 -0.19129339 -0.36811814 0.16810346 -0.23548445 0.12953776 0.23850921
-0.17669936 0.1918952 -0.07394421 -0.017035777 -0.37103778 0.4253923 0.1343818 0.09129575
0.06071439 0.31319132 0.12360382 -0.18315187 0.017317342 -0.035613827 -0.23500228 -0.31497902
0.108776696 -0.3057623 -0.31674653 -0.30762976 -0.17936704 -0.042217404 -0.03145807 0.18740192
0.43841088 0.16961905 0.096474975 0.17485063 0.13858826 -0.13111003 0.22747293 0.33932784
0.06924438 0.23365642 0.23757136 0.09309173 0.29798284 0.2319026 0.09232823 -0.1121323
0.040066317 -0.11019609 -0.17822124 -0.40153286 0.15815142 -0.19844246 0.31448793 -0.46329537
-0.030717246 0.32505947 -0.16877194 0.0034624622 0.03368126 0.11629963 0.14203547 -0.34637898
0.113603145 0.24453923 -0.33472174 0.14905344 -0.1488568 -0.43084043 -0.34150887 -0.14567712
0.3304897 0.18285385 -0.1638576 0.1844129 0.11561806 0.27046013 0.12729052 0.09317027
-0.43641856 0.1287678 -0.13185704 0.021527408 0.31034914 0.18205611 0.0037072883 -0.16965206
-0.4155342 0.036705438 0.105058245 0.059940197 -0.15197748 -0.105748646 -0.30380732 -0.026455056
0.36270818 0.07491307 0.11814288 -0.50774056 0.3796133 0.17522483 -0.24735346 -0.070956044
0.14808953 0.26575425 0.17822118 0.1769971 -0.27286333 -0.1565378 0.18356617 -0.19126748
0.22846669 0.24823943 -0.25846434 0.04609755 0.21117082 -0.0811372 -0.32684636 -0.3054039
-0.19069709 0.087321825 0.086586505 -0.07625438 0.2641922 0.25920168 0.31231648 0.33818734
0.11454886 0.008518381 0.22702138 0.0955173 0.031267457 -0.06771039 -0.35078776 0.0071109356
0.26167795 -0.11717426 -0.22098528 0.094540514 0.1924585 0.1318079 0.14848427 0.04016569
0.021796357 -0.4788829 -0.13868038 0.15313657 0.09041386 0.10591944 0.36135313 -0.2598522
0.04582005 0.2714697 -0.33763227 -0.15039459 0.20959704 0.103178866 -0.25074005 0.105813235
0.089460954 0.14056857 -0.18572734 0.07868354 -0.3490386 -0.16567329 -0.28845164 -0.20357697
0.22919275 -0.0071247867 -0.053475462 -0.40768662 0.37183386 -0.21755786 -0.07323788 -0.012297541
-0.31190908 -0.09538496 0.10202808 -0.13528027 -0.44755352 0.06848502 -0.14095832 0.055214804
0.027789008 0.23125613 0.26337707 -0.23915502 -0.22958954 0.0051658056 0.03775639 0.18122712
0.21695763 0.024075098 0.058510326 -0.08449846 0.08701647 0.2468982 0.06450607 0.14626302

conv1.bias f4 [32]
00000000: e18c b6bd f83d 3d3e 3c7d 94be 52cc f5bd
00000010: 9154 58bc 5b0b 2b3e fc18 49be c3e3 50be
00000020: 8c54 8b3e fa1b 1a3e 489d 1f3e 2fb3 653d
00000030: b008 7c3d 3727 c9bd 3e16 d9bc 35ea 9abe
00000040: 703b 443e 34e3 24be cd97 f1bd 916d a5bc
00000050: 34e8 6bbd 2cfb 26be 65e7 90be 7b63 7e3d
00000060: b6a4 0fbd 0460 f53d 79ba 75be 8b4e 79be
00000070: d5f3 893b f1b3 6bbd 5c0c 723d 0583 6abe
-0.08913589 0.1848067 -0.29001796 -0.12001862 -0.013203756 0.1670355 -0.19638437 -0.20399384
0.27212942 0.15049735 0.15587342 0.056079086 0.061531723 -0.09821933 -0.026499864 -0.3025681
0.19163299 -0.16102296 -0.11796532 -0.020193847 -0.057594493 -0.16306752 -0.2830154 0.06210659
-0.03506919 0.11981204 -0.23996915 -0.24346368 0.0042099752 -0.057544652 0.059093818 -0.22901542

bn1.weight f4 [32]
00000000: d942 813f a61e 343f 4d1a 883f 7951 743f
00000010: ae31 953f 75ad 8e3f 0506 853f ecd0 a33e
00000020: 36a8 803f eda5 a93f 46b5 d83e 919d 983f
00000030: b09e 823f c9de 973f 78e8 da3e f55e 273f
00000040: 2d77 843f 02c9 5d3f 28f9 363f b662 c23f
00000050: 92f6 273f 5f24 903f 249d 233f eac1 533f
00000060: b020 c53f 6a34 b23f 2606 563f 04b5 573f
00000070: 1206 db3e f5dd c33f b5c3 163f f137 c23f
1.0098525 0.70359266 1.0633026 0.9543682 1.1655786 1.1146685 1.0392462 0.31995332
1.0051334 1.3253762 0.423258 1.1923085 1.0204678 1.1864864 0.42755485 0.6537927
1.034887 0.8663484 0.7147393 1.5186374 0.6561061 1.12611 0.6391165 0.82717764
1.54006 1.3922246 0.8360313 0.8426058 0.4277807 1.5302111 0.58892375 1.5173322

bn1.bias f4 [32]
00000000: 9dc9 5fbe 83f2 da3d 6e00 4fbe 52ee 9c3d
00000010: e4b2 b7be 4cbb 29be 63bf 9d3c 3712 b4be
00000020: f672 b23d e5be 53bb fed0 d6be 7310 48bd
00000030: b660 b73d 37f3 f1bc b6ae 09bf b94d d53a
00000040: 6e19 9fbd 37e8 b6be 4180 5fbe e0d3 2b3d
00000050: 5146 15bf fb78 89bd 3b59 95be 45b6 acbe
00000060: 7b5c 5fbd 3903 363d 6468 88be d8cc 8fbe
00000070: 5969 c2be 40b6 0c3e 6000 05bf 30e9 ab3d
-0.21854253 0.10690787 -0.20215008 0.076626435 -0.3587867 -0.16575354 0.0192563 -0.35170147
0.08713333 -0.0032309827 -0.41956323 -0.048843812 0.08953993 -0.02953492 -0.5378221 0.0016273774
-0.07768522 -0.3572404 -0.21826269 0.041950107 -0.5831042 -0.06712528 -0.2916964 -0.3373281
-0.054531556 0.044436667 -0.26642144 -0.2808597 -0.37971 0.13741398 -0.519537 0.08394086

bn1.running_mean f4 [32]
00000000: 434c d0bd 1b71 2f3e 0e39 9cbe 2b90 03be
00000010: 8c6b 28bd d843 113e 0dcb 3bbe a801 3abe
00000020: 9e55 8a3e d14b 0e3e 96b3 3f3e 1d78 613d
00000030: 2dcc 883d a3a7 f2bd 6342 22bc 066d 99be
00000040: 66b3 3a3e c9aa 23be f340 f4bd f10f dabc
00000050: ba3a 7cbc ca9d 24be a267 88be 7e27 813d
00000060: b0f7 34bd 61c4 cd3d 75bc 73be 638e 80be
00000070: 972c cc3c 6940 96bd 4505 a93d bad2 79be
-0.10170796 0.1713299 -0.3051228 -0.12847964 -0.04111819 0.14186037 -0.18339176 -0.18164694
0.27018446 0.13896109 0.1872085 0.05504619 0.066795684 -0.118483804 -0.009903523 -0.2996599
0.18232498 -0.15983118 -0.119264506 -0.02661893 -0.015394861 -0.16075817 -0.26641566 0.06306361
-0.044181526 0.10047222 -0.2380236 -0.25108632 0.024923606 -0.07336504 0.08252958 -0.24396792

bn1.running_var f4 [32]
00000000: 837c ba3d deb3 bc3d a592 873d 2050 563e
00000010: c951 173e 1023 a93e e653 9a3e 7f6f 6b3e
00000020: daf3 633e a229 273f 2bd4 b03f a7a2 a93e
00000030: 18de 953e 0462 143f 2ecc da3e b51e a33d
00000040: 4dae ae3e b6a7 b23e c982 593e f09c 8d3e
00000050: fe66 ef3f 523c 273e 2514 7a3e b997 953e
00000060: 239c e23e 3f5f 223f bd71 683e 49e2 d03d
00000070: eaff da3e a043 603f 5b7f 3d3f 2dd6 093f
0.0910578 0.092139944 0.06619767 0.20929003 0.14777292 0.33034563 0.30142134 0.22991751
0.2226099 0.652979 1.3814749 0.33131906 0.29271007 0.5796206 0.42733902 0.07964841
0.34117356 0.34893578 0.21241297 0.27658796 1.8703306 0.16331604 0.24421747 0.29217318
0.44259748 0.63426584 0.22699638 0.101994105 0.42773372 0.8760319 0.74022454 0.5384243

conv2.weight f4 [64, 32, 3, 3]
00000000: 64f8 5c3e c364 8ebd 4c5b 3abd 2fba bebd
00000010: fc1b 12bd 6deb 153d 78d7 143e 1b52 b23d
00000020: a9ec ab3c b487 0e3d 8e8a 2fbe 595d 7b3c
00000030: d812 ff3c 142a 89bd 712b 91bd d5a9 da3c
00000040: 6453 87bc fd12 a2bd 6815 b23d 2bbb b33d
00000050: 1ca6 f93c 1387 cbbd 7af4 e5bc 04c5 3ebc
00000060: ba69 dc3b fff0 013e 2890 d13d 3f7c 113e
00000070: 2417 273d 7071 2fbe 3838 e0bc de80 cfbd
00000080: eada dabd d277 2b3e f16e b43d 96ad b13d
00000090: a855 e83d 571e 10bd 6b49 023e 0284 53be
000000a0: bc31 72bd e61a 873b b942 3a3e 5681 bb3d
000000b0: 1dd3 8cbd 3c4c 93bd 6c76 29be 6b5a 8f3c
000000c0: e370 793d 7a19 773d b2cf 8cbc 9056 c03d
000000d0: 32ab 413e 72bc d2bd 6496 c0bd 51b2 30be
000000e0: a538 293e c34a 24be fe43 79bd 013d c13d
000000f0: 3f8b a53c ac53 623c 09ac 343d 8cd2 20bd
00000100: eb42 e23a 82ba c93d bad2 253d f93e 253d
00000110: b276 8a3d d0b5 f8bd c020 afbd 73d7 c9bb
00000120: 3ef8 cc3d f2cc c53d 04c9 19be 64a5 16bd
00000130: b387 45bd 3066 eabd 652c e13b 6e9a debc
00000140: 92cf 783d 904a 13bb fe2e 4dbe 22e9 d0bd
00000150: 96c3 163e 1231 1fbe 2f1d 5bbe 10e9 023e
00000160: 8bae ba3c 8557 12be 495c c33d 59d3 bb3d
00000170: 97d9 ae3b b405 8fbd 5bb0 143d 231e c73d
00000180: 7b52 4bbc 1856 aabd 8bc0 a43b 1478 b83d
00000190: e58f b9bd a842 efbd 5a12 023d 1ec3 14be
000001a0: 51b6 e2bd 9791 703e 3d8c cf3d 3df6 253c
000001b0: c7c3 ae3c 08e8 293d a3fe 05be fa8d 0abe
000001c0: 6954 903d 1f69 6abd 3ab1 1ebe 8d4a 3bbd
000001d0: 10d0 ecbd 65d4 80be 02cc 00be 64c2 d63d
000001e0: 36e9 c4bd d348 b53d 6ec6 e13d 2004 cabd
000001f0: 809d f53c 1e5e 553d 7bc4 1ebc 2a4e 5dbd
00000200: 6143 33be 5ec9 b53d bd0b 923d 7d92 c8bd
00000210: 822e 813c f4a0 113d 9730 26bd 7d77 d63c
00000220: 7755 b7bc a2ad 8dbd 20c3 7e3c 6327 9d3d
00000230: 349d 0dbe 85db 863d a61f 663d c121 59bc
00000240: a0cd 23be 2fce 3dbd acea 6cbe 8349 c1bd
00000250: 74e7 263c 2ba0 f93c 39b7 d9bd b7df afbd
00000260: 4206 033d 158f 943c c5d0 9c3d c892 473e
00000270: d352 96bd 1f09 3fbd 6a55 b13d 764b e6bd
00000280: 2f0a 92bd 7969 a73d 4260 3abd 2e3b 203d
00000290: 99fe 3f3e 056f 3ebe 4756 5f3d 377f 6b3d
000002a0: e69b 8bbd 880f 22bd 3db4 8e3c 6bdd 25be
000002b0: a8df aabe 6ab7 cdbd b26e f1bd fe09 aebe
000002c0: 2fd1 4cbe 9cbd 9bbd 22a0 4ebd 4393 14be
000002d0: 1912 0c3c e450 b23d c430 523d 0969 23bd
000002e0: d949 0cbc 04f6 123d 0a94 9a3c 7a2d 34bd
000002f0: 62d3 1cbd 0e4a 6ebd fb44 e1bd 8206 043e
00000300: 490c 9a3c 8f0a 18be 6715 ad3c 0c63 06bd
00000310: f680 67bd 3ced 3f3b ac17 923c 9977 ca3d
00000320: 8d17 b3bd a939 2e3d bf29 183e 27dc cb3c
00000330: eccc 793c a136 e1bd 9695 1ebd 11b0 123b
00000340: 0adf 423d af9c cabd 3e38 23be 2249 043e
00000350: 02ff 153d f9dc 34bd d478 44bc 758e 723d
00000360: 8f3c fdbd 2fc4 89be 4b36 50be 86e0 943d
00000370: d3c2 b0bd b9eb 5fbe 7386 0abd 9284 d83d
00000380: 6f08 6fbd 7615 66be cde5 67be 5b06 1ebd
00000390: 69d0 f6bd 8e49 ae3d 5faa 77bd 973c 32be
000003a0: 2334 513d 4055 00be 49bd 63bd cf02 22bd
000003b0: 8757 0e3e 58be 353c 51ca 2cbe d1d1 a73c
000003c0: 89ed a33c 1793 b2bd 8607 013e 0f49 943d
000003d0: d067 6dbd bff2 7dbc eecb c4bd f605 a8bd
000003e0: 5b0c cabd 769c 293e fb4a f03d c750 573d
000003f0: 829d 58bd 3e5d bbbc 9354 0d3e 39cd e73c
0.21579129 -0.069528125 -0.045497224 -0.093128555 -0.03567122 0.036601473 0.1453532 0.087070666
0.020986872 0.034797385 -0.17142698 0.01534208 0.031136915 -0.06697479 -0.07088364 0.02669231
-0.016519256 -0.07913778 0.08695489 0.08775934 0.030474715 -0.09937873 -0.028070677 -0.011643652
0.006726471 0.12689589 0.10232574 0.14207552 0.040793553 -0.17133117 -0.027370557 -0.10132001
-0.10686286 0.16744927 0.08810223 0.08675687 0.11344463 -0.035185184 0.12723319 -0.20655826
-0.05912946 0.0041230796 0.18189515 0.09155528 -0.06876204 -0.07192275 -0.1654908 0.01749917
0.060898673 0.06032703 -0.01718888 0.093915105 0.18912962 -0.10289849 -0.09403685 -0.17255522
0.16525514 -0.16044144 -0.060855858 0.09435464 0.020208 0.013813894 0.044109378 -0.039263293
0.0017262375 0.09850027 0.040484168 0.04034326 0.067609206 -0.12144053 -0.085511684 -0.0061597168
0.10008286 0.09658231 -0.15018088 -0.036778823 -0.048225116 -0.11445272 0.0068717473 -0.027173247
0.06074483 -0.0022474863 -0.20037457 -0.102007166 0.14723048 -0.15546063 -0.21397851 0.12784219
0.022788307 -0.14291199 0.09539086 0.09171171 0.0053359973 -0.0698351 0.036301 0.09722545
-0.012409802 -0.08317202 0.0050278357 0.09007278 -0.09060649 -0.116826355 0.031755783 -0.14527556
-0.1106993 0.23493038 0.1013417 0.010129509 0.021333588 0.041481048 -0.13085417 -0.13530722
0.0704735 -0.057229158 -0.15497294 -0.045725394 -0.11563122 -0.25162044 -0.12577823 0.10486296
-0.09614794 0.08851781 0.110241756 -0.09864068 0.029982328 0.05209171 -0.009690399 -0.05402962
-0.17506172 0.08876298 0.07131145 -0.097935654 0.015769247 0.035553887 -0.040573683 0.026180023
-0.02237962 -0.069178835 0.015549451 0.07673528 -0.138295 0.06584839 0.056182526 -0.013252676
-0.15996408 -0.04633921 -0.23136395 -0.094378494 0.010187019 0.030471882 -0.1063065 -0.08587592
0.03198839 0.018134633 0.07657007 0.19489586 -0.07340016 -0.046639558 0.086588696 -0.11244862
-0.071308486 0.08174414 -0.045501955 0.03911894 0.18749465 -0.18597038 0.05452564 0.05749437
-0.06816845 -0.039565593 0.017419929 -0.16197746 -0.3337376 -0.10044749 -0.117886916 -0.33991998
-0.20001672 -0.076045245 -0.050445683 -0.14509301 0.008549237 0.08706835 0.051316038 -0.03989509
-0.0085625285 0.03587915 0.018869419 -0.043988682 -0.038287528 -0.058176093 -0.10999485 0.12893108
0.018804686 -0.14847778 0.02112837 -0.032809302 -0.05651947 0.002928569 0.017833553 0.09886093
-0.08744726 0.042535458 0.14859675 0.02488525 0.015246611 -0.10996748 -0.038716875 0.0022382776
0.047575988 -0.09893166 -0.15939423 0.12918523 0.036620148 -0.04415605 -0.011991698 0.05921789
-0.12365066 -0.2690749 -0.20333211 0.07269387 -0.0863091 -0.21867265 -0.033819627 0.10572161
-0.058357652 -0.22469124 -0.22646256 -0.03858028 -0.1205147 0.08510123 -0.060465213 -0.17405926
0.051075112 -0.1253252 -0.05560044 -0.03955346 0.13900577 0.011092745 -0.16874053 0.02048579
0.020010727 -0.087194614 0.12600526 0.07240497 -0.05796033 -0.01549977 -0.09609209 -0.08204262
-0.09865638 0.16563591 0.117330514 0.05256727 -0.052884586 -0.02287161 0.13801794 0.0282961

conv2.bias f4 [64]
00000000: 247f 16bd 15c1 84bb 8f91 88bc 666c 15bd
00000010: b864 743d e9bb 84ba 7741 10bd de0f 69bd
00000020: e972 933c ca1f fb3c a090 703c 25e3 6b3d
00000030: cf8d 943c 4fb8 b3bc e2da 5ebd dcab 2d3d
00000040: 9acb b9bc e324 023c 794f 5f3c 4e58 503c
00000050: 5e6a b23c cea0 553c 7b4f 323c 35d1 a4bb
00000060: 11a6 213d 809c f03c 8d72 733d d461 ecbb
00000070: 5011 28bd 9cff f1bb d654 febc 6246 063d
00000080: cbbe cc3c 3ca6 843d fa41 0dbd 1290 47bd
00000090: ddb6 063d 1059 8e3c aba9 70bd 690a 573d
000000a0: 4b92 e93c d917 38bc 308f 7ebc 7b58 b03c
000000b0: 0983 143d 74ef 053d 92b5 20bc 9afc 543c
000000c0: 4818 92bb c505 7a3b 35fd 1bbd a966 09bd
000000d0: b888 453d b94b bd3c 8183 92bb d731 333d
000000e0: 0823 3f3d 64ee 6bbd cba8 193d 5cf0 8bbc
000000f0: 09ce a23b 88bd 003c 58d0 37bd 2ef6 bd3c
-0.036742344 -0.0040513375 -0.01667097 -0.03648033 0.059666365 -0.0010126802 -0.035218682 -0.056899898
0.01799913 0.030654807 0.014682919 0.05758967 0.018134026 -0.021938471 -0.05440796 0.042400226
-0.022680093 0.007943365 0.013629788 0.012716366 0.021779235 0.013038827 0.010883207 -0.0050298222
0.039465014 0.0293715 0.059435416 -0.0072138105 -0.041032135 -0.0073852073 -0.031046312 0.032781966
0.02499332 0.06477019 -0.03448675 -0.04872138 0.032889236 0.017376453 -0.058755558 0.052500162
0.02851214 -0.0112361545 -0.015537068 0.021526566 0.036257777 0.032699063 -0.009808915 0.012999678
-0.004458461 0.0038150412 -0.038083274 -0.03354517 0.04822609 0.023107396 -0.004471243 0.043748703
0.046664268 -0.057600394 0.03751449 -0.017082386 0.004968409 0.007857688 -0.044876426 0.023188677

bn2.weight f4 [64]
00000000: 4a1a 813f 2cc1 803f 379f 853f ca78 863f
00000010: 59c2 7d3f 2f26 7a3f 4dfa 7b3f 81a1 803f
00000020: dae3 853f ec6f 743f 285f 873f 64f7 853f
00000030: ed63 393f 98aa 813f 1781 903f 3fa2 8e3f
00000040: 65c1 873f 8c42 6d3f 968f 843f 79b5 913f
00000050: b3b1 653f 6f56 843f 7540 393f 1bf5 683f
00000060: 540b 6a3f 8e09 543f 9ddf 9c3f d541 8f3f
00000070: d53f 663f ed92 893f 70bf 983f 5c60 613f
00000080: 0e69 8e3f d437 743f 55ca 933f 2550 8d3f
00000090: a98b 583f 8ec7 913f c72b 8b3f b967 273f
000000a0: f68c 763f 7bf4 853f da11 6b3f 6c1c 6a3f
000000b0: dc71 053f c6dd 7f3f 8ccf 883f d161 353f
000000c0: 71f3 833f 15a6 8b3f 3c3f 833f fce9 9a3f
000000d0: 0d58 7d3f f295 893f bf56 4f3f ac79 3e3f
000000e0: c2dd 823f eaf5 833f bdb1 843f eb13 783f
000000f0: 48b3 413f b88c 923f f4f0 5f3f 55ba 8e3f
1.0086148 1.0058951 1.0439214 1.0505612 0.99124676 0.97714514 0.98428804 1.0049287
1.046016 0.9548328 1.0575914 1.0466123 0.724181 1.0130186 1.1289395 1.1143264
1.0605894 0.9267967 1.0356319 1.1383506 0.8972427 1.0338877 0.7236398 0.90999
0.91423535 0.8282708 1.2255741 1.1191965 0.8994115 1.0747963 1.1933422 0.8803766
1.112581 0.95397687 1.1546122 1.1040083 0.84588104 1.1389024 1.0872735 0.65392643
0.9630884 1.0465235 0.91824114 0.9144962 0.5212686 0.99947774 1.0688338 0.7085238
1.0308667 1.0910059 1.0253673 1.2102656 0.9896248 1.0748885 0.8099174 0.74404407
1.0223925 1.0309422 1.0366741 0.9690539 0.75664186 1.1449194 0.8747704 1.1150614

bn2.bias f4 [64]
00000000: ec1a 6abe 6f28 54be 7e11 5fbe 0d8e 82be
00000010: 5f2f a1be ca79 a1bd de3e 0dbe e189 49be
00000020: 8533 c6bd ea9d b3be b923 80be 317c 75be
00000030: 043b fcbe ee6a a6be 0cec 5cbe 674f b1be
00000040: 11de b7be 00cc 58be 895d f8bd f4c1 57be
00000050: 8133 96be 7a5e 20be 3a2a 9bbe cb1e 0fbe
00000060: a3f5 96be 3acf 53be e020 9ebe f36c 1bbe
00000070: 6e43 a6be 87a4 d8bd 385c 27be b4d8 2abe
00000080: 14ea babd cc82 9ebd f568 2abe 4c20 48be
00000090: 0117 a1be f2d8 7fbe 427d 32be 1be2 0bbf
000000a0: b26f b6be cf58 bdbd 4255 f4bd 52e1 46be
000000b0: 705a 07bf 97e1 2abe 5d0a 51be c70b eabe
000000c0: 833b 40be aff8 5ebd d4c8 f03b 9b4a bdbe
000000d0: 5520 86be 3451 79be af07 99be 7f1b 88be
000000e0: 6b25 8ebe 96a9 9abe b2fa 68be 2fb7 4bbe
000000f0: 09c7 5fbe d5ab b5be 3232 3abd be85 9bbe
-0.22861832 -0.20718549 -0.21784016 -0.25499 -0.31481454 -0.078845575 -0.13793513 -0.19681503
-0.09677795 -0.35081416 -0.25027254 -0.23973157 -0.49263775 -0.32503456 -0.2157442 -0.34630892
-0.3591161 -0.2117157 -0.121272154 -0.21070081 -0.2933617 -0.1566104 -0.30305654 -0.1397659
-0.2948428 -0.2068452 -0.30884457 -0.1517828 -0.3247332 -0.10578256 -0.16343772 -0.16684228
-0.09126678 -0.07739791 -0.166416 -0.1954357 -0.31462863 -0.24985102 -0.17430595 -0.54641885
-0.35632092 -0.092454545 -0.11930324 -0.1942189 -0.5287237 -0.16687618 -0.2041411 -0.4571211
-0.18772702 -0.054436382 0.0073481593 -0.36970982 -0.26196542 -0.24347383 -0.29888675 -0.26583478
-0.27762923 -0.3020751 -0.22751883 -0.19894098 -0.2185327 -0.3548266 -0.045458026 -0.30375475

bn2.running_mean f4 [64]
00000000: 9baa 8bc0 4bc4 cdbf c1c6 2abf 5022 e0bf
00000010: 52c8 85bc b12c 36c0 dceb f5bd c6a7 7bbd
00000020: 90f4 3ebf 59fd 38c0 5b71 f8bf f828 afc0
00000030: 477c f3be dde5 91bf 283d 71bf f480 f03f
00000040: 7f01 1dc0 5d48 4ebf 7b73 8dbf 416a d4be
00000050: 5e51 41c0 00ef 4fbe d00c 20c0 707f 28c0
00000060: 68c3 57c0 cff7 c4bf 2807 f5bf 74fe c7bf
00000070: 21a8 e0bf 3084 a1c0 dd9a bebf 1ad0 36c0
00000080: 9d1b ffbf c569 5bc0 8efa ccbe 7c93 43c0
00000090: 744a a3bf 35b3 24be 8adf 92bf 43b3 c4be
000000a0: 0475 3fbf 88c1 3b3f 39ff d2bf 7283 10c0
000000b0: 6767 0d40 9ac1 19c0 decc 13c0 d215 a13c
000000c0: d8a3 6c3d f176 8c3f e20a f5bf ce61 ad3c
000000d0: 7f61 e43e 0b76 c9be da63 31bf 42c8 49c0
000000e0: 0d42 a33e 8a5a 85be 9281 34c0 d69b 3ac0
000000f0: f6dd 51c0 3648 e8bf 1bce f9be 396d 0340
-4.364576 -1.6075529 -0.66709524 -1.7510471 -0.016330872 -2.8464777 -0.12007877 -0.061439298
-0.7459192 -2.890463 -1.9409593 -5.473751 -0.47555754 -1.1398274 -0.9423394 1.8789353
-2.4532163 -0.8057917 -1.1050867 -0.41487315 -3.0205913 -0.20306015 -2.500782 -2.6327782
-3.3713017 -1.5388125 -1.9142809 -1.5624528 -1.7551309 -5.047386 -1.489101 -2.8564515
-1.9930302 -3.4283307 -0.40034908 -3.0558767 -1.2757096 -0.16083987 -1.1474469 -0.38418016
-0.74787927 0.7334218 -1.6484138 -2.2580228 2.2094362 -2.4024415 -2.309379 0.019663725
0.05777344 1.0973798 -1.9143946 0.021164801 0.44605634 -0.39347872 -0.69292986 -3.1528478
0.3188633 -0.26045638 -2.8204083 -2.9157615 -3.2791724 -1.8147037 -0.48790058 2.0535414

bn2.running_var f4 [64]
00000000: 7910 9040 f3e2 8340 31a6 e540 8f4f 4941
00000010: fa09 a640 a304 9540 68a2 f140 9a1e c340
00000020: 4187 1c41 957f 2f40 a539 8d41 581c ef40
00000030: f70b 5940 f841 ef40 2a54 3741 2e5d a640
00000040: 6c6b 4041 e4a7 1141 dc09 1641 96e4 0b41
00000050: 0e9d f640 89f9 c440 9bfa d940 e633 a540
00000060: 5035 1c40 0e60 b340 d6f9 c240 a82f d640
00000070: dd57 5a40 3ce2 9241 ebb2 dc40 f953 2a41
00000080: 9f44 bd40 db27 6840 4dee 5941 6385 3c41
00000090: fca6 f340 754a d240 765b 9040 4782 9040
000000a0: 38af 9240 eace 0a41 7266 b340 db2e 3d41
000000b0: 8272 0941 e0f0 b240 923d 7140 27f0 9840
000000c0: b6c4 da40 6c3d 0141 85e5 d840 a0f7 8840
000000d0: 8c16 a340 e37d 6241 6c66 c940 dbef 2841
000000e0: c0cc 8240 49c9 3a41 34ed a240 243f 8d40
000000f0: 8d2e 7a40 e91d ec40 5ac3 b940 dbd1 ab40
4.502011 4.121454 7.176537 12.5819235 5.188718 4.656816 7.551075 6.0974855
9.783021 2.742162 17.653147 7.47221 3.3913553 7.476803 11.458048 5.1988745
12.026226 9.103489 9.377407 8.743307 7.7066717 6.155461 6.8118415 5.1625853
2.440754 5.6054754 6.0929976 6.6933174 3.4116127 18.360466 6.8968406 10.645501
5.9146266 3.6274326 13.620679 11.782565 7.614134 6.571589 4.5111647 4.515903
4.583889 8.675516 5.6062555 11.823939 8.590456 5.5919037 3.769383 4.7793155
6.8365126 8.077496 6.7780175 4.2802277 5.0965023 14.155734 6.2937527 10.558558
4.087494 11.674142 5.0914555 4.4139576 3.9090912 7.378651 5.8050966 5.369367

conv3.weight f4 [64, 64, 3, 3]
00000000: 9d94 06be 57e6 b63d 0e21 a3bd f837 b1bc
00000010: 0953 58be acb7 1cbe 92a3 2f3e e218 8abd
00000020: 3c08 0f3d 718b c63d ac9d a43a f5cf 713d
00000030: 334b 36bd ab7a 263e 10ab 003d af6e 113c
00000040: 7027 04bc 51b0 1e3d ef09 e93d 6dcd ef3d
00000050: 111f 533e 2a89 2bbd 3523 c2bc 3a30 073d
00000060: 83b4 a03d 657e 3cbe 0df1 e53c 3e01 333c
00000070: 45f6 b5bd 69c7 403c 59d0 963d 8696 27bc
00000080: 1891 703e 079e 723c 1fae 923d 90ef 503e
00000090: 3318 cf3c e285 16bd 2615 16bd dc53 0d3d
000000a0: aff6 ddbc ed23 18bd e68c fabd 4a67 693b
000000b0: 8039 083d f813 153e 7031 cdbc e633 8dbc
000000c0: 9519 d13d defa c0bc ea7f e93d b678 84bd
000000d0: 887b b0bd fdfd 19bd bfee 4b3d ed11 d33d
000000e0: 1758 8b3e 3bc4 adbd 0bb5 2c3d 3229 2c3d
000000f0: d8ab 753c db3f 27be 6c04 d13c e001 713d
00000100: fd95 ea3d 2c8a 393e edb0 39bd b16f 85bd
00000110: 0e11 8cba 1913 1abd 058a b6bd c6f1 9f3d
00000120: 0a28 173c e6ca 6bbd c255 91bd 8b2a d53d
00000130: c14c 5b3d 576a 0abd 1c5f ef3d bcd3 0fbe
00000140: 9955 34be fa35 343c a502 82bd 8109 42be
00000150: ffa3 77bc d386 30bc fd26 e93d 9733 9bbc
00000160: fc71 2d3d 4abf 53bc ef9a 923c 698c 87bd
00000170: 461b 813d 94f0 84bd 7a03 453d b564 6bbd
00000180: 7dde 37bc 1873 a33b fc68 65be 0f32 82bd
00000190: 3235 cdbd c767 e6bd 7dd5 013d 4ec1 c5bc
000001a0: cb85 e2bd 1140 463e 31a1 ac3d 2c09 ed3d
000001b0: ca67 1ebd 74ef 0b3d 0948 aebd 3078 14be
000001c0: 629d 1c3d c123 a9bd 92b5 313e 97ad 543c
000001d0: 9d04 df3c 3bd7 c2bb c859 7d3e a77a ae3b
000001e0: 610a f33c cdef dbbd 9b6e 323e c171 8c3d
000001f0: 496c 61bd e821 2b3d 4a3c 5f3d a3a8 a2bb
00000200: 01a6 c0bd 4f8c 063e 84ea a9bd 2605 1e3e
00000210: 1e4d 32bc f77d 953d 5d61 8f3d f069 aabd
00000220: 1eb0 2d3e 6db6 ab3e 793e 01be f2e8 83b9
00000230: 75b3 033e f91f a8bd 3082 c5bb 99e9 3d3d
00000240: 6fed 9ebd 5ecf 263d 4aaf 0c3d f82c 093d
00000250: 3c8f 6f3b f3ed 7b3d 0853 f83c 6fc0 0f3e
00000260: 5938 cbbc 99bc 733d 0a59 203e 987d 0b3e
00000270: 1262 19be bd53 1e3d 284c f8bc 42c5 733d
00000280: 1a03 ecbd f023 3cbd 7cf0 783d 0456 0b3e
00000290: e2ee 623d d3da 31bd 6e8a 943c b8c0 e63c
000002a0: 890e 32be 5fc1 82be 0cab c4bc 1e6a a83d
000002b0: 3cb8 e0bb ec61 693d f8bf 8ebc 3e38 68bd
000002c0: 6ac1 883d c997 62bd c1b7 f7bd 6840 723d
000002d0: 81cf 273b 5af9 12be 224b 1cbe 5538 bf3d
000002e0: d832 23bd 516e 083e fcdb 55bd 01c0 07be
000002f0: 0a52 40bd 1e94 0f3d 6a3f 66bc 9022 27bd
00000300: b1a1 fbbd 52a8 533c 5282 e93d 24a4 c83c
00000310: 5da8 89bb 332a debd 5f53 28bc 1194 0b3d
00000320: 13b5 b9bd fe13 d43d c887 cc3b 3a03 1bbd
00000330: 58bf a83d 7bda 8e3b 8bbf c3bd a5c9 56bd
00000340: 4a54 db3d 7826 083e 803a 243d 722a c93a
00000350: 4551 85bc 92b1 19bd 9d9c 7bbc 5910 40bd
00000360: f36f eebc 758c 9cbd 8439 93bd c0c1 063d
00000370: 6d3a 843c b446 9abd 99a0 6a3e 6ccd 903d
00000380: 8970 fe3d 05e2 bbbd c892 ad3d e877 e93d
00000390: 2612 d73b 2375 25be c804 28bd c964 44bd
000003a0: 68f0 ce3c 4a07 b33d 632b 093d 09f2 bb3d
000003b0: 9e4d a83d 9e49 1fbd e6b2 8ebd 70ce a6bd
000003c0: fbb2 f3bc fe88 07be 9576 8c3e 872d 86bd
000003d0: 53c7 33bd 7dc9 aebd c9db 24bd b8da d5bd
000003e0: 5535 6e3d a1ed 1b3c 5502 27bd 4fea 9ebb
000003f0: e4cd 61bd cdb3 b83c 5489 603c 7cfe a43d
-0.13142629 0.089306526 -0.07965289 -0.021633133 -0.21125425 -0.1530444 0.17152241 -0.06743027
0.034919962 0.09694565 0.0012559197 0.059036214 -0.04450531 0.16257732 0.031413138 0.008876487
-0.008066043 0.038742367 0.11378848 0.11709104 0.2061732 -0.041878857 -0.023698429 0.033004977
0.0784693 -0.1840759 0.028069044 0.010925589 -0.08884863 0.011766293 0.07363958 -0.010228759
0.23492849 0.0148081845 0.07162117 0.20403886 0.025280094 -0.036748774 -0.036641262 0.034503803
-0.027095167 -0.037143636 -0.122339055 0.0035614544 0.03325796 0.14558399 -0.025047988 -0.017236661
0.102099575 -0.023557123 0.11401351 -0.06468336 -0.08617312 -0.037595738 0.049788233 0.103061534
0.27215645 -0.084846936 0.042164844 0.042031474 0.014994584 -0.16332953 0.025514804 0.05883968
0.11454389 0.18119115 -0.045334745 -0.06515444 -0.0010686235 -0.03761587 -0.08913044 0.078097865
0.009225855 -0.057566546 -0.07096435 0.10408505 0.053539995 -0.03379282 0.116880625 -0.14045614
-0.17610778 0.010999197 -0.06348161 -0.18948938 -0.015114783 -0.010774332 0.113843895 -0.018945498
0.042345032 -0.012924025 0.017896144 -0.06618578 0.0630403 -0.06491199 0.04809902 -0.05746909
-0.011222479 0.0049880855 -0.2240333 -0.06357204 -0.10019912 -0.11250263 0.03169774 -0.024140026
-0.11060675 0.19360377 0.08429182 0.11574015 -0.0386732 0.034163907 -0.08509833 -0.14498973
0.03823603 -0.08258773 0.1735442 0.01298084 0.02722388 -0.0059460676 0.2474128 0.00532468
0.029668035 -0.10739098 0.17425005 0.06857634 -0.05503491 0.041780382 0.054500856 -0.0049639507
-0.09406663 0.13139461 -0.082966834 0.15431651 -0.010882644 0.072994165 0.070009924 -0.08320987
0.16961715 0.33537617 -0.12621488 -0.00025159825 0.12861426 -0.08209223 -0.0060274825 0.046365354
-0.077601306 0.040725105 0.034346856 0.03349015 0.003655388 0.061506223 0.03031303 0.14038251
-0.024807142 0.059506033 0.15658966 0.13622129 -0.14978817 0.038654078 -0.030309752 0.05951429
-0.11524029 -0.04593271 0.06077622 0.13607031 0.055403598 -0.043421578 0.018132415 0.028168067
-0.17388357 -0.25538155 -0.024007343 0.08223365 -0.0068579 0.05697815 -0.017425522 -0.05669426
0.06677516 -0.055320535 -0.12095595 0.059143454 0.002560586 -0.14352933 -0.15263036 0.09336916
-0.03984341 0.13323332 -0.052211747 -0.13256837 -0.04695324 0.035053365 -0.014053205 -0.040804446
-0.122866996 0.012918549 0.1140181 0.02449233 -0.0042009787 -0.108478926 -0.0102737835 0.034076754
-0.0906774 0.10355376 0.0062417723 -0.037844874 0.08239621 0.004359541 -0.09558018 -0.052438397
0.10709436 0.13295925 0.040094852 0.0015347733 -0.016274104 -0.03752286 -0.015357164 -0.04689059
-0.029106116 -0.076439776 -0.071887046 0.03289962 0.01614114 -0.07533017 0.22912826 0.07070431
0.12423808 -0.09173969 0.08475262 0.113998234 0.0065634428 -0.16157965 -0.041020185 -0.04794768
0.025261119 0.08741625 0.033488642 0.09177024 0.08217929 -0.038888566 -0.06967716 -0.081448436
-0.02974843 -0.13235852 0.2743422 -0.065516524 -0.043891262 -0.085345246 -0.040248666 -0.10442108
0.05815633 0.009517104 -0.04077371 -0.004849709 -0.055127993 0.022546673 0.013704617 0.080563515

conv3.bias f4 [64]
00000000: 602a 21bc fdbd 7fbb af10 f2bc aa0f 6dbc
00000010: aebf 03bc 9863 b4bc dd35 1a3b 757b 0f3d
00000020: ca1e b83c df3a 0fbd 5df7 eabc 3e38 883c
00000030: 3fb1 c83c c405 103d 3e8e 893b d0f2 cebc
00000040: e137 dabc b10f 1c3d 17b6 74bc 544f db3c
00000050: 2bd1 1bbd 4602 1f3c 8627 ee3c 1620 7bbc
00000060: 43f8 09bd bbc9 aabc d942 42bd 5210 3e3c
00000070: 56a5 00bd 1b41 fb3c eff7 a1bc ddae 9f3c
00000080: 5c7e bd3c 8091 d9bc 8986 273d 15c0 32bd
00000090: 96b4 433c cbe0 bf3c 9447 0cbd 8522 793a
000000a0: 1a8a 233c 1c13 dfbc dc91 303c d345 de3b
000000b0: a8a7 303c c576 db3c d4e5 3dbb 1984 98bc
000000c0: a8a6 35bc 73e8 c63c f787 e1bb 3202 253d
000000d0: affa 193d 5e1e 13bc 1e4d d53b 3d4b c1bc
000000e0: 3e82 013d dc1f 3b3c ef37 03bd c0ed 2bbd
000000f0: 7555 2a3c 3f49 ccbb 4e9b 003c 0fc0 de3b
-0.009836763 -0.0039023154 -0.029548971 -0.014469067 -0.0080413055 -0.022020146 0.002353064 0.035029847
0.022475619 -0.034968253 -0.028682405 0.01662838 0.02449858 0.03516175 0.004197865 -0.025262266
-0.026637973 0.038100902 -0.014935992 0.026771225 -0.038041275 0.009705132 0.02907158 -0.015327474
-0.033684026 -0.020848146 -0.047427032 0.011600571 -0.031407677 0.030670693 -0.019771544 0.019492561
0.023131542 -0.026558638 0.040899787 -0.043640215 0.0119449105 0.02342262 -0.03424795 0.000950374
0.009981656 -0.027230792 0.010776963 0.006783226 0.01078216 0.026790032 -0.00289761 -0.018617677
-0.011087097 0.024280762 -0.0068826634 0.040285297 0.037592586 -0.008979408 0.006509437 -0.023595447
0.03161835 0.01142117 -0.032035764 -0.041974783 0.010396351 -0.0062343176 0.0078495275 0.0067977975

bn3.weight f4 [64]
00000000: 5618 953f b3dc 773f 112a 853f 1261 853f
00000010: e3a2 683f 87cf 8c3f 558e 833f 6a55 6a3f
00000020: ba5a 3c3f e3b8 973f 0d4d 6e3f 9c94 723f
00000030: 5e70 833f d5fc 723f 9d9a 5c3f 8adb 733f
00000040: e7b9 933f 50af 423f 2e74 703f ba43 803f
00000050: f476 873f f828 863f c3b8 7f3f 6248 563f
00000060: 3af3 853f cfdf 753f 4490 903f c0d9 543f
00000070: 02fc 873f 8fb2 5b3f 618a 643f c1a9 703f
00000080: 45d8 af3f aebc 7e3f 2c50 873f 962c 5d3f
00000090: 03cd 753f c3e0 7d3f fd58 863f 798e 5f3f
000000a0: 7296 833f 0ce9 783f 7b89 713f b16f 4f3f
000000b0: de44 803f 150a 863f c425 663f f4e9 6f3f
000000c0: a160 8b3f 078f 833f 414a 933f 128c 893f
000000d0: 37fe 703f 369f 4c3f cef3 523f 0d31 763f
000000e0: b0a2 903f 5515 593f 010c 863f 8247 7b3f
000000f0: b034 913f 4de5 803f 493d 9c3f c867 5e3f
1.1648052 0.96821135 1.0403463 1.0420249 0.90873545 1.1000832 1.0277811 0.9153658
0.7357594 1.1853298 0.9308632 0.9475801 1.0268667 0.9491704 0.8617342 0.95256865
1.1541108 0.76048756 0.93927276 1.0020669 1.0583177 1.0481253 0.998913 0.837042
1.0464852 0.9604463 1.1294026 0.8314476 1.0623782 0.85819334 0.8927365 0.94009024
1.3737875 0.9950665 1.0571342 0.8639616 0.9601595 0.99171084 1.0495907 0.8732677
1.0280287 0.972306 0.94350404 0.810298 1.0021017 1.0471827 0.89901376 0.9371636
1.0888864 1.0278023 1.1507035 1.0745871 0.941379 0.79930437 0.82403266 0.96168596
1.1299648 0.84798175 1.0472413 0.9815599 1.1344204 1.0069977 1.2206203 0.8687711

bn3.bias f4 [64]
00000000: 5430 14be d2e2 74bd 1113 3abe c4af e4bd
00000010: 19e9 bebd 4684 43be 1ea6 1cbe 5af0 c2bd
00000020: fc19 42be 0244 c7bd 343a 21be 7165 77bd
00000030: 1ea2 3dbe 6249 5ebe 7b4e c3be 9864 c6be
00000040: 439d 07be 252d 8dbe 9033 b9be 0dc6 c5be
00000050: cf07 eabd a338 71be 6148 f0be e3dc 5fbe
00000060: c787 9ebe 848b fbbd 2dbc b4be 21c3 dcbe
00000070: 9286 2bbe 0856 51be f91b 7abe 8112 3cbe
00000080: f33e 6dbe 8823 59be 0931 40be 889c 9fbe
00000090: 3666 89bd 729f a1bd 7778 94be 6935 e3bd
000000a0: 02ca a4bd ba26 14be 954c 75be f872 35be
000000b0: aaef 7abe 33e0 8fbe 2a38 babb 32e3 5abe
000000c0: 076e 67bd 83c8 cabe b524 81be 6300 8ebe
000000d0: 1f0e 17be 0314 9dbe 42b2 a3bd 5025 09bc
000000e0: f041 29be 3529 b3be 32b9 77be 155a 6abe
000000f0: 11d5 aabe 9e90 92be 6b86 11be e3d1 21bd
-0.1447156 -0.059786625 -0.18171336 -0.11166337 -0.093218036 -0.19093427 -0.15297744 -0.095185
-0.18955225 -0.09729768 -0.15744859 -0.060399476 -0.18518874 -0.21707681 -0.38145813 -0.38748622
-0.13243584 -0.27573505 -0.36172152 -0.38627663 -0.114272706 -0.23556761 -0.4693022 -0.21861605
-0.30962965 -0.1228247 -0.35299817 -0.43117622 -0.16750553 -0.20442975 -0.24424733 -0.18366434
-0.23168544 -0.2120496 -0.18768705 -0.3117411 -0.06708948 -0.0789174 -0.28998157 -0.110941716
-0.080463424 -0.14467898 -0.23954995 -0.17719638 -0.24505487 -0.28100738 -0.005682965 -0.2137573
-0.056501415 -0.39606103 -0.25223318 -0.2773467 -0.1475148 -0.3067933 -0.07992984 -0.008370712
-0.1652906 -0.34992376 -0.2419174 -0.22885926 -0.33365682 -0.2862596 -0.14211433 -0.039506804

bn3.running_mean f4 [64]
00000000: 283a 9e3e 4ce2 093f ecea 083f cd38 00c1
00000010: fc8b 6cbf 1aa6 85bf 70e2 38c0 b5a0 11c0
00000020: 58f0 2e3e 11fd 33c0 2e3c abbf a53a f5bf
00000030: 053a 2dc0 9197 1440 a895 02c0 e5ab 423e
00000040: c067 2cc0 19f0 abbf 417a 32bf 7f98 48bf
00000050: 2220 53c0 4667 54c0 4169 5ec0 5f51 c9bf
00000060: a972 cbbe 5094 c5be 1ffb 6bbf 2687 b3bd
00000070: d5e8 dbbe 82b9 9040 669f 1ebf 95cb 27bf
00000080: f77e 1040 657a 09c1 b154 363f 3f6e 9bbf
00000090: 0104 24c0 e189 0640 a85d 3cc0 1212 1dc0
000000a0: f62f 4dc0 33e1 67bf cd5b 81c0 0b69 df3e
000000b0: 4965 dc3d 5a54 b63d d634 16c0 9896 7fbe
000000c0: e8b2 51c0 b033 b7bf 6ac5 14c0 135a c2bf
000000d0: 1887 3bc0 61ce 1640 2043 513f 3ea2 c13f
000000e0: 537d e1bf 5ad2 5240 d466 32c0 e24c b63e
000000f0: 4e12 f4bf 872c 88c0 7375 1bbb e345 a9c0
0.30903745 0.53860927 0.5348346 -8.013867 -0.924011 -1.0441315 -2.8888206 -2.2754338
0.17083871 -2.812321 -1.337774 -1.9158522 -2.7066662 2.3217509 -2.0403843 0.19010885
-2.6938324 -1.3432647 -0.69717795 -0.7835769 -3.2988362 -3.3188033 -3.4751742 -1.5727957
-0.39735916 -0.38589716 -0.92180055 -0.08766012 -0.42951074 4.522645 -0.6196197 -0.65545017
2.2577493 -8.5923815 0.7122298 -1.214302 -2.5627444 2.1021655 -2.9432163 -2.454228
-3.2060523 -0.90578 -4.042456 0.4363483 0.10761506 0.089028075 -2.3469748 -0.2495979
-3.2765446 -1.4312649 -2.3245492 -1.5183738 -2.9301205 2.3563464 0.8174305 1.5127637
-1.7616371 3.2940888 -2.7875261 0.35605532 -1.9068086 -4.2554355 -0.0023721128 -5.289781

bn3.running_var f4 [64]
00000000: 09d7 4d41 55a1 4541 4320 2a41 7e97 de41
00000010: b0b2 4e41 f3e7 7741 2a99 aa41 3bdd 2841
00000020: 9f38 6041 3ad1 9141 b61d 0a41 f8ea 2441
00000030: 214a 9841 54fa 7541 728a 2741 787f 6641
00000040: 0e92 4441 3fbf 2341 1909 0841 c94d 2d41
00000050: fd2d 6341 4b35 1c41 bd2a 3a41 74bd 3941
00000060: 8e20 7b41 aabc 4141 0da7 6f41 e01f 5641
00000070: e1ba 1841 b2dc 5c41 0f02 4241 b074 0a41
00000080: 4872 2a41 bc3d 0942 4222 7641 c0dd 4241
00000090: c140 2741 926b 8341 1089 1841 b934 9341
000000a0: 79c5 6241 b0c0 1441 905d 1541 08ac 3c41
000000b0: d798 5741 e5a7 8641 5680 2141 dc77 a741
000000c0: 296b 1541 c96e 2441 fa73 ac41 8e30 2941
000000d0: c58b 7141 484b 6a41 5d5a 6d41 3f28 4a41
000000e0: 35e5 c041 4da7 1c41 133e a141 42fb 5b41
000000f0: 1959 b041 ca20 ad41 3ab3 3741 388e 9e41
12.864999 12.351888 10.632876 27.82397 12.918625 15.494128 21.324787 10.554011
14.0138235 18.227161 8.632254 10.307365 19.036196 15.373615 10.4713 14.40612
12.285658 10.234191 8.502221 10.8314905 14.198728 9.763011 11.635434 11.608753
15.695448 12.108561 14.978284 13.382782 9.545625 13.803881 12.125503 8.653488
10.652901 34.310287 15.383364 12.179138 10.453309 16.427525 9.533463 18.400743
14.173211 9.297043 9.335342 11.792 13.474814 16.83198 10.093832 20.933525
9.338662 10.277047 21.55663 10.574354 15.096623 14.643379 14.834561 12.634826
24.111917 9.790845 20.15531 13.748842 22.043505 21.64101 11.4812565 19.819443

fc1.weight f4 [128, 576]
00000000: 20d1 5dbd 918f 1bbe 3d32 43bd 941a 1dbe
00000010: a009 853d c4dd 513b c41a 2ebe 5c3b 90bd
00000020: 94a2 003e 6e4f c93d 7de7 eb3d 87f2 bbbc
00000030: 4980 e73d e4e7 393e d7a5 86bd 973f 2bbe
00000040: e5ae 1f3e 77bd 483b 6882 d0bc 1807 deb8
00000050: 51b5 86bd c0c1 543d 87c6 04bd 2335 77bd
00000060: 8875 b53c 006d 043e a698 a2bc 0fe3 863e
00000070: c82f 143e 8a62 e7bc dea2 153e 6a45 913d
00000080: 5b6e 453d bb07 e53b 3834 353e 4af5 fe3b
00000090: eaa0 9a3d db9a 823c cf0a 123c 2be2 003e
000000a0: 727a 923d 4299 883d 7b22 e1bd b70d 99bd
000000b0: ee84 a33d e504 f13d 0654 ea3d 5ce2 873d
000000c0: 89e3 083e 0e39 293e 4bc7 d23c 98d0 2bbd
000000d0: 43c1 ecbd 8af4 a7bd 2d73 a83d c7d3 583d
000000e0: da11 94bd 515d 793d 71e0 73bd f704 c63c
000000f0: 6306 26bd a47b 75bd c33d 1bbe 35ff 8b3c
00000100: 600f 32bd 005e 13bd fec4 103e 942e 913e
00000110: fbc8 46bd e63e ca3d 9742 c43d 28a2 1a3e
00000120: 6e1d 7f3d eb14 5e3d f345 37bd 5160 cdbb
00000130: 0f21 ff3d 88a0 593d 81ab ec3c cec9 aabd
00000140: 84ab 0fbe 511a a53b 4442 e9bd 34b3 673d
00000150: 63f1 3b3c dc46 9dbd 2066 8a3d b48f 1b3e
00000160: 9243 d53d a794 c4ba 34a2 943d d5aa 303d
00000170: 7141 7dbd d7bb da3d 41fc 2c3e a79e 57be
00000180: 8127 e33d 1e0a 3e3e b523 b93d 48b1 153e
00000190: 2421 573e 5a43 9e3c d96a c03d 7516 133e
000001a0: 2e8d 29bd fda7 70bd 4de6 623d eeb5 a93c
000001b0: 131e f6bd fbe3 eabd b2c5 113e f00d 5fbc
000001c0: ccb0 c73d 7bed 5dbe a60e 8e3c 0216 e13d
000001d0: bb99 ea3d be17 f0bd 5bc2 b8bc d915 75bd
000001e0: f916 ffbd 37ea 3c3c 619a e13c e41b a3bd
000001f0: 49e7 a0ba 2f67 a1bd 38ab ab3d 17f1 8b3d
00000200: aafe 403d e443 853d 2c11 8cbd c789 cc3b
00000210: 6a13 7c3d e339 2c3e 9ab6 8b3d 1ba3 b23c
00000220: 3d00 833d ecb6 93bd bb0f bbbd 65c6 e9bd
00000230: b58c fcbd 709c b03c 2e81 6cbc 723f 79bd
00000240: 0c9a a63d 48bf 0d3e 5e56 b6bd 6ffe 493e
00000250: b434 84bd f84b dcbc 7099 463c 92bb 0e3e
00000260: a70e 9fbd 6545 0dbe d8e9 3a3c bf81 d5bd
00000270: 8c25 223d d2a3 69bc 66e3 3cbc cd58 8a3d
00000280: face a13d 9e83 2e3d 4391 da3c b5ab f5bd
00000290: e691 4fbe db4b f63d deb5 79bd 1e0b 983a
000002a0: f2b1 9a3d 1ca6 dfbd bb4d 6d3d ae87 16be
000002b0: 2f4a c8bd cb6c 14bd 5aac f9bd 237e 5c3d
000002c0: 15bd c2bd 985a 3ebc ed94 6bbc ec1c e03d
000002d0: bfce dfba 6e89 91bd 67b0 8abb 359e f53c
000002e0: cddd 4d3e 72d4 653d f8db 5abd e0bf d33d
000002f0: 4968 c43d ab67 62be 4e5d a2bd 9830 11bd
00000300: 02ea 1fbd 0fbb c03d 116c 43be 4dd2 5cbc
00000310: 3dd3 8e3d 66a1 cc3d 23d2 f53c 3198 013e
00000320: dc59 463d 8ed9 8d3d a4c2 bc3d 6a25 97bc
00000330: 8c33 833d 8d6b 4d3e aa40 b8bc f7f9 1abe
00000340: 204e b8bd 65b8 01be 2408 5f3b 0f62 2fbd
00000350: be0a f7bc 4900 f13d f038 923d d489 d6bd
00000360: ee35 493d 8352 62bd 3fc3 223d d1ff b53c
00000370: efbe 3a3d 217f bb3d fd73 7dbd ebed 85bd
00000380: 1c8a 8e3c e51e cc3d 7b40 953d d0fe ea3d
00000390: b211 cabd e4ad 0abe fa14 f43d 9cd2 1dbe
000003a0: fedc b7bd 4c0f 053e 9438 e1bc ae51 543d
000003b0: bc3a 9ebc fc24 3d3d 0369 9e3d 8de5 cb3c
000003c0: b682 33bd f3b4 6a3d b871 d7bd 1f37 713d
000003d0: a276 6d3d f588 18be 1773 243d 7aa3 d33d
000003e0: f927 10bd d36c f13a 7c9e 97bb 83e2 f5bd
000003f0: b4fb 003c 6fb2 2e3d a7fd 63bc 5d0e 043e
-0.054154515 -0.15191485 -0.047655333 -0.1534217 0.064959764 0.0032023052 -0.17002398 -0.07042572
0.12562019 0.09829603 0.11518762 -0.022942794 0.11303765 0.18154866 -0.065746 -0.16723476
0.1559406 0.0030630508 -0.025452808 -0.00010587106 -0.06577552 0.051942587 -0.032415893 -0.06035341
0.02215077 0.12932205 -0.01984818 0.26345107 0.14471352 -0.02824523 0.1461291 0.07093318
0.048200946 0.006989447 0.17695701 0.0077807056 0.07550223 0.015942981 0.00891371 0.12586276
0.07152261 0.066698566 -0.10992905 -0.07473319 0.07984339 0.11768512 0.114418074 0.066349715
0.13368048 0.16525671 0.025729796 -0.041946977 -0.11560299 -0.08200939 0.08225093 0.05293634
-0.072299674 0.06088001 -0.059540216 0.02417229 -0.040533435 -0.059932366 -0.15160279 0.017089466
-0.043471694 -0.035978317 0.14137647 0.2835585 -0.048531514 0.09875278 0.095830135 0.1510092
0.062283926 0.054219168 -0.044744443 -0.0062675853 0.12457477 0.05313161 0.028890373 -0.083392724
-0.14030272 0.0050385376 -0.11389592 0.056567386 0.011471125 -0.07679531 0.0675776 0.15191537
0.10413279 -0.0014997915 0.072575 0.043131668 -0.061829988 0.10680359 0.16893102 -0.21056615
0.11091519 0.18558547 0.09040014 0.14618409 0.21008736 0.019319225 0.093953796 0.14364035
-0.041394405 -0.058753956 0.055395413 0.020716634 -0.12017455 -0.11469265 0.14235571 -0.013614163
0.09750518 -0.21672623 0.01734097 0.10990526 0.11455103 -0.117232785 -0.022553613 -0.05983529
-0.124555536 0.011530451 0.027539434 -0.07964304 -0.001227596 -0.07881009 0.08382267 0.068330936
0.047117867 0.0650709 -0.06839213 0.0062420103 0.061541952 0.16818957 0.06821938 0.02180629
0.0639653 -0.07212624 -0.0913386 -0.11414794 -0.12331525 0.02155897 -0.014435096 -0.06085152
0.08134851 0.138425 -0.08903192 0.19725965 -0.06455365 -0.026891693 0.012121543 0.1393874
-0.077664666 -0.13796003 0.011408292 -0.10425138 0.03958659 -0.014260249 -0.011528825 0.06755219
0.07900806 0.04260599 0.026680594 -0.11995641 -0.202705 0.12026187 -0.060964458 0.0011599993
0.075534716 -0.10920355 0.057935458 -0.14700195 -0.097797744 -0.036236566 -0.121910766 0.05383123
-0.09508721 -0.011618279 -0.014378768 0.109430164 -0.0017075165 -0.07106291 -0.0042324546 0.029982666
0.20104142 0.056110807 -0.053432435 0.103393316 0.09590203 -0.22109859 -0.07927953 -0.035446733
-0.039041527 0.094106786 -0.19084193 -0.013477874 0.06973884 0.09991722 0.030007428 0.12655713
0.04842554 0.06926261 0.09216812 -0.018450458 0.06406316 0.20060559 -0.022491772 -0.15134417
-0.08999276 -0.12667997 0.0034031952 -0.042818125 -0.03015649 0.117676325 0.07139766 -0.104755074
0.049123697 -0.05525447 0.039736982 0.02221671 0.045592245 0.09155107 -0.061878193 -0.0653952
0.01739984 0.0996683 0.07287689 0.11474383 -0.09866656 -0.13542897 0.119180635 -0.15412372
-0.08977698 0.12994117 -0.027492799 0.05183571 -0.019315116 0.04617785 0.07734873 0.024889732
-0.043825828 0.057301473 -0.10519737 0.05889046 0.057974465 -0.14895995 0.04014882 0.10333915
-0.03519437 0.0018419273 -0.004627047 -0.12006094 0.007872511 0.042650636 -0.013915456 0.12896104

fc1.bias f4 [128]
00000000: 6bfd 20b9 9d85 a43c cda5 1abc 0227 f43c
00000010: 9c49 753c fabd 983b f4af 02bb 19c0 9d3c
00000020: c36c 1abd 1d97 c93c 99e4 063c a6bd fd3c
00000030: 98f3 fc3c aaf7 c3bc a91a 32bc fd5e ac3b
00000040: bdbc 443c 5540 1e3d c92f 253d cf8d 1abc
00000050: 09c3 01bd 6038 993b d4ed 15bd 32b6 12bd
00000060: bd8f e83c 66b2 5a3c 1bf5 1e3d 2098 413c
00000070: dde2 27bc c6f8 6dbb 6572 273c 04b4 833c
00000080: 6e94 d73c 6901 b0bc cfdb 0e3d a5ec dcbb
00000090: c94c cbb9 5c51 d5bc dbee fd3c 058d 883c
000000a0: 04fd 18bc 2663 20bd 713d 103d a3f8 d4bc
000000b0: 0aa8 00bd 8c83 cfbb 652c 9e3c 5558 57bc
000000c0: b059 94bc d638 96bc 7142 2fbc b0b9 c43c
000000d0: a0b3 41bc a8f0 093c 672a e53c 1766 4a3c
000000e0: 487c 95bc 9690 95bc d853 ebbb 6f4a 0b3d
000000f0: 6b34 7fbc 89d7 ea39 3018 a43a 2c99 29bd
00000100: 350c 283d fb11 c3bc fff7 1a3d 4f95 de3c
00000110: a975 88bc 8f9c 4e3c 24fb a3bc 2245 07bb
00000120: 2e25 aabc 035e f63c b571 cbbc 7af2 113d
00000130: aa26 0a3c a616 0abd 001d 4b3c ed40 6a3c
00000140: d74c 083c f638 393b 4a8a 15bd 6a12 b8bb
00000150: 02cb 313c 408c 4abc 0177 34bc 3531 5cbc
00000160: 912f a73c e0c9 a1bc 8829 79bc 4af1 07bd
00000170: de99 a1bc 244a 163d 30d2 283d c5e4 e4bc
00000180: d489 c83c 9e74 183c 839b 073a c07b 1d3c
00000190: e468 ce3c 9d97 353c 46dd 253c a591 afbb
000001a0: 80ea 213d 3ab0 23bd 377f 433c 5905 8ebc
000001b0: 1570 b5bc fa61 c03b 36d6 37bc c929 0ebd
000001c0: 60b7 2bbc 0183 22bc 613d c83c 8a2e 10bd
000001d0: dafa dcbc dc4d b4bc 00a5 183d 3e38 223d
000001e0: 59cb 2f3b a00b 973c 3580 f8bc 1282 ba3c
000001f0: 1d31 a9bc 25e7 71ba 368b 8d3c 2fc3 20bd
-0.00015353195 0.020083243 -0.009438944 0.029803757 0.014971163 0.004661319 -0.0019941302 0.019256638
-0.03770138 0.02460819 0.008233213 0.03097422 0.030877873 -0.023921806 -0.010870614 0.005260347
0.012007889 0.03863557 0.040328775 -0.009433224 -0.03168014 0.00467591 -0.036603764 -0.035818286
0.028388852 0.013348198 0.03880797 0.011816055 -0.0102469595 -0.003631161 0.010220145 0.01607705
0.026315894 -0.021485047 0.034877595 -0.0067420774 -0.00038776387 -0.026039772 0.030997684 0.016668806
-0.009337667 -0.039157055 0.035214845 -0.025997465 -0.031410255 -0.0063328203 0.019308278 -0.013143619
-0.018109173 -0.018337648 -0.010696993 0.024014324 -0.011822611 0.008419193 0.02797432 0.012353442
-0.018247738 -0.01825742 -0.007181626 0.034006532 -0.015576462 0.00044792544 0.0012519415 -0.04140584
0.041027267 -0.023812285 0.037834164 0.027170805 -0.016657667 0.012610569 -0.020017214 -0.0020640572
-0.020769682 0.030074125 -0.024834493 0.035631634 0.00843207 -0.033713005 0.012397051 0.014297706
0.008319101 0.002826271 -0.036508836 -0.0056174295 0.0108516235 -0.01236254 -0.011014701 -0.013439466
0.020408424 -0.019749582 -0.015207656 -0.033189096 -0.01972669 0.0366918 0.041216075 -0.027941117
0.024479784 0.009305147 0.00051730144 0.009612024 0.0251965 0.011083511 0.0101235565 -0.0053579384
0.039530277 -0.039962985 0.011932186 -0.017336534 -0.022148171 0.0058710547 -0.011220505 -0.03470782
-0.010480732 -0.009918929 0.02444333 -0.035200633 -0.026975084 -0.022009782 0.03726673 0.039604418
0.0026824086 0.01843816 -0.030334571 0.0227671 -0.020653302 -0.00092278636 0.017278295 -0.03924864

bn4.weight f4 [128]
00000000: 1e8e ae3f f730 bf3f fa94 ad3f 2608 9e3f
00000010: 5b03 a23f 22d9 a23f 439b 9b3f 77a6 9e3f
00000020: b526 aa3f b487 bc3f b1a8 a23f d493 943f
00000030: f183 bc3f b5d2 ad3f c0e4 a73f 47dd b63f
00000040: 5171 ae3f 981d 9d3f 4b60 ac3f 9eab ae3f
00000050: add0 aa3f 0e67 a33f 9ba8 b33f 7aa3 ad3f
00000060: fb52 a43f e03a ab3f 96d9 a33f 5744 ac3f
00000070: 390d bd3f dee9 b03f 2edd ac3f 0884 b33f
00000080: 36f8 9a3f 68bf b33f 708a b13f c06f af3f
00000090: 30d3 a13f 9d35 b13f 759a b13f 47bc b23f
000000a0: 90c3 ab3f 77f0 b13f 1545 b03f 6a22 a73f
000000b0: cbb2 b83f 1cde 9c3f 9a43 a43f d1cb af3f
000000c0: 8110 b53f ec1b 993f 36d5 a53f 16a1 b63f
000000d0: 0e05 aa3f 216c 9d3f 5ba1 9b3f f9b0 a93f
000000e0: fb05 ab3f 73f7 b23f c177 b73f 1071 a53f
000000f0: b811 af3f 361b b23f 2805 ab3f 41fd b63f
00000100: 32a8 b63f 152b bd3f a225 b33f e8e7 a23f
00000110: 4332 da3f f84b a33f 2d15 a43f 86c5 a93f
00000120: 526d a83f 6593 ac3f 1a36 a73f a54d b43f
00000130: e4c9 a83f 5352 a73f f52f c93f 5e90 bd3f
00000140: b10e af3f 0d95 ab3f 38dc aa3f cb23 a23f
00000150: a4d1 a53f 217a ae3f f927 ad3f 9b0c a83f
00000160: f706 b83f 408c a73f 14b4 983f b3e9 9f3f
00000170: 0962 bc3f 5077 a73f 3c9d a93f 66e3 be3f
00000180: 9b35 a93f 7930 a63f fbd4 a63f 350b ad3f
00000190: 3dc4 bc3f 9f4f a53f b176 a83f 77d5 ad3f
000001a0: 776b a83f 67b0 ab3f c7f0 b73f 2921 b23f
000001b0: 1d1a ad3f aeff a93f 5c95 a13f 2a7b b43f
000001c0: ec80 b63f e062 b43f bcbe ab3f 70e7 a33f
000001d0: 515e a53f 995e b83f d3ca aa3f f495 a53f
000001e0: 1bea b63f ab10 a03f ee90 ab3f b958 ae3f
000001f0: 1f01 963f 9375 a73f a48b b13f ab37 bf3f
1.3637121 1.4936818 1.3561089 1.2346237 1.2657274 1.2722514 1.2156757 1.2394551
1.3293062 1.4728913 1.270773 1.1607614 1.4727765 1.3579928 1.3116684 1.4286278
1.3628331 1.2274656 1.3466886 1.3646123 1.3344933 1.2765825 1.4035829 1.3565514
1.2837824 1.3377342 1.2800777 1.3458356 1.476966 1.3821371 1.3504999 1.4024668
1.2106998 1.4042788 1.3870373 1.3705978 1.2642574 1.3844486 1.3875262 1.3963708
1.3419056 1.3901509 1.3771082 1.3057377 1.4429563 1.2255282 1.283313 1.3734075
1.4145662 1.1961646 1.2955692 1.426791 1.3282793 1.2298623 1.2158617 1.3257133
1.33612 1.3981766 1.4333421 1.2925129 1.3677282 1.3914554 1.3360949 1.4296037
1.4270079 1.4778773 1.399586 1.2727022 1.7046589 1.2757559 1.2818962 1.3263404
1.3158362 1.3482481 1.3063385 1.4086195 1.3186612 1.3071998 1.571776 1.4809682
1.3676358 1.3404862 1.3348455 1.2667173 1.2954602 1.3631021 1.3527824 1.3128847
1.4377126 1.3089676 1.1929955 1.2493194 1.4717418 1.3083286 1.3251109 1.4913146
1.3219484 1.2983543 1.3033746 1.3519045 1.4747387 1.2914923 1.3161222 1.3580769
1.3157796 1.3413209 1.4370354 1.391637 1.3523594 1.3281152 1.2623706 1.4100087
1.4258094 1.4092674 1.3417583 1.2805004 1.2919408 1.4403869 1.3343147 1.2936387
1.4290193 1.2505087 1.3403604 1.3620826 1.1719092 1.3082756 1.387074 1.4938864
