saved_models/rotate+gan+3samples.pth (torch, 538004 bytes, 26 tensors)

conv1.weight f4 [32, 1, 3, 3]
000000 45 24 bc 3b e4 af 39 be f4 05 c0 be 24 71 83 3e
       0.0057416284 -0.18133503 -0.37504542 0.25672257
000010 c0 36 8b be e4 cd 15 be b8 dc 65 be 40 03 16 bf
       -0.27190208 -0.14629322 -0.22447479 -0.5859871
000020 4d 28 a5 bd e2 89 35 be 6c 60 a6 be 42 bc 67 3e
       -0.080643274 -0.1772838 -0.3249544 0.22630408
000030 41 db 2b 3e 4a 4e 9f be 67 be 82 bd c4 77 c3 3d
       0.16782857 -0.31114417 -0.063839726 0.09544328
000040 30 9c d1 bd f9 de ee bd a7 79 df be 7c 53 81 3a
       -0.102348685 -0.116636224 -0.436475 0.0009866799
000050 14 04 01 3e 82 d6 a9 be af 4f 2b 3e fc c5 18 3e
       0.12599212 -0.3317147 0.16729616 0.14919275
000060 62 af 84 3d 67 92 b8 3e 2a e2 1b bc d5 cb 5c be
       0.06478764 0.36049196 -0.009514371 -0.21562131
000070 af 3a 56 be df f0 a7 bc 27 40 47 bd bf e0 89 be
       -0.20920824 -0.020500598 -0.048645165 -0.2692928
000080 d0 e2 b5 3e cf 43 d0 bd 71 16 6f be db 18 35 3d
       0.35524607 -0.101691835 -0.23348404 0.044213157
000090 01 69 24 bd bb 95 17 3e ac 57 49 be 74 0d cf be
       -0.040139202 0.14803211 -0.1966235 -0.4043995
0000a0 86 23 f5 be 53 90 97 be 87 81 75 be 14 8f a7 3e
       -0.47878665 -0.29602298 -0.23975192 0.32726347
0000b0 0c f6 4b bd 03 9c 89 3d 12 5d 29 3e f6 8a 55 be
       -0.049795195 0.0671921 0.1653941 -0.2085379
0000c0 59 38 31 3d 24 de fe bd c2 9c e1 be 18 25 83 3e
       0.043266628 -0.12444714 -0.4406491 0.25614238
0000d0 e5 29 43 3e 25 58 d8 3d 6b a0 8d 3e bd 97 5d be
       0.1905895 0.10563687 0.27661452 -0.21639915
0000e0 95 3e 8b bc 76 00 6b bd bb e7 a5 be ec 0f 9e 3e
       -0.016997615 -0.057373486 -0.3240336 0.30871522
0000f0 82 59 a7 bd c6 b9 07 bc 9b 00 a3 3d 63 b6 ca ba
       -0.08171369 -0.008284038 0.079591 -0.0015465732
000100 47 25 9c 3e bb b0 a6 be ae 4c 41 bd b4 af 97 3e
       0.3049719 -0.3255671 -0.047192268 0.29626238
000110 a7 56 b1 be 8e 20 11 bc 21 19 89 be 33 2d b3 be
       -0.34636423 -0.008857859 -0.26776984 -0.34995422
000120 c7 53 b4 3d 90 12 70 3e 41 a0 c1 bb f3 fe 17 be
       0.08805042 0.23444581 -0.0059089963 -0.14843349
000130 b5 6e 5a 3d 02 5c 45 be 2a 75 ac be 8a e4 80 be
       0.053328235 -0.1927338 -0.3368314 -0.2517436
000140 be a6 60 be f6 8e 94 3e 3f 76 95 bd 37 64 d1 bd
       -0.21938607 0.2901532 -0.07297944 -0.102241926
000150 76 53 27 3e 21 47 30 3c cd b5 35 be 67 10 2f 3d
       0.16340432 0.010759146 -0.17745133 0.042740252
000160 47 cf 1e be cf 15 3d be cc e4 83 be f9 8a 4a be
       -0.15508758 -0.1846535 -0.25760496 -0.19779576
000170 52 16 2d bd 37 f1 35 3e ab 52 d3 3e dd d8 21 be
       -0.042257614 0.17767797 0.41274008 -0.15805383
000180 b6 bb c7 be 43 40 15 3e 1d 9a 89 be a8 a8 8d 3e
       -0.390104 0.14575295 -0.26875392 0.27667737
000190 2f 30 78 bc d0 a0 2c be 36 e5 85 3d 67 c4 81 3e
       -0.015148207 -0.1685822 0.06537859 0.25345156
0001a0 ef f7 5a be 4b e1 a0 be d9 5d 55 3e 7f ff 0f 3e
       -0.21383642 -0.31421885 0.20836581 0.14062308
0001b0 59 01 79 be 07 57 a8 be cf 63 3a 3e 6d 2d 18 3e
       -0.2431692 -0.32878897 0.18202136 0.14861079
0001c0 00 3a c0 3e 3c c4 ac 3d af ff 8a 3e 75 49 ac be
       0.3754425 0.08435866 0.27148196 -0.33649793
0001d0 19 b1 11 3d 28 8e a1 be 9d d4 a2 be 50 1c 93 be
       0.035569284 -0.3155377 -0.31802836 -0.28732538
0001e0 11 c9 15 bd 6c 99 74 3d cc cb a1 bd 68 39 45 3e
       -0.036568705 0.059716627 -0.07900199 0.1926018
0001f0 f4 58 83 3e 65 6f 44 3e 09 05 05 be 7d bb f2 be
       0.25653803 0.19183119 -0.12990202 -0.47408667
000200 7f 4c e2 3c a7 68 29 3e b8 4c 69 be 76 83 05 3e
       0.027624367 0.16543828 -0.22783172 0.1303843
000210 8a b7 95 3e 49 e3 94 3e ef 8f c1 bc cf 3f 4b 3e
       0.29241592 0.29079655 -0.023628203 0.1984856
000220 42 49 1d bd b9 cd d1 bd f4 a2 98 bd 46 91 96 be
       -0.038399942 -0.102443166 -0.07452956 -0.2940771
000230 fd 1e 1a be 75 fe 78 be b0 1e 5e bc 5c cd 69 3e
       -0.15050884 -0.24315818 -0.013557121 0.22832245
000240 a9 a4 65 be a2 0e 55 be b9 28 9a be ff 98 71 be
       -0.22426094 -0.20806363 -0.30109194 -0.2359352
000250 47 4b 00 3c f9 0c 85 3e 1e c5 f7 bd df f1 e2 bd
       0.0078304475 0.2598646 -0.12098144 -0.110812895
000260 b1 43 2b 3e 9c ae 97 be 64 26 1d be 7e 58 a5 3d
       0.16725041 -0.29625404 -0.15346676 0.08073519
000270 0b 6d f2 3c 35 2e 83 be 60 e1 b3 be 31 90 03 3e
       0.029593011 -0.2562119 -0.35132885 0.12847973
000280 b7 31 a0 3e 8e 18 1d bd 22 26 7a 3e 0d b7 aa be
       0.3128793 -0.038353495 0.24428609 -0.33342782
000290 15 36 de be 0d 05 ab 3e 30 bd 31 bd 7f bc f7 3d
       -0.43400636 0.3340229 -0.043393314 0.120965
0002a0 b6 43 79 bb 96 5e 64 3e 2a f2 59 be c9 a8 56 be
       -0.0038034744 0.22301707 -0.21283785 -0.20962824
0002b0 5e ed ba bd 7f db e8 3e 9b bc 90 be ed 57 68 3e
       -0.091273054 0.45479962 -0.28268895 0.22689791
0002c0 39 59 78 3d ca c4 69 be e7 3f 6d be 03 75 25 be
       0.060631964 -0.22828975 -0.23168908 -0.16157918
0002d0 76 80 ad bd ea 65 5a 3e 9b 18 33 3e 98 31 94 be
       -0.084717676 0.2132794 0.17489855 -0.28944087
0002e0 63 ce b7 be a6 40 12 be b5 a3 07 3e 33 48 04 3e
       -0.35899648 -0.14282474 0.13246043 0.12918167
0002f0 ce 45 41 be b6 e5 8f 3e 26 1b c4 3e 9c 39 06 be
       -0.18874285 0.28104943 0.38301963 -0.13107914
000300 c4 30 21 be 11 7c 11 be 8d ea 42 bd 24 6e da be
       -0.15741259 -0.14207484 -0.047586966 -0.42662156
000310 48 fe 4a bd 0b e5 1f 3e 4c fe 94 3e 5f f3 4f 3e
       -0.049558908 0.15614717 0.29100263 0.20307682
000320 31 99 09 3e d6 d5 ae 3e 0a 97 01 bd 42 e9 5f 3d
       0.13437344 0.3414752 -0.031638183 0.05466581
000330 8f 39 6c 3e 95 e3 8c 3d 58 6e 1e be 07 ef 98 bd
       0.23068832 0.06879345 -0.1547178 -0.07467466
000340 34 64 5a be ce d2 20 bd 22 f3 10 3d 7d 2f ee 3d
       -0.21327287 -0.03926354 0.03538812 0.116301514
000350 d1 0b 9d 3e d1 1f 11 be 07 2f 6c bb a6 e0 7f be
       0.30673078 -0.14172293 -0.0036038773 -0.2498804
000360 e2 8a 17 be 5c 87 97 3e 13 1b af be 71 5b 97 3d
       -0.14799073 0.29595459 -0.34200343 0.07390488
000370 91 82 33 3e e9 97 80 be 03 a2 aa 3d 2a c9 41 3e
       0.17530276 -0.25115898 0.083316825 0.18924394
000380 7b 10 7e 3e 7f 35 97 3d 48 43 c6 bd 62 7c 9d bd
       0.24810974 0.073832504 -0.09680802 -0.0768974
000390 24 f5 80 3e 5f 99 15 3e 3d cf 98 be ac ee fd 3a
       0.25187027 0.14609288 -0.2984561 0.0019373498
0003a0 33 cc c1 bd 2b b2 c4 be ff f1 12 3d 8c 3a ef 3d
       -0.09462776 -0.3841718 0.035875317 0.11681089
0003b0 9c 05 9c 3e c6 75 92 3e 43 62 19 3e e6 c9 b9 3e
       0.3047303 0.2860548 0.1497889 0.3628685
0003c0 86 5c 8a 3e 2c d6 52 3e 0f 45 33 3e d3 ae 6b bd
       0.27023715 0.20589513 0.17506813 -0.057539772
0003d0 52 0f 98 be 7b 56 81 be 5d df 2a 3e 03 8d 1e be
       -0.29699188 -0.25261292 0.16686769 -0.15483479
0003e0 ca 91 0d be 44 66 7c 3e 57 89 39 3c 75 be 8c be
       -0.13825145 0.24648386 0.011324248 -0.27489057
0003f0 8b b0 11 3e b8 3d 11 3e 54 68 46 bd d8 65 69 3e
       0.14227502 0.141837 -0.04843934 0.22792757

conv1.bias f4 [32]
000000 ed 06 3f bd ac 27 a0 3d bb 66 3d 3e 25 bb 09 3e
       -0.046637464 0.07820067 0.1849622 0.13450296
000010 f6 8a 88 be 60 40 1b 3e 11 a8 4f be 9e 5c d9 3c
       -0.2666852 0.15161276 -0.20278956 0.026533421
000020 ad 6a 1c 3e 2a 9f c0 3e 2b 78 0e be df 25 b4 bd
       0.15275069 0.37621433 -0.13913028 -0.08796286
000030 30 73 b3 3e f0 0b c7 3d ef 8f 88 be fe a5 a5 be
       0.3504882 0.09719074 -0.26672313 -0.32353204
000040 32 d2 ad be 24 7d 31 3e 77 96 ac be 28 3a 59 be
       -0.3394943 0.17332894 -0.33708546 -0.21213591
000050 8d c4 75 3e 12 1c 23 3e 51 3c 54 3e 0d f1 bb 3d
       0.2400076 0.15928677 0.20726134 0.09176836
000060 be 59 95 be 54 c5 c2 3d 67 02 a6 3d 4e a4 30 3e
       -0.2917003 0.095102936 0.08105927 0.17250177
000070 cd c7 96 be 0f 81 b2 3e da 27 89 3e fb 5e 91 bd
       -0.2944931 0.3486409 0.26788217 -0.07098194

bn1.weight f4 [32]
000000 0a e6 af 3f a2 75 be 3f 30 1a 6c 3f 46 63 a0 3f
       1.3742077 1.4879649 0.9222746 1.2530296
000010 78 f6 a7 3f 90 7d 52 3f 0f a3 5b 3f dd 36 97 3f
       1.3122091 0.82222843 0.8579568 1.1813618
000020 33 3a ac 3f 60 2b 83 3f e2 f7 8e 3f 9a 66 0c 3f
       1.3455261 1.0247612 1.1169398 0.5484406
000030 93 ea 0c 3f 30 ab 92 3f bd 02 80 3f 0a 2f af 3f
       0.5504543 1.1458492 1.0000836 1.368623
000040 27 45 98 3f 37 3b 94 3f 53 aa 4f 3f dc c1 b3 3f
       1.1896104 1.1580571 0.8111927 1.4043536
000050 94 d2 aa 3f a8 71 6e 3f e2 02 23 3f a1 22 7e 3f
       1.3345513 0.93142176 0.63676274 0.9927159
000060 83 68 e2 3e 6d 7f 6c 3f ae 2b 3b 3f 88 d4 9c 3f
       0.4422036 0.92381936 0.73113525 1.2252359
000070 9b 1a 9b 3e 22 40 9f 3f ad c2 06 3f 4f ca 68 3f
       0.30293736 1.2441447 0.526408 0.909337

bn1.bias f4 [32]
000000 e4 5d b9 bd 78 5e f1 bd ee b5 6a be e9 6b 10 be
       -0.09051111 -0.117855966 -0.22920963 -0.14103664
000010 30 8d b2 bd 21 dd d1 bd 1f 96 c8 3d 0f 7d ba bd
       -0.08718336 -0.10247255 0.09794258 -0.09105884
000020 2e 53 93 bd ef 8a ff bd 63 01 68 be 19 c1 97 be
       -0.071936 -0.12477671 -0.22656779 -0.2963951
000030 5a a2 57 be 78 5e 95 3d 20 32 fb bc b5 cc 92 bd
       -0.21058026 0.07293409 -0.03066355 -0.07167951
000040 73 cc 56 be f6 df b2 3d 92 73 f5 3d cd c0 47 be
       -0.20976429 0.087341234 0.11984934 -0.19507141
000050 eb 80 1f bb 47 2c 05 3e 4a 93 f9 be f8 9c ad be
       -0.0024338316 0.13005172 -0.48745185 -0.3390882
000060 a6 06 c6 be 12 69 02 be 42 3c 06 bf 02 d6 95 bc
       -0.38676947 -0.12735394 -0.52435696 -0.018290523
000070 7c 78 47 be 37 76 00 be 84 32 c8 be 9f c4 e4 3c
       -0.19479555 -0.12545095 -0.3910104 0.027925787

bn1.running_mean f4 [32]
000000 47 42 9c bd df f2 9b 3d 2d a3 38 3e 1f 08 ff 3d
       -0.07629829 0.07614683 0.18030997 0.12452721
000010 57 b1 91 be e5 ca 21 3e 6b c8 47 be 1f 58 ec 3a
       -0.28455612 0.15800054 -0.19510047 0.0018031633
000020 b5 1d 0a 3e 1a 71 bf 3e db 3c 2b be de 4f b8 bd
       0.13487895 0.37390977 -0.16722433 -0.089996085
000030 d3 91 b3 3e 63 fe b4 3d 33 33 85 be 43 18 a6 be
       0.35072193 0.08837583 -0.26015624 -0.32440385
000040 74 4b b6 be f2 26 2a 3e 3f b8 af be 67 be 66 be
       -0.3560444 0.16616419 -0.34320256 -0.2253357
000050 01 c5 76 3e 86 3b 22 3e b8 97 6c 3e 4e e1 a3 3d
       0.24098589 0.15843019 0.23104751 0.08001958
000060 fe 9f 95 be 8e a5 a4 3d 02 7e f0 3d 46 a4 22 3e
       -0.29223627 0.080393896 0.11742784 0.15882978
000070 b2 c0 95 be 6e af a7 3e e2 fc 94 3e 7e e0 bc bd
       -0.29248577 0.3275103 0.29099184 -0.09222506

bn1.running_var f4 [32]
000000 2e ac f8 3f 16 ba ae 3e fd 4c c6 3e c1 2f fb 3e
       1.9427545 0.34126347 0.38730612 0.4905987
000010 a5 8b 95 3f a2 65 57 3e 74 b4 b6 3d 9f 0d 1b 3f
       1.1683241 0.21034864 0.089211375 0.6056766
000020 91 17 17 3f 40 89 77 3e 5b 32 63 3e 91 5d 04 3e
       0.59020334 0.2417345 0.22187178 0.12926318
000030 87 1f 1d 3e 27 f6 f2 3e e2 90 8d 3e 44 3a 93 3e
       0.15344058 0.47453424 0.276496 0.2875539
000040 5f 75 13 3f cd 09 b2 3e 08 ab 8d 3e ae 74 d9 3e
       0.5760097 0.34773102 0.2766955 0.42471832
000050 60 cb 54 3e f2 20 75 3e a6 53 80 3f 1b 45 8c 3d
       0.20780706 0.23938349 1.0025527 0.06849118
000060 f0 d9 61 3e bc 01 ca 3e c6 c2 1a 40 58 f6 14 3f
       0.22055793 0.39454448 2.418138 0.5818839
000070 f9 0b 85 3e 37 51 98 3f c1 b4 8d 3f 6d 47 d1 3e
       0.25985697 1.1899785 1.1070787 0.40874806

conv2.weight f4 [64, 32, 3, 3]
000000 05 bc bf 3c fb 1d 0b be cd 99 b1 bb 78 28 aa bd
       0.023405084 -0.13585655 -0.005419946 -0.083085
000010 e2 6a 3c be ca b7 43 3d 74 da ec bd 05 63 93 bd
       -0.18400148 0.047782697 -0.11565104 -0.07196621
000020 91 e1 5b 3e 7d 92 09 bc 4f 10 c1 bd ac 40 fc 3d
       0.21472766 -0.008396742 -0.09426939 0.12317023
000030 c2 f2 84 3c 7c 7d 0e be 31 cf 97 3b 15 78 3f be
       0.016229037 -0.13915056 0.0046328534 -0.18698151
000040 7b 92 32 be 58 5f 2a bd 6e 23 d9 bc 9d c2 03 bc
       -0.1743869 -0.041594833 -0.026506152 -0.008042005
000050 f4 17 ab 3d c7 8c 70 be 85 69 07 3e 85 94 c5 3d
       0.08354178 -0.23491202 0.13223846 0.096474685
000060 73 42 2e bb 26 3c 3e bc 8e dd 21 bd 81 68 cd bd
       -0.00265899 -0.01161102 -0.03951793 -0.10029698
000070 e1 b2 69 bc 1b c4 b1 3d a8 5a b9 bd c6 e8 dd bc
       -0.014263839 0.08679982 -0.090504944 -0.027088534
000080 ff 55 e5 bd 41 cc 60 be c0 b7 68 be 86 5d de bd
       -0.11198043 -0.21952917 -0.22726345 -0.10857682
000090 1e 48 1d be 88 59 c4 bd 3c ec c3 3c 3c 3f e9 bd
       -0.15359542 -0.09587389 0.023916356 -0.11389014
0000a0 83 e6 40 bd ad bb 03 be c1 33 bf bd 79 48 2d be
       -0.047094833 -0.12864561 -0.09336043 -0.16922177
0000b0 5c 67 8d bd 58 20 d6 3d f6 37 ee bb e6 b9 2e 3d
       -0.0690448 0.10455388 -0.0072698547 0.042657755
0000c0 6d 75 49 3d e5 86 93 bd fe bf ae 3d f6 2f e3 bc
       0.04918425 -0.072034635 0.08532713 -0.02773283
0000d0 76 22 24 bd 15 df 25 be d6 58 60 bd 24 6e 81 bc
       -0.040071927 -0.1619838 -0.05477222 -0.01579959
0000e0 d3 bc d9 bc 91 8a 0f bd b2 49 0e 3e 9e b7 01 3e
       -0.026579296 -0.035044257 0.138953 0.126677
0000f0 5b 6b a7 bb f4 12 1c bd ae 0f 00 3e 78 8f bb 3c
       -0.0051092333 -0.038104013 0.12505981 0.02289556
000100 a0 b9 22 3e 80 96 c8 3d 32 de 1c be 53 80 1c 3e
       0.15891123 0.097943306 -0.15319136 0.15283327
000110 55 a4 59 3e 27 95 24 be 48 58 1f 3e 74 7c 89 3d
       0.21254094 -0.16072522 0.1556102 0.06713191
000120 e9 92 30 bd 75 79 7e bd 15 0d 13 be ad a4 e4 bc
       -0.043108854 -0.06212755 -0.14360459 -0.027910555
000130 6b 3d c2 bd ff 6d 63 3d 22 50 d0 bd 74 74 b6 3d
       -0.09484371 0.055524822 -0.10171534 0.089089304
000140 99 08 69 3d ba 0c 1f 3e 5a 2c 35 bc c7 46 07 3d
       0.056892965 0.15532199 -0.0110579375 0.033026483
000150 23 58 0f 3d 4a 85 87 bd 9b a0 2e 3e c1 db 86 bd
       0.034996163 -0.0661722 0.17053454 -0.065848835
000160 d7 4a 4f 3c c2 00 1b 3e b8 a2 70 bc 5c f5 db bc
       0.012652121 0.15137008 -0.014687233 -0.026850395
000170 9a db 16 3e a5 53 b5 bd cd 65 43 3d 1c fb 66 3e
       0.14732209 -0.088538446 0.047704507 0.22556728
000180 99 94 cd 3c 80 3e 6f 3d 7f 30 78 3d c0 1e 98 bc
       0.025095271 0.058409214 0.060593124 -0.01856935
000190 88 7a a9 3d 36 16 be bb 53 8e d0 38 b7 ec 93 3c
       0.08275324 -0.0058009876 9.944723e-05 0.01805721
0001a0 63 74 f4 bc c8 e0 c0 3d 0c c3 89 bd 45 82 ae bd
       -0.029840654 0.094178736 -0.06726655 -0.08520941
0001b0 9d 75 1c 3d 9a b4 e9 bd 47 4e 00 be f9 2c be bd
       0.038198102 -0.114114 -0.1252986 -0.092859216
0001c0 37 b5 43 3d 18 c2 e7 3c 00 bd ed bb f4 9f 03 3d
       0.04778024 0.028290793 -0.0072551966 0.032134965
0001d0 c8 35 0d be e6 9e b0 bd e3 a7 03 bd 11 1e f2 3d
       -0.13790047 -0.086240575 -0.03214253 0.11822141
0001e0 26 b1 49 bd a1 31 de 3d aa 71 65 3c 47 5d d4 3d
       -0.049241208 0.1084931 0.01400415 0.10369354
0001f0 98 16 ff 3c 29 d6 4a be 84 a4 11 3d 3e 35 16 3c
       0.031138703 -0.19808258 0.035557285 0.009167967
000200 9a 12 ec 3d 3d e5 da 3c d1 6f 69 3e 14 82 1a bd
       0.115269855 0.026720637 0.22796561 -0.03772171
000210 d9 cb 83 3d a1 6b 30 3d cf 24 14 be de 95 62 bd
       0.06435365 0.043071393 -0.14467166 -0.055318706
000220 dc 6e d0 3d af be 10 3d 02 f4 b2 bd 2d cb ff 3d
       0.10177395 0.0353381 -0.08737947 0.124899246
000230 15 d4 1a 3e 30 5e 56 bd a4 1b f4 3c e4 a4 d0 3d
       0.15119965 -0.052335918 0.029798336 0.101877004
000240 ac 62 0a be 5b 0e 27 3c 15 d8 19 3e 39 9d 49 be
       -0.13514203 0.010196294 0.15023835 -0.19688882
000250 10 28 77 3d 26 87 b3 bc 68 c0 d9 bd 57 ad 10 bd
       0.06034094 -0.02191503 -0.10632402 -0.03532156
000260 ce 97 f4 bd 26 01 c3 bd dd fe 8b 3d d6 6e 52 3e
       -0.11943017 -0.095217034 0.06835721 0.20550093
000270 2e c1 b3 bc 00 55 d3 3d 46 94 56 bd 77 b6 d7 bc
       -0.021942701 0.10318947 -0.0523875 -0.026332123
000280 5e fe 31 bc f5 73 ca bd 69 21 1b 3e 21 61 fc bb
       -0.0108638685 -0.09885398 0.15149464 -0.0077020084
000290 7e 08 1d 3d bc 68 45 3e ca 45 9f bb 79 7d b8 3d
       0.038338177 0.19278234 -0.0048606144 0.09008307
0002a0 d5 86 ad 3d 26 be 53 bd e6 a6 80 bb 3b a6 60 be
       0.08472983 -0.05169501 -0.003926146 -0.21938412
0002b0 35 c1 13 be c7 e8 74 be bd b4 0b be 45 5c cb bd
       -0.14429171 -0.23916923 -0.13643165 -0.099297084
0002c0 49 91 00 be 89 c4 46 be 22 5e c3 bd b5 f1 77 bd
       -0.12555422 -0.1941091 -0.09539439 -0.060533244
0002d0 23 9c 0f 3d 93 fb 86 3d ff 0c 2c 3b 98 5e 85 bc
       0.035061013 0.06590953 0.0026252863 -0.016280457
0002e0 ba 08 1d bd 39 9d d0 3d 92 03 ac bc 5c a1 f2 bc
       -0.0383384 0.10186238 -0.020997796 -0.029617958
0002f0 8e 4f 9c bd d2 bb e7 bc ea d4 d8 3d 1d ec 8b bd
       -0.07632361 -0.028287802 0.10587485 -0.068321444
000300 6e a2 2e bd ce f2 20 bc bc 4d 1a 3e db c0 14 3c
       -0.042635374 -0.009823514 0.15068716 0.009079183
000310 0c 6c e9 3d 0c d5 b3 3d 29 18 0f 3e 07 6d 00 be
       0.113975614 0.0878087 0.1397406 -0.1254159
000320 9f d7 3c be 16 d5 ce 3d db b5 87 bd 02 6a fc bd
       -0.18441628 0.10099237 -0.06626483 -0.12324907
000330 e8 8a 8b 3d 6c 50 6a bd d4 da 02 be f6 40 b6 bd
       0.06813604 -0.057205603 -0.12778789 -0.08899109
000340 db 4a eb bd d3 ee 67 be 47 b6 f3 bd c0 eb fa bb
       -0.11488887 -0.22649698 -0.11900001 -0.007657498
000350 eb 97 21 bd fc e0 74 bb 6c 4a a7 3d 48 8f cf bd
       -0.03945152 -0.0037365546 0.08168492 -0.101347506
000360 80 bc 35 3d 89 36 0b be 32 c6 64 bd e6 9b 80 3d
       0.04436922 -0.13595022 -0.055853076 0.06279735
000370 50 bd 46 3c 1d bd 18 bc 40 1c 54 3d 4e 44 c8 bd
       0.012130097 -0.009322432 0.051784754 -0.09778653
000380 94 7a 5c bd 9b 4c dc 3d 00 e2 0d bd 15 88 67 3d
       -0.053827837 0.10756799 -0.03463936 0.056526262
000390 26 08 bc bd 47 55 d4 bc 52 c4 e8 3d 45 fe 92 bd
       -0.09181242 -0.02591957 0.1136557 -0.07177404
0003a0 57 11 bb 3d d1 ac 8d 3c a4 1c 03 bd ae 0a cc bd
       0.09134167 0.01729432 -0.032009736 -0.099629745
0003b0 1e 22 11 be f9 74 8f bd 56 b9 76 bd 91 e0 91 bd
       -0.14173171 -0.07004733 -0.060235344 -0.07122911
0003c0 ce 00 68 3d e9 09 75 bd 3e a4 2b be cc b8 a3 3d
       0.056641392 -0.059823904 -0.16761872 0.079942316
0003d0 ca 41 38 3c 59 85 54 3d cf 90 ea bd 9a b4 f3 bd
       0.011246154 0.051884983 -0.11453401 -0.118996814
0003e0 dc 88 5c 3d 44 ee 80 be 4e 1f 73 bd 42 4e e8 3b
       0.053841457 -0.25181782 -0.059356026 0.007089407
0003f0 6d 1c 9b 3d 5b 2a 5d bd 32 a3 40 bc 83 60 3b bd
       0.07573781 -0.05399547 -0.011757659 -0.045746338

conv2.bias f4 [64]
000000 62 0f 89 3c 8f ae 19 bb c0 1c 95 3c 01 8c 0a bb
       0.016730968 -0.0023449992 0.018202186 -0.0021140578
000010 9d 7f aa bb 6a 60 89 bb d7 f5 0f 3d ae 44 1c 3d
       -0.005203201 -0.0041924017 0.03514656 0.038151436
000020 3f d2 4c 3d b9 71 1c bc 8f ee b6 3c e4 4c 10 3c
       0.050005194 -0.009548598 0.02233055 0.008807395
000030 2e 99 82 3c 27 e6 a7 3c 7f ac c4 bc eb 34 0c bd
       0.015942182 0.020495487 -0.024008034 -0.034230154
000040 f9 e3 25 3d 69 f6 47 bd f7 5a e0 3c 6b d3 43 3d
       0.040500615 -0.04881898 0.027387125 0.047809046
000050 0d f5 7a bc 35 78 26 bc 69 b4 47 3d 73 23 12 3d
       -0.015317214 -0.0101604955 0.048756037 0.03567834
000060 fd a4 e2 bc 41 9e 01 bd 24 ef f9 bc 4b 2b 6a bd
       -0.027666563 -0.031645063 -0.030509539 -0.057170194
000070 e7 a2 16 bd fa a0 e2 3b 61 6a ab 3c 98 87 87 3c
       -0.03677645 0.0069161626 0.020924749 0.016544148
000080 c5 b0 43 bd cc 64 21 3d f2 88 db 3c e2 fa b4 bc
       -0.047776002 0.039402768 0.026798699 -0.022092286
000090 41 0c 99 bd 82 05 70 bd 02 0e 62 3d ec 3d 0d bd
       -0.0747304 -0.058599003 0.05518914 -0.03448288
0000a0 c6 22 2f 3c 1d e3 1d bc 5a 92 99 3b 3f 51 52 bd
       0.010689443 -0.009636668 0.004686636 -0.051347014
0000b0 f0 bb 68 ba a2 35 36 bd 37 d0 4b bd 6b 2d 94 bc
       -0.00088781025 -0.044484742 -0.049759116 -0.018088063
0000c0 1c 03 33 3b f8 60 9d 3c 37 a9 dd bc d5 df c6 ba
       0.0027315086 0.019211277 -0.027058227 -0.0015172908
0000d0 3b a7 79 3d ae f8 63 3b 68 82 85 3b ff 4f 9a bc
       0.0609505 0.0034785676 0.0040743835 -0.018836973
0000e0 17 0c 76 ba 2f df 88 bd 2b 38 f6 3c d9 52 66 bd
       -0.0009385957 -0.06683194 0.03005608 -0.056231353
0000f0 7e 53 51 3d cf 71 09 bc a1 d0 3d 3d 7c e7 22 3d
       0.051105015 -0.0083889505 0.046341542 0.039771542

bn2.weight f4 [64]
000000 db ac 62 3f b2 bf 53 3f 09 ec 51 3f c3 c6 82 3f
       0.88545007 0.8271438 0.82000786 1.0216907
000010 e0 10 72 3f be 5f 87 3f 3e 01 72 3f 06 64 56 3f
       0.94557 1.0576093 0.94533145 0.83746374
000020 22 74 8c 3f 16 e2 5a 3f c8 9b 87 3f 24 b3 95 3f
       1.0972941 0.8550123 1.0594416 1.1695294
000030 96 01 98 3f 71 da 7a 3f 05 c7 81 3f 33 2a 62 3f
       1.1875484 0.97989565 1.0138861 0.8834564
000040 81 89 7b 3f c6 1f 73 3f 7a 7d 5e 3f 5b 06 87 3f
       0.9825669 0.9497036 0.8691021 1.0548815
000050 53 71 99 3f 09 19 7f 3f e5 01 83 3f f5 4d 80 3f
       1.1987709 0.99647576 1.0234953 1.0023791
000060 28 6c 5b 3f b1 98 3e 3f 31 50 94 3f 40 f6 81 3f
       0.8571191 0.7445174 1.1586972 1.0153275
000070 04 97 59 3f 13 b6 73 3f 1f 38 5b 3f aa 12 84 3f
       0.84996057 0.951997 0.8563251 1.0318196
000080 0f 86 90 3f c6 22 87 3f 39 9f 63 3f 69 fa 7f 3f
       1.1290911 1.0557487 0.8891483 0.9999147
000090 bb d7 61 3f ea d5 86 3f ca cf 8a 3f 79 bd 95 3f
       0.88219804 1.0534031 1.0844662 1.1698447
0000a0 db 3f 89 3f b9 1d 72 3f ad be 83 3f af 6f 8e 3f
       1.0722612 0.94576603 1.0292565 1.1127833
0000b0 85 b9 4e 3f ee 84 7a 3f ae e2 6a 3f 40 b7 8d 3f
       0.8075183 0.97859085 0.91752136 1.1071548
0000c0 75 f0 8b 3f dc 66 65 3f 48 dd 87 3f a7 28 82 3f
       1.0932757 0.89610076 1.0614405 1.0168656
0000d0 58 f5 96 3f 92 73 6d 3f 38 7d 66 3f 72 c4 87 3f
       1.1793623 0.9275447 0.9003482 1.0606825
0000e0 fc 2e 8a 3f db a1 7c 3f 04 9f 81 3f f1 a2 39 3f
       1.0795588 0.9868447 1.0126653 0.72514254
0000f0 2e 69 71 3f bb 10 88 3f 14 ba 95 3f 7c 98 96 3f
       0.94301116 1.0630106 1.1697412 1.1765285

bn2.bias f4 [64]
000000 4e c9 99 be e2 fb 80 be f4 07 d8 bd a8 9a fa bd
       -0.30036396 -0.2519217 -0.10548392 -0.122365296
000010 16 c3 b3 be 37 0f 08 3d 91 dd 54 3b df 79 49 be
       -0.35109776 0.033217635 0.0032480697 -0.19675396
000020 2e fb 1e be 2b 73 92 bd fd e7 31 be ef 79 cc bd
       -0.15525505 -0.07150873 -0.17373653 -0.099841945
000030 a9 c4 18 be a2 91 b7 be 88 18 24 be 14 0f 3c be
       -0.1491877 -0.35853297 -0.16024983 -0.18365127
000040 8d 71 65 be aa 4a ae be f9 d2 08 be 71 84 3c 3c
       -0.22406597 -0.3404134 -0.1336173 0.011506186
000050 08 b7 02 be db e8 95 be a6 42 4a be 2e 1d a5 bd
       -0.12765133 -0.29279217 -0.19751987 -0.08062206
000060 67 aa 32 be d1 d0 b8 be 5a a5 51 be 16 31 07 bd
       -0.17447816 -0.36096814 -0.20473233 -0.033005796
000070 a5 7b 5e be e5 90 9b bd 90 ba ca be 92 cd 86 be
       -0.21726854 -0.07595996 -0.3959546 -0.26328713
000080 3e 20 37 bd db cf 36 be be 77 c7 bd d9 a0 3d be
       -0.044708483 -0.17852728 -0.09739636 -0.1851839
000090 07 48 bf be 66 4f 0f be e7 38 c0 be b9 4d 2d be
       -0.3735964 -0.13995132 -0.37543413 -0.1692418
0000a0 c1 92 6b be 22 46 63 be 2f 60 54 be 33 09 8d be
       -0.23005201 -0.22194722 -0.20739816 -0.2754608
0000b0 ee fa cc be 50 a9 64 be 05 fb 9d be 0f a4 bd 3b
       -0.40035194 -0.22330213 -0.30855575 0.0057873796
0000c0 10 9d 49 be 87 7c 3f be 4f bf c1 bd 13 fd 8e be
       -0.19688821 -0.18699847 -0.09460317 -0.27927455
0000d0 1e 5d cd bd 17 ec 67 be 1e 74 84 be d3 0c 6d bd
       -0.10027526 -0.22648655 -0.2586984 -0.05787356
0000e0 5b 74 06 be a4 67 5f be c9 ec 79 be c3 70 d4 be
       -0.13130324 -0.2181688 -0.24406733 -0.4149228
0000f0 a0 f6 b9 be 19 18 2c be b0 39 84 be ba 05 67 be
       -0.36320972 -0.16806068 -0.25825262 -0.22560778

bn2.running_mean f4 [64]
000000 6b 0a d5 bf 67 d3 49 c0 22 1d 86 bf 12 a9 f9 bf
       -1.6643804 -3.153528 -1.0477641 -1.9504721
000010 78 03 f2 bf 85 ee f2 bc e6 63 0d c0 c4 77 1c c0
       -1.8907309 -0.02965475 -2.2092223 -2.44481
000020 34 a3 5f 3f 67 19 da bf 36 39 e6 3e df 44 a5 bf
       0.87358403 -1.7039002 0.44965523 -1.2911643
000030 56 ae 9d be a7 03 43 bf 68 99 3a c0 54 37 62 c0
       -0.3079707 -0.7617745 -2.9156132 -3.534627
000040 7f 60 d1 bf 13 a0 c2 bf 59 36 cf bf c2 88 ea bf
       -1.6357573 -1.5205101 -1.618846 -1.8322985
000050 3c 16 cb bf 2f ae 88 bf a5 e3 1e c0 1c 75 d1 bf
       -1.586616 -1.0678157 -2.4826443 -1.6363864
000060 ed bb 9e bf 58 fe 91 3f dd 6e f4 be 0a 59 86 c0
       -1.24011 1.1405745 -0.47740832 -4.198369
000070 4a bf db bf da 1f 76 c0 30 d4 1c be e9 2d 17 c0
       -1.7167752 -3.845694 -0.15315318 -2.3621771
000080 9a 4e 97 bf 71 d8 49 be 8d aa 6b bf 18 9f b3 bf
       -1.1820862 -0.19711472 -0.92057115 -1.4032927
000090 ad aa 05 c0 79 3f 29 bf 10 87 1c c0 34 ed 54 3f
       -2.0885422 -0.66112477 -2.4457436 0.83174443
0000a0 5d 56 25 3e f4 d6 ae 3f 42 70 6c 3f c6 96 a7 bf
       0.16146226 1.3659348 0.9235879 -1.3092887
0000b0 3d fc f0 bf 8f 38 67 c0 5c 30 da bf e5 40 67 3f
       -1.8826977 -3.612827 -1.7046008 0.90333396
0000c0 8c b7 01 c0 a0 2d 86 3f 56 89 d8 bf bf 58 fb bf
       -2.0268278 1.0482674 -1.6916912 -1.9636458
0000d0 5d 7a 98 bf a0 af 5b be 9b 11 05 c0 3c c6 25 bf
       -1.1912342 -0.21453714 -2.0791996 -0.64755607
0000e0 f8 2a d9 bf 5b c3 2c c0 34 15 74 bf 93 b7 0d bf
       -1.6966238 -2.6994236 -0.95344853 -0.5535824
0000f0 95 ca ef bf 13 13 52 3f 2b a5 2c c0 7c 1a 84 3f
       -1.8733698 0.82060355 -2.697581 1.0320582

bn2.running_var f4 [64]
000000 03 75 2a 40 94 5c 08 40 20 0b c0 40 42 cc 45 40
       2.6633918 2.1306505 6.001358 3.090592
000010 d1 1d 35 40 37 98 6f 40 63 d5 c2 40 bc c4 85 40
       2.8299448 3.7436655 6.088548 4.1802654
000020 3d 0a 86 40 ab b5 34 40 d5 02 80 40 df ff b7 40
       4.18875 2.8235881 4.0003457 5.7499843
000030 d3 bf 83 40 1e b7 da 40 b7 17 e6 3f f2 f1 49 40
       4.117166 6.834853 1.7975987 3.1553922
000040 29 58 1e 40 aa cf 9d 40 64 1f a2 40 fe bf 9a 40
       2.4741309 4.9315996 5.066332 4.8359365
000050 b8 d5 b1 40 7c 90 89 40 c9 13 4d 40 c8 61 59 40
       5.5573387 4.2988873 3.2043326 3.396593
000060 dc ec 69 40 d8 9c 9f 40 30 5f a3 40 a6 a6 3a 40
       3.6550817 4.987896 5.1053696 2.9164214
000070 28 20 ed 40 e0 32 90 40 63 87 6f 40 84 9e bd 40
       7.4101753 4.5062103 3.7426383 5.9256
000080 ec 5b 91 40 36 9b b0 40 c0 e5 3a 40 14 ae 29 41
       4.542471 5.5189466 2.9202728 10.605
000090 a9 7a ec 3f f5 cb b9 40 ef 61 fa 3f a5 0a e8 40
       1.8474933 5.806147 1.9561137 7.2512994
0000a0 4b 2b b2 40 ec d2 99 40 0f 90 8f 40 0f 92 92 40
       5.567785 4.8069973 4.4863353 4.5803294
0000b0 f3 ec ee 3f eb 2c 78 40 e2 98 30 40 90 f9 75 40
       1.8666061 3.8777416 2.7593312 3.843357
0000c0 04 00 01 41 60 30 ea 40 00 cf 95 40 a0 5a c8 40
       8.062504 7.318405 4.6815186 6.2610626
0000d0 bb 05 bf 40 bb 44 cb 40 0e b3 9e 3f 57 f2 c2 40
       5.9694495 6.35214 1.2398393 6.0920825
0000e0 db 95 e8 40 7a ce e1 40 40 42 59 40 ba 00 67 40
       7.268293 7.0564547 3.3946686 3.6094193
0000f0 70 96 b1 40 fe fa 69 40 29 6b ca 3f 4a 14 9b 40
       5.549614 3.6559443 1.5813953 4.8462267

conv3.weight f4 [64, 64, 3, 3]
000000 c3 27 dd 3d 99 10 a8 3d 2f ce 10 3e 05 1c 69 bc
       0.107985996 0.08206291 0.14141153 -0.014227872
000010 24 66 83 3c 1c ec dc bc 6e b5 86 bd b7 94 26 be
       0.016039915 -0.026968054 -0.06577574 -0.16267668
000020 1e 3a 63 bc 89 40 4a 3d f0 d8 e6 3d 9a 19 94 3d
       -0.013868837 0.04937795 0.11271846 0.072314456
000030 95 98 6d 3d 96 92 dc 3d 85 12 15 3e 1e af 84 ba
       0.05800684 0.107701465 0.14557846 -0.001012299
000040 4a 52 17 be 95 fa 11 bd 4c bd c2 3d 0d b1 c4 bd
       -0.14777485 -0.035639364 0.09508762 -0.09604082
000050 1d 2f 05 be 5d cf af 3d 09 2a fa bc d2 39 d2 3d
       -0.13006254 0.08584473 -0.030537622 0.102649346
000060 00 b1 62 bd 4e af 68 3d 85 ed 01 bd b2 49 16 bc
       -0.05534458 0.05680781 -0.031720657 -0.009172844
000070 37 07 88 bd 87 53 03 3d c1 34 88 3d a4 5a 58 3e
       -0.06642001 0.03206208 0.06650687 0.21128327
000080 fe ba 0d 3e 5f dd 19 be 2d 94 05 be 40 d7 df 3c
       0.13840863 -0.15025853 -0.13044806 0.027324319
000090 95 71 93 bd 87 15 7f bb 0f 79 37 3d 1f 99 aa bd
       -0.071993984 -0.0038922743 0.044793185 -0.08329987
0000a0 21 c5 8f 3d fb 08 1e 3e 36 3c 05 be 06 d5 18 3e
       0.07020021 0.15433113 -0.1301125 0.14925012
0000b0 4c 49 1b bd d1 1d 9e 3d fd fa 87 bd fe ee 7b bd
       -0.0379117 0.07720531 -0.06639669 -0.061507218
0000c0 2c 52 08 3c 81 a3 17 be 82 01 4d 3d 5c fd ec bc
       0.008320373 -0.14808466 0.050050266 -0.028929405
0000d0 1c 96 8e 3d 0b 8b 84 3d 25 89 a5 3d e9 72 69 bd
       0.06962225 0.06471833 0.08082799 -0.056994352
0000e0 4c cf eb bd 1f 76 c2 3d dd 91 d3 bd 23 50 c2 3d
       -0.11514148 0.09495186 -0.103305556 0.09487941
0000f0 ad 57 82 bd 99 5e 34 bd 85 d1 93 bd 4c 91 76 bb
       -0.06364379 -0.044035528 -0.07217697 -0.0037623225
000100 05 66 97 3c 15 51 73 bc 88 3e ae bc 1b 0d be 3c
       0.018481264 -0.014850874 -0.021270052 0.023199609
000110 06 78 c2 bd 22 20 77 bc 8b d0 9d bd f7 43 34 3a
       -0.09495549 -0.015083345 -0.07705792 0.00068765826
000120 81 bf 8d bd e2 9e 49 be 3f bb 5b bc 8f 10 90 bd
       -0.06921292 -0.19689515 -0.013411342 -0.07034408
000130 88 97 0f 3e 81 f6 0b 3e ae ed 9a 3d 52 b7 1a 3e
       0.14022648 0.13668253 0.07564865 0.15108994
000140 a7 cb 29 ba b5 f2 2a be ce ae a3 ba 6d 11 b1 bd
       -0.0006477185 -0.16694148 -0.0012488009 -0.08645902
000150 59 7e 5b 3b e6 cd 07 3d 56 2a fe 3d 15 24 61 be
       0.0033492057 0.033155344 0.12410419 -0.2198642
000160 19 0a 18 3d 4a 40 b8 3a 84 99 a8 bd ed 2e 18 bc
       0.037119005 0.0014057246 -0.08232406 -0.009288532
000170 c3 22 a4 bc ed df a3 3d 04 8e e4 3b ac 1a 0e 3e
       -0.020036107 0.08001695 0.0069749374 0.13877362
000180 d2 c5 12 3d c6 a6 93 3d 25 86 aa bd 09 98 c8 3d
       0.035833187 0.07209544 -0.08326367 0.097946234
000190 7d e7 62 bd 8b 7b cb bd 7e d2 77 3c c2 b7 8a be
       -0.055396546 -0.09935673 0.015125869 -0.2709332
0001a0 7b 1f 7d 3d e4 27 cf bd b4 aa 3b be da 79 0f be
       0.0617976 -0.101150304 -0.18326837 -0.14011326
0001b0 6f 14 0d bd 04 3f 0e be 8e fd 6d bc 5f d6 0c be
       -0.034443315 -0.13891226 -0.014525784 -0.13753651
0001c0 38 2c 76 bc c9 a6 6a 3c 3e a5 17 be 9c cb 96 bd
       -0.015025191 0.014321991 -0.14809129 -0.07363054
0001d0 a5 6f 96 be 43 12 73 3d bc 6d 62 bd e4 ba 7b 3c
       -0.29382053 0.059343588 -0.055280432 0.015364382
0001e0 51 78 4f 3d ce f7 a1 bc db a5 fa bc 13 bc 14 3e
       0.050651852 -0.019771483 -0.030596664 0.1452487
0001f0 60 f4 39 bd cd b5 19 bd 1e 70 9f 3c 31 31 bb bd
       -0.04539907 -0.037526894 0.019462641 -0.09140242
000200 71 ef a6 bd dc dc 89 bd 72 8c 68 3d fc 9e 88 bd
       -0.081511386 -0.06731579 0.056774564 -0.06670949
000210 9f ab 70 bd 08 3a 0e 3d ec 0a 7f 3d 11 99 e7 3c
       -0.05875742 0.03472331 0.062266275 0.02827123
000220 3c 04 74 3c 34 8f 97 bc a7 b9 2e 3d 3c e5 ec 3d
       0.014893588 -0.018500902 0.04265752 0.115671605
000230 a0 7e 7a 3d 1c d0 06 be db 22 9d bd 23 12 c0 3d
       0.061155915 -0.13165325 -0.07672664 0.09378459
000240 2f ab ec bd a8 38 12 3d 91 2c bf 3d a1 70 75 bd
       -0.11556088 0.035698563 0.09334672 -0.059921864
000250 cb 60 85 3d 86 67 20 3e 6a 8c 8c bd ae f0 10 3e
       0.065126024 0.15664491 -0.06862719 0.14154312
000260 f9 49 92 bd f3 d3 06 be 33 32 e4 3c 02 e1 a9 3d
       -0.071430154 -0.1316679 0.027855968 0.0829487
000270 0d b9 86 bd 2d 30 c7 bd 5e 97 01 bb 03 b2 28 bd
       -0.065782644 -0.09725986 -0.001977406 -0.04118539
000280 e8 9d b2 3d 3a 4f a8 bc f5 a4 0e 3d b3 81 fa bd
       0.087215245 -0.02054559 0.034825284 -0.122317694
000290 97 20 b4 bc ac 2c 3a be 22 b7 59 bd b0 5e 86 3d
       -0.021988196 -0.18181103 -0.053153165 0.06561029
0002a0 75 0d 26 bd f3 72 7c 3d 06 bd 92 bd 64 30 52 be
       -0.040540177 0.06163306 -0.071649596 -0.20526272
0002b0 a2 47 80 3c 5a aa 8c bd ea 55 d5 3d 5e d0 12 3e
       0.015659157 -0.068684295 0.104167774 0.14337298
0002c0 25 4d cf bd 08 c3 b6 3d eb f9 42 bb 4b 1d 16 bd
       -0.10122136 0.08923918 -0.0029751013 -0.03664903
0002d0 c4 99 a3 bd c5 64 d1 bd 65 1e c2 bd d4 9a a0 bc
       -0.07988313 -0.102242984 -0.094784535 -0.019605078
0002e0 0d 1f 93 3c 24 4a bb 3c 38 03 79 bc 5c be 83 3d
       0.017959142 0.022862501 -0.015198521 0.064327925
0002f0 14 53 a3 bd 96 59 53 be 9a 0d 9c 3d 45 98 6b bd
       -0.0797483 -0.20639643 0.07619782 -0.057518262
000300 f8 27 18 bd d2 4a e9 3d b3 a9 51 3d 50 50 80 bd
       -0.037147492 0.11391224 0.05118723 -0.062653184
000310 ef d9 ae 3d 2c 1b a7 bd 12 86 ce 3d f1 21 9e 3d
       0.08537661 -0.081594795 0.10084166 0.077213176
000320 44 fb 36 3d 2b aa 0a bd a6 45 c3 3c 15 86 f5 3c
       0.04467322 -0.03385369 0.023836922 0.029971162
000330 fc 5f 2a 3e c6 76 19 be c2 4d 4f 3d 84 6a 58 bd
       0.16638178 -0.14986715 0.050611265 -0.052835956
000340 93 69 82 3d 52 91 3e bd ec 07 1e 3d 49 de 80 bd
       0.06367793 -0.046525307 0.038581774 -0.062923975
000350 3e 32 4e be 1e f1 27 3e 2d 46 75 bc fd 92 d8 3d
       -0.20136353 0.16400573 -0.0149703445 0.10574911
000360 cc fa 20 3e 1c 3d 00 bd 48 e1 43 3d d2 de a7 3d
       0.15720671 -0.03130828 0.047822267 0.081967965
000370 17 13 aa bd 7a ae 1c bd a8 0e 18 bd a3 05 d0 bd
       -0.08304422 -0.03825233 -0.037123352 -0.10157325
000380 47 ad e5 3d d6 f5 83 bd e8 f3 85 3c 42 fb d2 bc
       0.11214691 -0.06443374 0.016351655 -0.025754575
000390 27 82 15 bc 44 66 29 3d 6e a3 cf 3c 0c e3 6a be
       -0.009125269 0.041357294 0.025346484 -0.22938174
0003a0 71 c0 25 be 6e 3c 00 bd 24 9b 8e 3d d5 de b9 bd
       -0.16186692 -0.03130763 0.069631845 -0.09075705
0003b0 94 dd b4 3c a4 a6 ad 3d ac 4f 7b be ab 46 b4 bd
       0.022078313 0.0847905 -0.24542111 -0.08802541
0003c0 81 28 42 3e 96 e7 d6 3d 32 0a 6d bd 66 ad 5b 3d
       0.18960764 0.1049339 -0.05787105 0.053632163
0003d0 e6 78 c9 bc 40 5a dc 3d fd 9f 29 3d 94 fb 90 bc
       -0.024593782 0.10759401 0.041412342 -0.017698087
0003e0 68 ee 64 bd 33 0b b2 3c 3d 97 e3 3d 3e ee 6d bd
       -0.055891424 0.021733856 0.11112831 -0.058088534
0003f0 70 94 34 3d bf a4 ca bc bf a2 8f 3d 1a 88 de 3d
       0.044086874 -0.02473676 0.07013463 0.10865803

conv3.bias f4 [64]
000000 d0 4d e0 3c 80 e3 8f 3c 0c c5 a7 bc d6 fa 6e bc
       0.027380854 0.017564535 -0.020479701 -0.014586171
000010 75 55 25 3d dd 30 01 3d 22 9a 06 3d ff 86 e9 3c
       0.0403647 0.03154074 0.032861836 0.028506754
000020 4a 38 a8 39 19 b6 56 bc 40 47 b8 3c 43 d7 b8 3c
       0.00032085396 -0.013104939 0.022494912 0.022563582
000030 44 b3 f4 bc 4b d5 d0 bc ab a4 94 3b 53 fa ed 3a
       -0.029870637 -0.025492331 0.0045362315 0.0018156267
000040 15 2b 00 3d b1 cc d6 3b ce bb eb bc 95 2c e5 bb
       0.031291086 0.006555163 -0.028776076 -0.00699384
000050 26 58 be bc 03 a1 5f 3c e8 93 13 bd 9a 7c 0f 3d
       -0.023235392 0.013649228 -0.036029726 0.03503094
000060 e5 7c ba bb 72 62 0b 3d ca 7d 1a bd 57 1c 5a 3c
       -0.005691158 0.03402943 -0.037717618 0.013312421
000070 fe de e6 bc c0 86 9a b9 f6 26 fe 3c 87 2e c1 3b
       -0.028182503 -0.00029473566 0.031024437 0.005895439
000080 b3 e5 c1 bb d9 a1 ed bc 11 21 5e 3b e8 43 13 3d
       -0.005917275 -0.029007839 0.003389422 0.035953432
000090 d8 45 a5 3c fa 1d b3 3b ae 94 35 bc 5a b8 cf 3b
       0.020174906 0.00546622 -0.011082811 0.006339115
0000a0 89 66 27 bc 1d a7 e4 3c e3 fc 2c bb 47 ba b6 3c
       -0.010217317 0.027911717 -0.002639585 0.02230562
0000b0 2d 30 15 3c d3 eb 6b 3b 26 28 99 bb d2 ce 14 3d
       0.009105724 0.0035998716 -0.0046739755 0.03633005
0000c0 b1 df f5 3b c8 dc e0 bc d6 bf f3 b9 18 75 e0 3c
       0.0075034727 -0.027449027 -0.000464915 0.027399585
0000d0 3a 46 45 3c ba 0a 2d 3d 63 fa 2e 3c 82 51 c9 bb
       0.012040669 0.042246558 0.010679814 -0.0061437497
0000e0 df d8 2a 3d 80 a9 1b 3c 17 31 2f bd 60 c5 f4 3c
       0.04171073 0.009500861 -0.042771425 0.029879272
0000f0 7f a2 6b bc fc 87 eb bb 97 4e 90 bc bb 3f 32 bd
       -0.014382004 -0.0071878415 -0.0176156 -0.04351781

bn3.weight f4 [64]
000000 45 5c 57 3f aa 75 73 3f 68 3e 66 3f cb c3 78 3f
       0.8412517 0.95101416 0.89938974 0.97173756
000010 f8 4a 77 3f 0e 44 98 3f 49 db 7a 3f cb f0 95 3f
       0.9659877 1.1895769 0.9799085 1.1714109
000020 ea 49 94 3f ac 50 71 3f 1d 8d 63 3f 1b 09 81 3f
       1.1585057 0.9426372 0.88887197 1.0080904
000030 29 d4 70 3f e9 28 7a 3f 9b b1 5e 3f 73 ef 8b 3f
       0.9407373 0.97718674 0.86989754 1.0932449
000040 c5 7c 86 3f 8d 8b 92 3f 56 17 4a 3f 1c bc 80 3f
       1.0506827 1.1448838 0.7894186 1.0057406
000050 93 1b 6c 3f 4d ee 6a 3f 5f 09 84 3f 8b d2 6b 3f
       0.92229575 0.9176987 1.031536 0.9211814
000060 d4 cd 6c 3f fe 6a 83 3f d3 f2 6d 3f 96 2a 80 3f
       0.9250157 1.0267026 0.92948645 1.0012996
000070 d4 b7 93 3f 7f 2c 72 3f 72 b6 7d 3f b4 ee 5c 3f
       1.1540475 0.94599146 0.99106514 0.8630173
000080 88 19 98 3f 7d 32 a2 3f 26 9a 7e 3f d7 a5 67 3f
       1.1882792 1.2671658 0.9945396 0.90487427
000090 22 a0 83 3f 80 e3 52 3f 2e 4a 84 3f 47 eb 83 3f
       1.0283244 0.8237839 1.0335138 1.0306176
0000a0 4d ac 6d 3f b9 a3 5d 3f 5d d4 90 3f 46 7c 89 3f
       0.92841035 0.86577946 1.1314808 1.074105
0000b0 13 7b 5e 3f 19 9c 73 3f 8a e5 84 3f 20 33 83 3f
       0.86906546 0.9516006 1.038255 1.0249977
0000c0 e2 48 5f 3f 42 e0 42 3f c0 b9 8f 3f 88 18 40 3f
       0.87220585 0.7612344 1.1228561 0.7503743
0000d0 2e ac 44 3f fc fe 4e 3f 73 42 3b 3f f2 2f 85 3f
       0.76825225 0.80857825 0.7314827 1.0405257
0000e0 54 da 87 3f 25 a2 77 3f b1 70 8d 3f 1d e8 9b 3f
       1.0613503 0.9673179 1.1050016 1.218021
0000f0 ef e5 66 3f a3 e5 53 3f 0c 4c 88 3f da 54 9c 3f
       0.901946 0.8277227 1.0648208 1.2213395

bn3.bias f4 [64]
000000 f1 1e 00 be d5 7d e7 bd 03 03 cf bd d2 e4 84 be
       -0.12511803 -0.113032974 -0.10107996 -0.25955826
000010 84 e9 09 be 91 9f a3 bd c5 6a 69 be 33 3c 3f bd
       -0.13467985 -0.07989419 -0.22794636 -0.04668827
000020 ab a8 d3 be cd 75 01 be 5f 06 4c be fc 13 71 be
       -0.4133962 -0.12642594 -0.19924305 -0.2354278
000030 55 df 76 be f3 c2 86 be 83 13 8d be 21 f5 bb bd
       -0.24108632 -0.2632061 -0.2755395 -0.09177614
000040 bf 48 70 be 8d 7b 24 be 1b 66 6e be 4b 4b 8a be
       -0.2346525 -0.16062756 -0.23281138 -0.2701057
000050 d1 3e 07 be 0e c9 51 be 27 a4 21 be 1c bc 40 be
       -0.13207556 -0.20486853 -0.15785275 -0.18821758
000060 9b 24 99 bd de e7 8a be 39 15 53 be d3 78 47 be
       -0.07477685 -0.27130026 -0.20613565 -0.19479685
000070 f0 b1 21 be 66 2e 40 be da 06 52 be ad ef 15 bd
       -0.15790534 -0.187677 -0.20510426 -0.036605526
000080 fa 43 7f be d8 47 d9 bd ef 8c af be 83 60 8e be
       -0.24928275 -0.10609406 -0.3428721 -0.27808008
000090 11 7a cb be 93 57 71 be 3d 4e 00 be e9 ef cb be
       -0.39741567 -0.23568563 -0.12529846 -0.39831474
0000a0 5d 99 4c be dc d6 94 be 26 ba 3d be 82 e3 69 be
       -0.19980378 -0.29070175 -0.18528041 -0.22840694
0000b0 39 b1 c9 be bc b3 2c be 88 1e e1 be 16 a5 5c be
       -0.39393023 -0.16865438 -0.43968606 -0.2154735
0000c0 9e 92 a7 be 5d 6a 45 be d6 73 14 be fe a1 83 be
       -0.32729048 -0.19278856 -0.14497313 -0.25709528
0000d0 ca 5c 2a be 99 87 d3 3c 71 77 b1 be 72 5b 6b be
       -0.16636959 0.025821494 -0.3466144 -0.22984102
0000e0 e0 5e b3 be 0d b1 60 be c9 f6 e4 be a1 b5 37 be
       -0.3503332 -0.2194254 -0.44719532 -0.1794038
0000f0 83 a3 c9 be d6 eb a2 bd 7f 1d 5c be 85 c9 a9 be
       -0.39382562 -0.079551384 -0.21495627 -0.3316156

bn3.running_mean f4 [64]
000000 cd 8f 02 c0 55 9a 0e c0 d3 d1 15 40 fe b4 78 c0
       -2.040027 -2.2281697 2.3409317 -3.886047
000010 fc 33 05 40 81 c6 c3 c0 59 30 6f bf 97 34 04 40
       2.0812979 -6.1179814 -0.9343315 2.0657098
000020 56 94 83 c0 f6 ac b2 3e a8 e6 9f 3d b2 e5 28 c0
       -4.1118574 0.34897584 0.07807666 -2.6390195
000030 8a 0e 60 40 34 42 05 3d cb 2a 0b bf 83 af ba 3f
       3.5008874 0.03253384 -0.5436217 1.4584812
000040 59 61 24 c0 f2 eb 80 c0 3f 15 ed 3e fe 7c 06 c0
       -2.5684416 -4.028802 0.46305272 -2.101379
000050 ae bf 8b c0 0a 46 0f 3f c3 c0 51 bf ee 1c 54 bf
       -4.3671484 0.55966246 -0.81934756 -0.82856643
000060 00 77 77 c0 cd 9e 4e c0 50 e6 d8 c0 e5 b3 38 bf
       -3.8666382 -3.2284424 -6.7781143 -0.721495
000070 c4 18 be c0 4e ce 33 c0 53 83 ac 3e e7 e9 d1 bf
       -5.940523 -2.8094668 0.33693942 -1.6399506
000080 70 2b 5c bf fd e2 bc bf c8 68 e7 bd 1a fd 21 bd
       -0.8600378 -1.4756771 -0.11299282 -0.039548017
000090 af 0e 10 bf 42 4e 87 c0 7d 37 e3 3f eb 3c 32 c0
       -0.56272405 -4.228303 1.7751309 -2.7849681
0000a0 eb cc dc bf 93 bc 72 c0 8d f3 03 c1 e3 17 43 3f
       -1.7250036 -3.7927597 -8.246961 0.76208323
0000b0 9f 5a bb 3f b2 75 51 c0 03 2a 30 bf 3a 69 78 bf
       1.463703 -3.2728086 -0.68814105 -0.97035563
0000c0 15 55 78 c0 87 60 85 3f 6b b2 c1 bf 5d 85 f3 be
       -3.880193 1.0420083 -1.5132574 -0.47562686
0000d0 0d 2a 67 3f 6a a5 54 be f0 40 af 3f e5 01 0b c0
       0.9029854 -0.20766225 1.3691692 -2.1719906
0000e0 c8 05 25 c0 47 f5 6b c0 5d 56 38 c0 ed 4d b6 bf
       -2.5784779 -3.6868455 -2.8802712 -1.4242531
0000f0 4f 1d a1 bf eb 89 ec 3f db d7 26 bf dd 01 0a 3f
       -1.2587069 1.8479589 -0.6517312 0.53909093

bn3.running_var f4 [64]
000000 5e db 18 41 4b bc 7b 41 53 de 31 41 98 1b 38 41
       9.553556 15.73347 11.116778 11.506737
000010 e4 89 4a 41 a2 d9 bf 41 fd bf 7d 41 ed 32 4f 41
       12.658665 23.981266 15.859372 12.949933
000020 9f b0 78 41 38 b2 76 41 ec 97 55 41 f6 f6 4c 41
       15.54312 15.41851 13.34959 12.810293
000030 69 bb 20 41 04 2b 23 41 24 ae 2e 41 b6 16 49 41
       10.045754 10.198002 10.917515 12.568045
000040 e0 77 37 41 4c 1f 3c 41 1b 8f 51 41 4c df 84 41
       11.466766 11.757641 13.097438 16.609032
000050 43 a4 3a 41 46 07 0b 41 a6 7b 38 41 f5 24 24 41
       11.665103 8.689276 11.530188 10.259023
000060 46 57 8c 41 a0 e4 8a 41 05 36 91 41 e0 5a 46 41
       17.542614 17.361633 18.151377 12.397186
000070 10 5f 4f 41 a6 40 67 41 7a 33 14 41 97 ee 1a 41
       12.960709 14.453283 9.2625675 9.683249
000080 16 72 4e 41 e3 c0 99 41 32 88 2a 41 19 ad 42 41
       12.902853 19.219183 10.658251 12.16726
000090 80 5b 38 41 7a f8 7c 41 f0 1a 7e 41 c1 9c 3a 41
       11.522339 15.810663 15.881577 11.66327
0000a0 48 ab ac 41 18 f3 64 41 f0 21 c4 41 0d b9 42 41
       21.583633 14.309349 24.516571 12.170178
0000b0 16 63 18 41 b7 d6 a7 41 dd 74 4a 41 2d 05 2f 41
       9.524191 20.979841 12.653531 10.938764
0000c0 a4 79 83 41 2b 6f 0a 41 59 54 5a 41 96 28 55 41
       16.434395 8.652141 13.645593 13.322409
0000d0 cb 20 2b 41 8e 53 69 41 9e b7 51 41 9c 70 63 41
       10.695506 14.582899 13.107328 14.214993
0000e0 5c 76 69 41 c8 59 92 41 85 fc fb 40 c3 d0 3f 41
       14.591396 18.293839 7.874575 11.988467
0000f0 14 34 fc 40 6f be 7c 41 2b b4 77 41 0d 90 40 41
       7.881357 15.796493 15.481486 12.035169

fc1.weight f4 [128, 576]
000000 ad b6 92 bd 94 d9 a3 bb f9 19 06 bc 47 88 0d be
       -0.07163749 -0.0050003026 -0.008184903 -0.13821517
000010 84 2e e8 3d 01 63 07 3e d3 a6 2a 3d 0f d5 9a bc
       0.11336997 0.1322136 0.041663002 -0.018900422
000020 e9 28 f7 3d a0 41 3b bd 2f 8f e9 3c b6 12 15 bd
       0.1206835 -0.04571688 0.028510658 -0.036394797
000030 01 bd 17 bd 43 15 b6 3d 53 6d e4 3d d5 fb 1e 3e
       -0.037045483 0.08890774 0.111536644 0.15525754
000040 7e f9 8a 3e 9c 84 22 3c 95 74 40 bd 1c 56 61 3d
       0.27143472 0.009919312 -0.04698618 0.05501376
000050 2c 1c 36 bd 44 a3 bb 3d ae bb d9 3d 03 5b c6 bc
       -0.04446046 0.09162 0.106315 -0.02421332
000060 0f c9 89 bd 89 e5 f4 3c f0 a6 d6 3d 2c 1b ed b9
       -0.06727802 0.029894607 0.104810596 -0.00045224407
000070 0b 91 22 3d 3e 9a dc 3d 24 63 dc bd eb dc 26 3d
       0.039689105 0.10771607 -0.10761097 0.040738028
000080 29 02 2f 3e 10 02 1f 3d 79 1d 53 bd 8d 4d a2 3e
       0.17090668 0.038820326 -0.05154178 0.31699792
000090 86 a6 f3 bd b5 04 0e 3e c0 c7 38 bc 0b 68 0c bd
       -0.11896996 0.13868983 -0.011278093 -0.03427891
0000a0 85 9a 86 3c 0c 85 24 3e a6 9a 25 3e 5f d5 2d 3e
       0.016431103 0.16066378 0.16172275 0.16975926
0000b0 18 4c 91 3e 86 53 6c 3c 7d 8c 6a bd 7a aa 58 bd
       0.28378367 0.01442421 -0.057262886 -0.052896954
0000c0 76 92 b3 bd 28 6e b0 bd 58 05 f4 3d 32 3d b4 bd
       -0.087681696 -0.08614761 0.11915082 -0.088007346
0000d0 b0 d5 1b be 1b 3c c5 bb 8e ae 14 be a7 40 03 bd
       -0.15218234 -0.006019128 -0.14519712 -0.03204408
0000e0 65 7d 5d 3d 97 cd a6 3c 48 cd a6 bc ab 45 9c 3d
       0.054074664 0.020361705 -0.020361558 0.076304756
0000f0 8f 34 0a be 4a 1c 2c 3d 22 a0 d8 3c 11 d7 84 3d
       -0.13496612 0.042019166 0.026443545 0.06486333
000100 d6 e6 58 bd 71 e2 d5 bd 4c 81 6a 3d f3 3d 3e 3e
       -0.052954517 -0.10443581 0.057252213 0.18578319
000110 16 c5 e6 3d 7d 28 eb 3d b2 23 eb 3d 28 5f 15 3e
       0.1126806 0.11482332 0.11481418 0.1458708
000120 17 a4 1e 3e 14 04 38 bd 7a 34 15 bd 72 ff 9b bd
       0.15492283 -0.044925764 -0.036427 -0.07617082
000130 ad c0 ca bd b0 a5 0a 3e 25 13 86 3d 94 45 f9 3b
       -0.09900031 0.13539767 0.0654662 0.0076071713
000140 b0 f4 56 bd f5 aa 11 be 8d 77 ef 3c 97 05 06 3d
       -0.052479446 -0.14225371 0.029231811 0.032720175
000150 4e 36 d4 3d 68 37 02 bc 1c 31 95 3c fa 4e 17 3e
       0.1036192 -0.00794778 0.018211894 0.14776221
000160 0c 87 b2 bd ad 01 c8 3d ae 0d ef 3c 03 f7 bd 3d
       -0.087171644 0.09765945 0.029181328 0.09275629
000170 d4 98 c7 bd cd 64 db bd 61 23 ea bd b1 d4 4c 3c
       -0.097459465 -0.107125856 -0.11432529 0.012501881
000180 8e 8e af bd ab 6e be bd ee 8c 07 3e 7c 6d f4 ba
       -0.08572112 -0.09298452 0.13237354 -0.0018648352
000190 dd f4 7d 3d 4d 94 c9 bc ba 4e 61 3d 2a 48 10 3e
       0.062001098 -0.024606848 0.05500672 0.14090028
0001a0 42 9f a5 bd cc f7 73 bc a6 14 2f be 87 50 8c 3d
       -0.08087017 -0.014890622 -0.1709772 0.06851297
0001b0 ad 57 f5 3a e4 f5 50 3d 6f d2 5a bd 23 8b bb 3d
       0.0018718146 0.05101575 -0.05342334 0.091573976
0001c0 b1 ad 0f bd 99 3a 6a 3d 8e 08 c9 bc 70 94 15 bd
       -0.035077754 0.05718479 -0.024540212 -0.036518514
0001d0 dd de 10 3d ce 8f cc bc cf ce 36 3c f2 74 d4 3d
       0.03536879 -0.024970915 0.011157705 0.10373868
0001e0 0e 76 2b be cc 57 ad bd 9a c3 aa 3d 63 97 52 be
       -0.16744253 -0.084640115 0.08338089 -0.20565562
0001f0 73 93 c7 3b 80 6b 8d 3c ce 6f b7 3c b4 b7 16 3e
       0.0060905754 0.017263174 0.02239218 0.14718515
000200 d7 f8 4a 3d 33 ea 3a be 50 fb d2 3d 26 a8 8f 3d
       0.04955372 -0.18253402 0.1030184 0.07014494
000210 74 d5 fb 3d 08 db 29 3e 43 2e 00 3e e5 0a 1c be
       0.12296572 0.1658746 0.12517647 -0.15238531
000220 b8 65 8f 3c ec 93 9d 3c e0 3d d6 3d cc 2a d6 3d
       0.017504558 0.019235574 0.104610205 0.104573816
000230 ee 39 3d bd f3 3b 07 3e 6c 0f e8 3d c9 86 b1 bd
       -0.046197824 0.13206463 0.113310665 -0.08668286
000240 78 de 8b 3a c8 f8 ea 3d 3b b7 42 bd 9e 72 d7 3a
       0.0010671159 0.114732325 -0.047538023 0.0016437357
000250 98 4a 2c 3d 47 26 bd bd 2c ce 9c 3d cd 9f d6 3d
       0.042063326 -0.092358164 0.07656512 0.10479698
000260 2f 0d 2a 3e 2a 0f ef 3b 80 38 c6 3d 9a a4 0d bd
       0.16606592 0.007295509 0.09678745 -0.034580804
000270 32 76 b3 bd 92 c2 4b 3e 8f 37 5a 3c d8 a7 e8 bd
       -0.08762778 0.19898441 0.01331891 -0.11360139
000280 d0 b3 18 be e5 0a 19 3e d4 a4 9c bc bf 8b 18 3d
       -0.14912343 0.14945562 -0.019121565 0.037242647
000290 44 74 9e bc c3 6c 4f bd c0 00 9e bd 5f c0 84 3d
       -0.01934255 -0.050640833 -0.07714987 0.064820044
0002a0 d3 d5 25 bc 76 ea b5 3d 39 ff 91 3d d2 d3 dc 3b
       -0.01012178 0.088826105 0.07128758 0.006739118
0002b0 11 c1 33 bc 00 34 ad 3d 92 f9 3a be 10 6c 95 bd
       -0.010971324 0.08457184 -0.18259266 -0.07296002
0002c0 1d e3 18 bd d1 86 7f be 19 d5 1d 3d e8 d4 09 3e
       -0.037325967 -0.24953772 0.038533304 0.13460124
0002d0 fc d4 00 bd f1 04 cb bd 60 12 48 bd ee 95 1b bd
       -0.031453118 -0.09913052 -0.04884565 -0.03798478
0002e0 c9 d3 bd bd 0a ab 47 be b2 cb da bc 8b 9f 4d be
       -0.092689104 -0.1949884 -0.026708458 -0.20080392
0002f0 48 73 ad 3b 8b cb 0a 3c b4 ae b9 3d d0 e7 09 3d
       0.0052932836 0.00847138 0.09066525 0.03366834
000300 49 ef 10 3d de 47 23 3c b9 f5 43 3d 74 c8 39 3d
       0.03538445 0.009965865 0.04784176 0.045357183
000310 c2 fa 90 bd 1c 28 0d 3c 6f 89 2b bd e6 65 93 bd
       -0.07079078 0.00861552 -0.041879114 -0.0719717
000320 05 e1 f7 3d e1 d3 2d be 58 2c 05 be 45 7d 20 3d
       0.12103466 -0.16975357 -0.13005197 0.039181966
000330 9a 9e 63 3d 3c 14 12 be f8 f9 05 be 44 aa a4 bd
       0.055571176 -0.14265531 -0.13083637 -0.08040288
000340 33 a8 26 be 94 d3 8f 3d 9f 84 6e bd b9 8f 35 be
       -0.162751 0.07022777 -0.058231946 -0.17730607
000350 61 6c 00 bd 7a 80 02 be 13 e2 85 bd b1 6f 9a bc
       -0.03135336 -0.12744322 -0.06537261 -0.018852087
000360 5d 5f 8e 3d 3e d6 ff 3c 56 c2 0f ba c7 07 30 bd
       0.06951783 0.031230088 -0.00054839754 -0.042976167
000370 87 2c c0 3d ac 9f 34 bd ba d5 04 be af aa f0 bc
       0.09383493 -0.044097587 -0.12972155 -0.029378263
000380 99 f8 b9 3c af be 3a be 77 4b 12 3e 96 5d 58 bd
       0.022701548 -0.18236803 0.142866 -0.052823626
000390 82 2a 27 3d f7 1f 36 3d cc 9e 1d 3d e7 26 e7 bb
       0.040812023 0.044464078 0.03848152 -0.007054198
0003a0 a5 80 64 bd 64 a6 2a 3e b2 47 02 be ef 0b a8 3c
       -0.055786747 0.16665035 -0.12722662 0.020513503
0003b0 5b bb ba 3d 3f a7 7d be 96 ce 88 be 6e 47 f6 3d
       0.091177665 -0.2477083 -0.26720113 0.12025343
0003c0 91 87 56 bd c0 0a 46 bc 99 08 57 bc 06 9b 0d be
       -0.05237538 -0.012087524 -0.013124608 -0.13828668
0003d0 d3 40 db bd 86 8e 6a 3d 0d 3b 94 bd 89 7a c2 3d
       -0.107057236 0.057264827 -0.072378255 0.09496028
0003e0 37 81 ec 3d 0b bc 81 bc 70 f8 3a bd d6 9a d9 bc
       0.11548083 -0.015836736 -0.045647085 -0.02656309
0003f0 e1 22 0f bd b8 cd 78 3d 36 2c ce bd b0 26 85 3a
       -0.034945372 0.060743064 -0.10067026 0.0010158625
