backup/rotate+gan+10samples_1000epoch.pth (torch, 537994 bytes, 26 tensors)

conv1.weight f4 [32, 1, 3, 3]
-0.3271893 0.06116476 -0.08290911 -0.047149234 -0.31132197 -0.021147748 -0.30801204 -0.1703745
0.19382703 -0.12336141 -0.22620128 -0.3857344 -0.298348 0.2170646 -0.07693986 0.20282061
-0.30186084 0.23925883 -0.24015097 -0.20221922 0.41980663 -0.20856264 -0.13237877 0.20954917
-0.2172497 -0.24172746 -0.14703974 0.042386416 0.14978448 0.1997338 0.20054685 0.05153263
-0.024188977 0.11975185 -0.049780075 -0.45814672 -0.050485637 -0.33172008 -0.38172546 0.08124949
0.18147394 0.038239136 0.22209169 -0.026040416 0.23432946 -0.036204137 -0.2711524 0.29126945
0.0021134776 -0.26689032 0.2611961 -0.1845117 0.05592113 0.1829576 0.1851083 0.26227143
-0.06258349 -0.1449818 -0.013809228 -0.41161388 -0.29807815 -0.293229 -0.0205801 0.35974562
0.26304412 -0.02816766 -0.06633099 0.09232814 0.14909635 0.007822233 -0.40437865 -0.37312555
0.2580005 -0.33305368 -0.29619575 0.17867178 -0.18561107 -0.1517137 0.14539216 -0.11900384
-0.35470453 0.14111036 0.09284856 -0.2057719 -0.025599932 0.27327356 -0.3993874 0.29286596
0.056734297 -0.074690305 0.030222276 -0.09058743 0.24102524 -0.25107813 -0.25263184 0.033988483
0.23225388 -0.286268 -0.21337865 -0.15021987 -0.37821263 -0.32879233 -0.12751515 0.23248109
-0.22893053 0.15555932 0.06981105 0.124308236 -0.022550358 0.2072049 0.19904526 -0.32450733
-0.16628075 0.016293561 -0.17967424 0.06495361 0.29016283 0.02571032 0.3682945 -0.35106573
0.19102629 -0.08785113 -0.103130065 -0.17708883 0.10686981 -0.41209993 -0.46689665 -0.39045575
-0.28225642 -0.019513533 0.19515698 0.1554165 -0.23248224 0.12517205 0.15612046 0.05259103
-0.46997243 0.006902836 -0.17848413 -0.33098266 -0.35728392 -0.09808723 0.18363744 -0.25083646
0.23323885 0.30054733 -0.016071768 -0.09232065 0.008824052 0.2616435 -0.1554887 -0.002930538
0.31761423 -0.34423718 -0.007874243 -0.16712677 -0.011945459 0.37859103 0.19481423 -0.017919894
-0.18948402 -0.20155494 0.00026285212 0.32552463 0.23793012 0.16446401 0.2707956 -0.026428327
0.045464195 0.37178394 -0.01130765 0.058332134 -0.10182496 0.11086993 -0.10683032 0.27080855
0.2678622 -0.5635737 -0.17442459 0.048892256 0.28403154 0.09620629 0.38277912 -0.33921513
0.23807201 -0.23853004 0.37980592 0.1068273 0.08056002 0.3119489 0.2802512 0.2713967
0.14092457 -0.14389727 -0.015184518 -0.19231929 -0.1491249 0.2606511 0.099938445 0.34537378
0.24707389 -0.2286002 -0.11223701 -0.054118767 -0.24488603 -0.22184539 -0.14036252 -0.08378306
-0.3784354 -0.25832114 -0.29197076 -0.022865836 0.2085531 -0.12598716 0.011307129 0.17144081
-0.1976508 -0.28725678 0.07630438 -0.21294609 0.021914335 0.36158252 0.15942563 0.34625292
-0.2967937 -0.08536606 0.3032543 -0.17680654 0.14467593 -0.0360923 0.23171045 -0.44824293
-0.021539556 -0.032137483 0.036879517 -0.3174672 -0.16764209 0.41696334 -0.14504348 0.19970384
-0.19133116 0.16085081 -0.13938215 -0.050148156 -0.17664333 -0.0862838 -0.355357 -0.10262865
0.20698772 -0.26528513 0.3183407 0.04148339 0.30178207 -0.098710485 -0.14450274 0.20149362
00000000: 5b85 a7be e687 7a3d 40cc a9bd 8e1f 41bd
00000010: 9865 9fbe 0b3e adbc c1b3 9dbe a776 2ebe
00000020: 987a 463e e8a4 fcbd 4fa1 67be fb7e c5be
00000030: 12c1 98be 2f46 5e3e a592 9dbd 35b0 4f3e
00000040: 818d 9abe 4400 753e 23ea 75be 8e12 4fbe
00000050: e5f0 d63e 7291 55be 4d8e 07be 0f94 563e
00000060: b576 5ebe 6787 77be 9691 16be 619d 2d3d
00000070: 1a61 193e 0487 4c3e 275c 4d3e e113 533d
00000080: f627 c6bc 7540 f53d 31e6 4bbd 3592 eabe
00000090: 07ca 4ebd 37d7 a9be 8571 c3be 2266 a63d
000000a0: 4ed4 393e a4a0 1c3d 016c 633e b652 d5bc
000000b0: 10f4 6f3e ca4a 14bd 7dd4 8abe 4521 953e
000000c0: 4582 0a3b d9a5 88be 7fbb 853e a3f0 3cbe
000000d0: 8e0d 653d 3d59 3b3e 088d 3d3e 7148 863e
000000e0: c62b 80bd 1c76 14be 1a40 62bc 0ebf d2be
000000f0: b39d 98be 1d22 96be 9997 a8bc 9430 b83e
00000100: b8ad 863e ddbf e6bc 8bd8 87bd 8916 bd3d
00000110: b7ac 183e d328 003c b80a cfbe 500a bfbe
00000120: a418 843e 0386 aabe f8a6 97be bcf5 363e
00000130: d410 3ebe d65a 1bbe afe1 143e 49b8 f3bd
00000140: d59b b5be 3c7f 103e 6327 be3d deb5 52be
00000150: f3b6 d1bc 83ea 8b3e 817c ccbe 87f2 953e
00000160: 3962 683d 3bf7 98bd b594 f73c e785 b9bd
00000170: 52cf 763e 508d 80be f658 81be 8237 0b3d
00000180: f6d3 6d3e b891 92be ef7f 5abe 3dd3 19be
00000190: 16a5 c1be 7857 a8be 5593 02be 860f 6e3e
000001a0: c46c 6abe f14a 1f3e 19f9 8e3d 5195 fe3d
000001b0: 87bb b8bc 852d 543e 85d2 4b3e d325 a6be
000001c0: 8045 2abe 137a 853c 86fc 37be 6606 853d
000001d0: 3990 943e 739e d23c 1991 bc3e e3be b3be
000001e0: 659c 433e 4beb b3bd db35 d3bd c656 35be
000001f0: 8fde da3d c3fe d2be 140d efbe d1e9 c7be
00000200: ea83 90be d8da 9fbc 3bd7 473e 8125 1f3e
00000210: d30f 6ebe 1a2d 003e 0bde 1f3e b169 573d
00000220: 3aa0 f0be 2f31 e23b 8bc4 36be 8f76 a9be
00000230: ebed b6be f5e1 c8bd 740b 3c3e a36d 80be
00000240: 2ad6 6e3e 57e1 993e f1a8 83bc 9c12 bdbd
00000250: c292 103c 23f6 853e 6e38 1fbe 450e 40bb
00000260: 559e a23e db3f b0be f802 01bc 4823 2bbe
00000270: e3b6 43bc afd6 c13e 627d 473e becc 92bc
00000280: 1908 42be 6b64 4ebe 6acf 8939 2aab a63e
00000290: f4a3 733e 4169 283e b9a5 8a3e 3880 d8bc
000002a0: aa38 3a3d 775a be3e b943 39bc aded 6e3d
000002b0: 9b89 d0bd c60f e33d dbc9 dabd 6ba7 8a3e
000002c0: 3c25 893e 5e46 10bf 5c9c 32be 3f43 483d
000002d0: 956c 913e ce07 c53d a0fb c33e 9bad adbe
000002e0: 26c9 733e 3841 74be ec75 c23e 45c8 da3d
000002f0: a7fc a43d c4b7 9f3e 167d 8f3e 82f4 8a3e
00000300: 884e 103e ce59 13be 7cc8 78bc 59ef 44be
00000310: 33b4 18be 1074 853e 87ac cc3d d5d4 b03e
00000320: f000 7d3e 2c16 6abe 84dc e5bd a4ab 5dbd
00000330: 67c3 7abe 702b 63be 31bb 0fbe 7496 abbd
00000340: 49c2 c1be ab42 84be 317d 95be 2251 bbbc
00000350: f28e 553e c702 01be 8941 393c 2e8e 2f3e
00000360: f964 4abe 5213 93be 7945 9c3d 8a0e 5abe
00000370: b185 b33c 5821 b93e 7940 233e 1048 b13e
00000380: 58f5 97be 67d4 aebd 2644 9b3e c60c 35be
00000390: ed25 143e 85d5 13bd 8145 6d3e 1980 e5be
000003a0: b973 b0bc 98a2 03bd fa0e 173d 108b a2be
000003b0: 5eaa 2bbe 387c d53e 4786 14be 2a7f 4c3e
000003c0: 51ec 43be 13b6 243e 32ba 0ebe 2768 4dbd
000003d0: fde1 34be 90b5 b0bd 5af1 b5be f82e d2bd
000003e0: 97f4 533e 74d3 87be 8dfd a23e 7dea 293d
000003f0: 2e83 9a3e b928 cabd 87f8 13be 5854 4e3e

conv1.bias f4 [32]
-0.045412876 -0.05438012 -0.103687145 -0.317503 0.17141873 -0.26226997 -0.25325245 0.008799806
0.33684924 -0.38068244 -0.19829582 0.30630246 -0.105232425 -0.1795074 -0.3175626 -0.24811591
-0.3339032 -0.14243561 0.18562071 -0.29134393 0.101389445 0.22876537 -0.13169657 0.24558967
0.25139388 0.26652205 -0.35420683 0.1953041 0.009729115 0.33535695 0.17234999 -0.018463666
00000000: da02 3abd b0bd 5ebd ed59 d4bd c18f a2be
00000010: 6488 2f3e 4048 86be 4eaa 81be 102d 103c
00000020: 8177 ac3e cfe8 c2be 0f0e 4bbe add3 9c3e
00000030: 1984 d7bd cad0 37be 9197 a2be 1912 7ebe
00000040: 5cf5 aabe a4da 11be 5b13 3e3e 082b 95be
00000050: 45a5 cf3d 7841 6a3e 77db 06be dc7b 7b3e
00000060: b3b6 803e 9475 883e 995a b5be ccfd 473e
00000070: de66 1f3c e8b3 ab3e 847c 303e 1d41 97bc

bn1.weight f4 [32]
1.1748503 1.0525444 1.3585309 0.6836021 1.1559728 0.8396834 1.440998 1.0017358
1.265373 1.05325 1.3604636 1.1866137 0.81208295 1.0667796 1.1594062 1.3454763
0.48940724 1.1937559 0.547812 0.6670218 0.43128812 0.40217748 1.2432572 1.3231729
0.8561387 0.60804844 0.85891986 1.1716096 1.0634732 1.1365316 0.9916124 0.7325535
00000000: 7f61 963f c6b9 863f 57e4 ad3f 8c00 2f3f
00000010: ebf6 933f 7ef5 563f 9f72 b83f e138 803f
00000020: bef7 a13f e5d0 863f ac23 ae3f f5e2 973f
00000030: abe4 4f3f 3c8c 883f 6c67 943f 9138 ac3f
00000040: 9693 fa3e fecc 983f 683d 0c3f f1c1 2a3f
00000050: ccd1 dc3e 35ea cd3e 0d23 9f3f bb5d a93f
00000060: e82b 5b3f 10a9 1b3f 2ce2 5b3f 4ef7 953f
00000070: e41f 883f de79 913f 4fda 7d3f a088 3b3f

bn1.bias f4 [32]
-0.20207216 -0.23941876 -0.15481004 -0.503167 -0.013073676 -0.019130316 0.04610884 0.02822452
0.012080753 -0.056860477 -0.00625783 -0.02166873 -0.30359998 -0.19234368 -0.050141305 -0.06387688
-0.40296212 -0.24400362 -0.41539916 0.04486419 -0.42487368 -0.41375363 0.00087278814 -0.071495384
-0.0432283 0.06988573 -0.017173924 -0.008323672 -0.1776042 -0.14959624 0.055155445 -0.3885824
00000000: 01ec 4ebe 312a 75be 8686 1ebe 8dcf 00bf
00000010: f932 56bc 2eb7 9cbc 9fdc 3c3d 1c37 e73c
00000020: 5aee 453c 88e6 68bd 7c0e cdbb 9f82 b1bc
00000030: 7571 9bbe bef5 44be f860 4dbd e2d1 82bd
00000040: 0d51 cebe 16dc 79be 33af d4be 83c3 373d
00000050: 0b89 d9be 84d7 d3be d2cb 643a 2c6c 92bd
00000060: 2810 31bd 4020 8f3d 54b0 8cbc 0360 08bc
00000070: e0dd 35be c22f 19be adea 613d 46f4 c6be

bn1.running_mean f4 [32]
-0.06299764 -0.06844429 -0.11550559 -0.31663212 0.16815901 -0.25429827 -0.26634198 0.0078058527
0.3238864 -0.3795802 -0.19732599 0.29142743 -0.09796653 -0.19883533 -0.34302154 -0.26696625
-0.31638113 -0.16386056 0.20547417 -0.30305755 0.12827924 0.2510033 -0.13559939 0.23133041
0.24758923 0.2542502 -0.3599239 0.18559629 0.005627417 0.31599507 0.17706428 -0.015341397
00000000: e804 81bd 852c 8cbd 328e ecbd 9b1d a2be
00000010: e031 2c3e 6233 82be fa5d 88be 3dc8 ff3b
00000020: 70d4 a53e 5658 c2be d30f 4abe fa35 953e
00000030: ada2 c8bd 7d9b 4bbe 85a0 afbe cdaf 88be
00000040: b5fc a1be 10cb 27be d267 523e 5c2a 9bbe
00000050: a25b 033e 8183 803e 91da 0abe e1e1 6c3e
00000060: 0888 7d3e 152d 823e f247 b8be f40c 3e3e
00000070: 3266 b83b 1bca a13e 5750 353e 7c5a 7bbc

bn1.running_var f4 [32]
0.7987587 0.51157886 0.6504536 0.28918397 0.26290253 0.19906412 0.69619656 0.4142224
0.827019 0.24790573 0.3200856 0.48332393 0.21177316 0.33886755 0.7100983 1.515862
0.543439 0.12363259 1.3619686 0.30534267 0.6546997 0.49390614 0.36629093 0.6328028
0.21385375 0.11784707 0.099428 0.37384734 0.4939787 0.13636804 0.10261089 0.22881475
00000000: 737b 4c3f d5f6 023f 2184 263f ec0f 943e
00000010: 299b 863e 77d7 4b3e f039 323f f514 d43e
00000020: 84b7 533f 00db 7d3e 42e2 a33e 3c76 f73e
00000030: 10db 583e 0c80 ad3e 01c9 353f c407 c23f
00000040: d11e 0b3f 1533 fd3d fd54 ae3f e055 9c3e
00000050: 669a 273f 44e1 fc3e 7c8a bb3e 5dff 213f
00000060: 7afc 5a3e ce59 f13d e8a0 cb3d eb68 bf3e
00000070: c7ea fc3e 10a4 0b3e a925 d23d 6a4e 6a3e

conv2.weight f4 [64, 32, 3, 3]
0.03741876 0.13151255 -0.008483635 -0.025789965 -0.10760385 -0.15810888 0.007851483 0.10539409
0.0018415407 -0.0046277745 -0.075280085 -0.08062621 -0.02025518 -0.08764233 0.10637803 -0.052219942
0.014729378 -0.21263707 0.13588707 -0.010419172 -0.06351418 0.1134529 0.035154775 0.08161749
0.028118145 0.054502036 0.07305147 -0.073861405 -0.03997178 -0.12510717 -0.06993181 0.0041888235
0.012257626 -0.10932127 -0.109353974 -0.15673174 -0.026745811 -0.109287396 0.000254604 -0.028278686
-0.015956061 0.009159893 -0.15666746 -0.10279043 -0.18149544 0.2307419 0.047327455 -0.14861296
0.08394388 -0.05110455 -0.051935982 -0.12592006 -0.0022417586 0.030175215 0.05608545 0.09380271
0.1649939 -0.020207921 -0.0067645176 -0.016186018 0.041553833 0.07483349 0.023431437 0.04884827
-0.0072840718 -0.07284595 0.03425172 0.10446926 -0.035657708 0.056175344 -0.017007913 -0.05993875
-0.014054081 0.0450619 -0.07566008 -0.014575853 -0.17516306 -0.12867776 -0.10597089 -0.103048846
-0.07716808 -0.0976395 -0.011748904 0.0002523737 -0.15657578 -0.20894586 -0.1340484 -0.22398567
-0.34136355 -0.22807461 0.055306703 0.11159284 0.057589512 0.11575243 -0.007751974 0.017147018
0.09455283 0.03388987 -0.020686984 0.015447821 -0.097110555 0.061852794 0.02535744 0.0036121751
0.20014068 -0.033432193 0.043602515 -0.16428493 0.034924638 0.07099032 -0.17588517 -0.03874891
-0.019060157 -0.046173163 -0.035747916 0.0381119 0.065222904 -0.03177345 0.023006074 -0.13433225
-0.03475538 -0.09900196 -0.15625486 -0.09628204 -0.016260397 -0.12750281 -0.021777578 -0.07080923
-0.097964674 -0.032670837 -0.14776632 0.055959526 -0.056024287 -0.043426294 -0.1432496 0.004695459
0.072344474 0.070165396 0.0074990527 -0.10929448 -0.017297354 0.16226865 0.01634394 -0.03462927
-0.051294584 0.043795884 -0.008945434 0.018428486 0.08427306 0.07220545 -0.10959642 -0.028986864
0.1140917 -0.13478334 -0.02605061 0.034554426 0.09454198 0.14401695 0.17157461 -0.14772753
0.0841838 -0.052153576 -0.037627984 0.04602539 -0.058881078 -0.0267485 0.0101981815 0.01650474
-0.16873668 -0.16538127 -0.12463809 0.11727123 -0.04024833 -0.2043555 0.06782826 0.11779072
0.11279866 -0.07378491 -0.07792598 0.016461505 -0.035236172 0.09746908 0.016523795 -0.06194955
-0.0710327 -0.027395403 -0.09539378 -0.07754432 -0.04955761 0.02354168 0.07226042 -0.014172889
-0.04028078 0.06293612 0.14942342 -0.05237348 -0.08803823 0.066233575 0.056441937 -0.03405655
-0.014084323 0.08229895 0.10896049 0.13715446 0.08759814 0.09444353 0.034432884 0.032120686
-0.09746148 -0.01614832 -0.16150434 -0.19273138 -0.060945094 -0.06516025 0.04844127 -0.08784891
0.047993336 0.031910587 -0.08404726 -0.019884247 -0.050935 -0.09825146 -0.082812555 -0.05796701
0.045214333 0.01280434 0.030196156 -0.16973037 0.038690913 0.09197141 0.112514414 -0.020074574
-0.110944 0.024674112 0.024425652 0.039916094 -0.043668628 -0.18059416 0.03724706 0.020843916
-0.18628462 -0.20651159 -0.18409732 -0.0027911188 0.066324584 -0.038045198 -0.09197427 -0.105335236
-0.19413559 -0.09837749 0.03143325 0.08661425 -0.02574985 0.0133918105 -0.14156078 -0.09082108
00000000: 6a44 193d 3aab 063e f2fe 0abc 7a45 d3bc
00000010: 685f dcbd 4be7 21be 82a3 003c dbd8 d73d
00000020: da5f f13a 96a4 97bb 722c 9abd 5b1f a5bd
00000030: 31ee a5bc d27d b3bd b9dc d93d 94e4 55bd
00000040: 7d53 713c 88bd 59be fb25 0b3e 2db5 2abc
00000050: b913 82bd fe59 e83d 74fe 0f3d 1227 a73d
00000060: 0658 e63c 873d 5f3d 029c 953d a644 97bd
00000070: 73b9 23bd 181c 00be 6938 8fbd 6642 893b
00000080: 36d4 483c d4e3 dfbd faf4 dfbd 497e 20be
00000090: 081a dbbc 12d2 dfbd 5f7c 8539 b4a8 e7bc
000000a0: 49b6 82bc 6013 163c 6f6d 20be ca83 d2bd
000000b0: f1d9 39be 9b47 6c3e 6fda 413d ff2d 18be
000000c0: c5ea ab3d 0153 51bd d3ba 54bd 30f1 00be
000000d0: 78ea 12bb 0332 f73c dbb9 653d a31b c03d
000000e0: 29f4 283e 158b a5bc e3a8 ddbb 8a98 84bc
000000f0: 5a34 2a3d 4d42 993d 49f3 bf3c 2015 483d
00000100: 39af eebb 4230 95bd 884b 0c3d fbf3 d53d
00000110: d10d 12bd 1e18 663d 2e54 8bbc 5682 75bd
00000120: 1743 66bc d492 383d acf3 9abd 8fcf 6ebc
00000130: f25d 33be 1ac4 03be 4407 d9bd 460b d3bd
00000140: 4c0a 9ebd 38f7 c7bd 7a7e 40bc 0651 8439
00000150: 6755 20be e7f5 55be fc43 09be 805c 65be
00000160: 34c7 aebe 648c 69be 4889 623d c98a e43d
00000170: fbe2 6b3d 9c0f ed3d 4504 febb e777 8c3c
00000180: eaa4 c13d 1bd0 0a3d c077 a9bc db18 7d3c
00000190: e6e1 c6bd 5b59 7d3d 68ba cf3c 3eba 6c3b
000001a0: aef1 4c3e 32f0 08bd 8d98 323d 4f3a 28be
000001b0: 230d 0f3d 5f63 913d 3e1b 34be 2db7 1ebd
000001c0: 0c24 9cbc 1220 3dbd 686c 12bd 391b 1c3d
000001d0: 9693 853d e124 02bd 3c77 bc3c 658e 09be
000001e0: a85b 0ebd 8ac1 cabd 4601 20be 852f c5bd
000001f0: 8634 85bc 1990 02be e466 b2bc 6e04 91bd
00000200: b4a1 c8bd dbd1 05bd 0e50 17be d135 653d
00000210: b979 65bd c5df 31bd 06b0 12be 5ddc 993b
00000220: 5729 943d e0b2 8f3d 9dba f53b c9d5 dfbd
00000230: 2eb3 8dbc c129 263e bae3 853c 6cd7 0dbd
00000240: 451a 52bd 5063 333d df8f 12bc 56f7 963c
00000250: 5b97 ac3d 73e0 933d 1674 e0bd dc75 edbc
00000260: e9a8 e93d a504 0abe 1768 d5bc f188 0d3d
00000270: 3a9f c13d 2e79 133e 41b1 2f3e e345 17be
00000280: 8e68 ac3d fd9e 55bd cd1f 1abd 1f85 3c3d
00000290: 492d 71bd ac1f dbbc 4616 273c f334 873c
000002a0: 4fc9 2cbe b559 29be 4142 ffbd e62b f03d
000002b0: 6fdb 24bd 9142 51be 8be9 8a3d 433c f13d
000002c0: fc02 e73d 8b1c 97bd a897 9fbd 47da 863c
000002d0: ce53 10bd de9d c73d e95c 873c d0be 7dbd
000002e0: 9879 91bd 536c e0bc d05d c3bd 8ecf 9ebd
000002f0: ecfc 4abd 7bda c03c 45fd 933d 6835 68bc
00000300: 76fd 24bd a7e4 803d 7402 193e 9385 56bd
00000310: 634d b4bd 78a5 873d a92f 673d e27e 0bbd
00000320: efc1 66bc 5a8c a83d ad26 df3d 3872 0c3e
00000330: a766 b33d 9c6b c13d 7f09 0d3d fb90 033d
00000340: e299 c7bd 7b49 84bc 6561 25be 605b 45be
00000350: 90a1 79bd bd72 85bd 5a6a 463d 21ea b3bd
00000360: a994 443d adb4 023d f820 acbd 4ae4 a2bc
00000370: 38a1 50bd 1038 c9bd a199 a9bd d16e 6dbd
00000380: aa32 393d 4bc9 513c ee5d f73c cccd 2dbe
00000390: 5d7a 1e3d 825b bc3d f56d e63d 6f73 a4bc
000003a0: 9c36 e3bd 5d21 ca3c 4e18 c83c 0f7f 233d
000003b0: e0dd 32bd aded 38be 6090 183d dcc0 aa3c
000003c0: 65c1 3ebe c677 53be 0284 3cbe 34eb 36bb
000003d0: 2fd5 873d 48d5 1bbd 025d bcbd 00ba d7bd
000003e0: 7bcb 46be 237a c9bd 27c0 003d d062 b13d
000003f0: 59f1 d2bc 5369 5b3c 4ff5 10be 6700 babd

conv2.bias f4 [64]
0.060400102 0.008683249 0.04778582 -0.023970583 -0.037149455 -0.037597753 0.018416746 0.038785357
0.014164847 -0.02190953 0.026613824 0.018597938 -0.040895067 0.054037556 -0.015347199 0.032881297
-0.045314252 0.06449621 0.048764274 -0.033342447 0.05995264 -0.014639266 -0.017425971 0.052317027
-0.023831744 0.0052265106 0.02551321 0.0013111603 0.040056948 -0.011563183 0.002968726 -0.023127168
0.061722826 0.014847168 -0.020769468 0.009794376 0.0046172375 -0.037281558 -0.034765687 0.052865244
-0.05803225 -0.0076576998 0.023499876 -0.05162541 -0.060838915 0.046255317 0.008340219 0.034780964
0.029000133 -0.008116102 -0.049271986 -0.053997044 -0.025056446 -0.025481341 0.026287006 -0.059993032
0.053236067 -0.032800015 -0.044259746 0.027952045 -0.008550555 0.048790496 0.04993508 -0.005572188
00000000: 1966 773d 3044 0e3c 10bb 433d f55d c4bc
00000010: 072a 18bd 1a00 1abd b7de 963c 65dd 1e3d
00000020: ad13 683c 9d7b b3bc 3c05 da3c b45a 983c
00000030: 9681 27bd 7c56 5d3d d172 7bbc 8aae 063d
00000040: 709b 39bd 9716 843d 0cbd 473d 1792 08bd
00000050: e690 753d 88d9 6fbc e9c0 8ebc 614a 563d
00000060: ca3a c3bc 2643 ab3b 1401 d13c 3ddb ab3a
00000070: c112 243d 8173 3dbc f58e 423b 3075 bdbc
00000080: 13d1 7c3d 8941 733c bb24 aabc 9778 203c
00000090: 324c 973b 8cb4 18bd 7766 0ebd 3a89 583d
000000a0: 39b3 6dbd 71ed fabb d082 c03c 2a75 53bd
000000b0: 3a32 79bd 3776 3d3d 6aa5 083c 7c76 0e3d
000000c0: b091 ed3c 66f9 04bc 6cd1 49bd 012c 5dbd
000000d0: 2d43 cdbc 3fbe d0bc d957 d73c 41bb 75bd
000000e0: 100e 5a3d 4f59 06bd b549 35bd b0fb e43c
000000f0: a117 0cbc 8bd8 473d ba88 4c3d e796 b6bb

bn2.weight f4 [64]
1.0013552 1.1340324 0.8999474 1.0266247 1.1419069 1.2498032 1.0248283 1.1196715
0.9957705 0.9448008 0.8817621 0.8000157 1.0115575 0.8942577 0.88301146 0.91574174
0.97601026 0.8428813 1.2225417 0.87768775 0.922969 1.0935225 0.9019708 0.8445171
0.8820403 1.1362298 1.0869467 1.0715202 1.1088988 1.0444285 1.0542388 0.8833182
0.9830495 0.99331987 1.0746025 1.2506881 1.2944967 0.949276 1.0919645 1.0676417
0.9482743 0.81623554 0.80295414 1.1290113 0.921324 1.1115403 1.0224799 0.9550306
0.8943859 0.9691779 1.038455 0.9189835 0.52379143 0.9139563 1.0812324 1.09287
1.022339 0.89124715 0.9244278 1.0587592 0.9602139 1.0339054 0.82520837 0.77779716
00000000: 682c 803f f927 913f f462 663f 7068 833f
00000010: 012a 923f 8df9 9f3f 932d 833f 6551 8f3f
00000020: d1ea 7e3f 77de 713f 29bb 613f d4cd 4c3f
00000030: b77a 813f 13ee 643f 0a0d 623f 0d6e 6a3f
00000040: cfdb 793f 12c7 573f 3f7c 9c3f 25b0 603f
00000050: b247 6c3f 8cf8 8b3f 8fe7 663f 4632 583f
00000060: 65cd 613f fa6f 913f 1221 8b3f 9327 893f
00000070: 65f0 8d3f d5af 853f 4cf1 863f 2421 623f
00000080: 22a9 7b3f 364a 7e3f 938c 893f 8c16 a03f
00000090: 11b2 a53f c003 733f 7ec5 8b3f 7ca8 883f
000000a0: 1bc2 723f d0f4 503f 678e 4d3f 7183 903f
000000b0: e4db 6b3f f446 8e3f 9fe0 823f e37c 743f
000000c0: 79f6 643f 0b1c 783f 18ec 843f 8142 6b3f
000000d0: 3217 063f 0af9 693f d365 8a3f 2ae3 8b3f
000000e0: 01dc 823f c628 643f 4da7 6c3f 6c85 873f
000000f0: 94d0 753f 0357 843f db40 533f b71d 473f

bn2.bias f4 [64]
0.008956262 -0.1325847 -0.38032573 -0.108275585 -0.2242682 -0.25836316 -0.22799948 -0.22291516
-0.08228764 -0.08030993 -0.19256227 -0.5668311 0.09234266 -0.124859236 -0.3049189 -0.07429876
-0.29815212 -0.34851784 -0.20768407 -0.15895239 -0.19219573 -0.0947578 -0.13240291 -0.36716318
-0.2603014 -0.17461462 -0.18154347 -0.15422642 -0.18167914 0.004813395 -0.14248444 -0.12294001
-0.19383097 -0.370227 -0.4037965 -0.18441942 -0.2052547 -0.20615323 -0.15225957 -0.22485231
-0.2419553 -0.2896197 -0.47841212 -0.12682937 -0.36794427 -0.35089317 -0.19460645 -0.3025425
-0.25174114 -0.2152809 -0.10503911 -0.15657116 -0.2058172 -0.1943598 -0.14895554 -0.20343693
-0.17835654 -0.45826414 -0.2071939 -0.108362496 -0.0751236 -0.27075094 -0.22878052 -0.4885608
00000000: 49bd 123c 49c4 07be 0eba c2be 97bf ddbd
00000010: 90a6 65be 2d48 84be b278 69be df43 64be
00000020: 6c86 a8bd 8879 a4bd 0b2f 45be d81b 11bf
00000030: 261e bd3d 33b6 ffbd 541e 9cbe f329 98bd
00000040: 65a7 98be ee70 b2be 22ab 54be 6ac4 22be
00000050: f5ce 44be 6110 c2bd a194 07be d0fc bbbe
00000060: 3a46 85be 2dce 32be 88e6 39be 88ed 1dbe
00000070: 190a 3abe afb9 9d3b 71e7 11be f9c7 fbbd
00000080: a07b 46be 658e bdbe 6abe cebe 72d8 3cbe
00000090: 4a2e 52be d519 53be efe9 1bbe af3f 66be
000000a0: 21c3 77be 0949 94be 6ff2 f4be 8fdf 01be
000000b0: 3163 bcbe 45a8 b3be ea46 47be dae6 9abe
000000c0: 37e4 80be 9972 5cbe bf1e d7bd 3154 20be
000000d0: bec1 52be 4106 47be cd87 18be c551 50be
000000e0: 19a3 36be 99a1 eabe a32a 54be 28ed ddbd
000000f0: 67da 99bd de9f 8abe 7145 6abe a424 fabe

bn2.running_mean f4 [64]
-2.3335052 -3.1905427 -0.30592814 -1.449103 -0.22806466 -0.8310648 -2.7549715 0.5256161
-0.80765545 -4.0490637 -2.3105881 -1.1059047 -3.8791263 -1.627837 -1.7963296 0.061302587
-2.5682297 -0.7160414 -1.2199672 -2.3399565 -2.2580934 -0.5246244 -2.08295 0.0030642392
-1.1885829 -0.9430389 -0.5354594 -2.0150437 -0.07141362 -1.6375378 -1.1917975 -1.755017
-0.07422122 0.6105909 -1.1616446 -0.6081153 1.5999049 -5.0032744 -1.5299804 -1.811784
-1.6166763 -0.3263029 -1.1807013 -1.3624821 -1.9702988 -2.1102598 -2.7106268 -2.8359492
-3.291655 -3.1434212 0.6684398 -4.1206617 -1.6379014 -4.0592704 -0.023532359 -0.92644536
-2.5451984 -1.6094431 -3.8429477 -1.738453 0.66975564 -0.9151103 -0.4645571 -0.7719042
00000000: 2658 15c0 da31 4cc0 9da2 9cbe 357c b9bf
00000010: c889 69be aac0 54bf 7451 30c0 c78e 063f
00000020: 82c2 4ebf ee91 81c0 ade0 13c0 498e 8dbf
00000030: 9b43 78c0 f65c d0bf 21ee e5bf 6c18 7b3d
00000040: e05d 24c0 7d4e 37bf e327 9cbf d9c1 15c0
00000050: 9a84 10c0 c94d 06bf 0e4f 05c0 67d1 483b
00000060: 7c23 98bf ff6a 71bf de13 09bf 7af6 00c0
00000070: 4e41 92bd d79a d1bf d28c 98bf 66a4 e0bf
00000080: 4c01 98bd af4f 1c3f c5b0 94bf 72ad 1bbf
00000090: afc9 cc3f d31a a0c0 66d6 c3bf 8ae8 e7bf
000000a0: 40ef cebf 2c11 a7be 3821 97bf d065 aebf
000000b0: c032 fcbf 7f0e 07c0 e97a 2dc0 3180 35c0
000000c0: 7aaa 52c0 d02d 49c0 df1e 2b3f 76dc 83c0
000000d0: c1a6 d1bf 8be5 81c0 efc6 c0bc 862b 6dbf
000000e0: 88e4 22c0 3b02 cebf dbf2 75c0 a185 debf
000000f0: 1b75 2b3f ab44 6abf 6eda edbe 839b 45bf

bn2.running_var f4 [64]
10.108195 4.8170924 7.544935 4.6291833 5.659993 3.5282702 6.7995253 4.230611
4.611091 1.5470754 3.6206155 2.2146275 7.777462 3.5380106 8.881255 4.233894
3.4529572 6.4260974 6.2380533 3.7023482 8.836534 7.395144 3.309844 6.5570364
5.422771 4.307207 6.8539333 9.168828 5.0617127 6.292735 4.5839386 2.9283016
6.9575944 7.336434 7.3268986 7.4235916 3.7599792 21.2267 6.450669 11.754749
6.2570815 3.0465887 4.4156485 6.241443 6.074508 5.509299 8.806635 2.5341976
3.166729 5.2121778 3.9777515 3.8574529 6.7082186 4.0464277 8.0377245 7.186267
3.6677976 4.735817 5.095554 9.342418 4.8796344 5.302558 5.2588744 3.8882158
00000000: 2bbb 2141 9f25 9a40 1c70 f140 4522 9440
00000010: aa1e b540 2ecf 6140 b695 d940 2a61 8740
00000020: 0f8e 9340 9106 c63f 2ab8 6740 75bc 0d40
00000030: f8e0 f840 c46e 6240 9f19 0e41 0f7c 8740
00000040: 40fd 5c40 97a2 cd40 229e c740 46f3 6c40
00000050: 7162 0d41 05a5 ec40 7cd4 5340 3ed3 d140
00000060: 5787 ad40 a4d4 8940 6c53 db40 85b3 1241
00000070: 8df9 a140 165e c940 a0af 9240 4b69 3b40
00000080: 9da4 de40 11c4 ea40 f475 ea40 108e ed40
00000090: 80a3 7040 48d0 a941 e16b ce40 7413 3c41
000000a0: 033a c840 4ffb 4240 fe4c 8d40 e7b9 c740
000000b0: 5f62 c240 2d4c b040 fae7 0c41 4b30 2240
000000c0: b0ab 4a40 29ca a640 7b93 7e40 82e0 7640
000000d0: baa9 d640 567c 8140 859a 0041 e6f5 e540
000000e0: 32bd 6a40 d08b 9740 c70e a340 8b7a 1541
000000f0: f725 9c40 8eae a940 b348 a840 87d8 7840

conv3.weight f4 [64, 64, 3, 3]
0.039980225 0.01737732 -0.007263293 0.086680114 0.1379658 0.12239213 -0.0014075474 0.030091776
-0.08323277 -0.053840622 -0.07115344 -0.09757195 -0.015770132 0.0641146 0.040400237 -0.0047936593
0.13939469 0.038679797 -0.06757724 0.029774176 0.07110596 0.020589266 0.074944444 -0.10215073
-0.0017397472 0.06789178 -0.06550062 -0.16286804 0.00342966 0.25824794 0.1273418 0.14204223
0.08410452 -0.03390413 -0.18403898 -0.1491265 0.079926334 0.027718881 -0.11906844 0.030100213
-0.10195664 0.20578103 -0.051455338 -0.14389537 -0.015750784 0.09251648 -0.13661858 -0.16725457
0.035249185 -0.1389817 0.05661889 0.005521534 0.004665925 -0.016751155 -0.10286474 -0.06702812
0.06469054 -0.015889486 0.1564729 0.072301246 0.1218745 0.11900542 -0.16715972 0.19246867
0.04173192 -0.021710915 0.111983635 -0.15578449 -0.008539925 -0.073448025 -0.069946155 -0.009814262
-0.10177757 -0.20904824 -0.17218621 0.038845714 0.10631921 0.06322119 0.12837803 0.11554785
0.065100454 0.05073587 -0.061114337 0.046816513 -0.030371774 -0.084482186 0.15198551 -0.115878776
-0.014448671 0.009029346 -0.1978097 -0.0064903595 0.12621328 -0.010306293 0.058133222 -0.052411705
0.012192673 -0.13810322 -0.18388988 -0.1141824 -0.08736908 -0.025735965 -0.0029367642 -0.06294679
0.18100278 -0.09341379 0.0094500575 0.04981122 -0.060368903 0.016107244 0.23210627 0.0440514
0.15011969 0.04974356 -0.004081315 -0.074477226 -0.14272693 -0.107628085 -0.037632514 0.16841939
-0.03705856 -0.06710132 0.038963735 -0.10227902 -0.023822282 -0.089693844 0.040901925 -0.012463326
0.00421282 -0.00556905 0.060141943 -0.12439635 0.02768929 -0.002326503 -0.10272713 0.1213921
-0.009131604 0.020479232 0.046954334 -0.14228046 0.1218849 0.045502763 0.03655054 0.012203086
0.032936666 0.12499975 0.094323374 -0.014763318 0.0012998752 -0.12468379 -0.11161974 -0.085802145
-0.057311464 0.10959657 -0.07094139 -0.13945253 -0.06920829 -0.08159627 0.0038086982 -0.07978266
-0.02087922 0.11089303 0.086353645 0.010495202 -0.043554768 0.038652893 -0.14259294 0.025606979
0.054434907 -0.061960384 -0.021394152 0.028962981 -0.07404258 -0.023859002 0.08217941 0.100053556
0.112097055 -0.108291514 0.0059390166 -0.05818589 0.078486964 0.004029142 -0.07272739 0.070009924
-0.014153312 -0.09097531 -0.13718086 -0.0044194744 -0.031024737 0.08670474 0.025727523 -0.031783503
-0.013715079 -0.10169999 -0.011493657 -0.095363796 -0.101066135 0.076681264 0.0017365775 -0.030816551
0.15681438 0.028866425 0.00276768 0.054337684 -0.078999646 -0.059562784 -0.10275705 0.011181136
-0.23289791 -0.19675678 -0.029626792 -0.09112154 -0.035010032 0.017997807 0.1277004 0.04256675
-0.142292 -0.087027915 0.20327762 -0.0133363465 0.075525604 -0.17314093 0.07542777 0.027800953
-0.22697994 -0.14789003 0.024519159 -0.10939606 -0.03627344 0.00029499788 0.123382434 0.012420565
-0.07967468 -0.11268971 0.07185262 -0.04832373 0.031161547 0.015828695 -0.107349 -0.089522645
0.12653688 -0.024679637 -0.12700778 -0.1095442 0.019591138 -0.05607571 -0.10710245 0.050667536
-0.039523214 0.16266769 -0.02632172 -0.09069305 -0.10467676 -0.21999747 -0.05070164 0.002645593
00000000: 4ec2 233d e25a 8e3c eb00 eebb 5885 b13d
00000010: e846 0d3e baa8 fa3d 747d b8ba 0783 f63c
00000020: f175 aabd fc87 5cbd e5b8 91bd cdd3 c7bd
00000030: 5d30 81bc 844e 833d b87a 253d 2114 9dbb
00000040: 7bbd 0e3e b56e 1e3d f065 8abd f9e8 f33c
00000050: 00a0 913d d2aa a83c 797c 993d 6734 d1bd
00000060: 3b08 e4ba d80a 8b3d 3025 86bd e1c6 26be
00000070: 26c4 603b 1339 843e e465 023e 8573 113e
00000080: fe3e ac3d 0fdf 0abd b774 3cbe 9eb4 18be
00000090: 6bb0 a33d b512 e33c 27da f3bd b994 f63c
000000a0: a5ce d0bd 43b8 523e d5c2 52bd 4f59 13be
000000b0: ca07 81bc 4879 bd3d bee5 0bbe c844 2bbe
000000c0: 7361 103d 3851 0ebe 36e9 673d fced b43b
000000d0: 9ee4 983b b839 89bc c0aa d2bd 0a46 89bd
000000e0: 797c 843d ab2a 82bc 6f3a 203e ad12 943d
000000f0: 5699 f93d 1db9 f33d eb2b 2bbe 8216 453e
00000100: 17ef 2a3d 17db b1bc ad57 e53d f885 1fbe
00000110: 0beb 0bbc eb6b 96bd ee3f 8fbd 00cc 20bc
00000120: c270 d0bd be10 56be 9551 30be af1c 1f3d
00000130: e3bd d93d 1c7a 813d 8875 033e 5aa4 ec3d
00000140: 6353 853d 6ad0 4f3d 0753 7abd acc2 3f3d
00000150: 3ace f8bc ff04 adbd 17a2 1b3e da51 edbd
00000160: 1eba 6cbc d2ef 133c a08e 4abe 15ad d4bb
00000170: 0e3e 013e badb 28bc 1a1d 6e3d a8ad 56bd
00000180: c7c3 473c ee6a 0dbe a14d 3cbe 76d8 e9bd
00000190: 8fee b2bd 3bd4 d2bc ba76 40bb 3fea 80bd
000001a0: cb58 393e bb4f bfbd 6ad4 1a3c da06 4c3d
000001b0: 6245 77bd 57f3 833c 44ad 6d3e 3e6f 343d
000001c0: fab8 193e e7bf 4b3d 8dbc 85bb 8487 98bd
000001d0: 0227 12be 1d6c dcbd 8d24 1abd 2276 2c3e
000001e0: b7ca 17bd 6b6c 89bd 7098 1f3d aa77 d1bd
000001f0: f226 c3bc 68b1 b7bd c788 273d fa32 4cbc
00000200: b20b 8a3b 947c b6bb 6657 763d 83c3 febd
00000210: a6d4 e23c 3e78 18bb 9a62 d2bd 6c9c f83d
00000220: b99c 15bc 10c4 a73c 3053 403d f8b1 11be
00000230: ca9e f93d 1b61 3a3d 05b6 153d 74ef 473c
00000240: 99e8 063d deff ff3d 9d2c c13d d8e1 71bc
00000250: 9360 aa3a 375a ffbd e498 e4bd 09b9 afbd
00000260: 6dbf 6abd 2b74 e03d b849 91bd a5cc 0ebe
00000270: 13bd 8dbd f21b a7bd 5a9b 793b 1765 a3bd
00000280: e60a abbc e31b e33d 2eda b03d 11f4 2b3c
00000290: 7c66 32bd 7f52 1e3d e203 12be bac5 d13c
000002a0: 23f7 5e3d 2cca 7dbd ca42 afbc c643 ed3c
000002b0: a3a3 97bd f473 c3bc ae4d a83d e1e8 cc3d
000002c0: 2493 e53d f1c7 ddbd 159c c23b 5454 6ebd
000002d0: c6bd a03d e506 843b 19f2 94bd 5d61 8f3d
000002e0: 4be3 67bc 4351 babd 2479 0cbe 3dd1 90bb
000002f0: 9727 febc 4192 b13d 87c2 d23c 6b2f 02bd
00000300: 36b5 60bc 1648 d0bd e44f 3cbc 184e c3bd
00000310: c3fb cebd 110b 9d3d df9d e33a fe72 fcbc
00000320: f393 203e 4879 ec3c f761 353b 3191 5e3d
00000330: 91ca a1bd 1bf8 73bd 4a72 d2bd 1531 373c
00000340: ca7c 6ebe 9c7a 49be e3b3 f2bc ee9d babd
00000350: ae66 0fbd 2370 933c e5c3 023e 795a 2e3d
00000360: feb4 11be b13b b2bd 0228 503e b180 5abc
00000370: 2bad 9a3d db4b 31be e079 9a3d d3be e33c
00000380: 6e6d 68be 7c70 17be 67dc c83c 0b0b e0bd
00000390: 7593 14bd f2a9 9a39 eeaf fc3d a07f 4b3c
000003a0: 7b2c a3bd ddc9 e6bd 7727 933d 1aef 45bd
000003b0: 8046 ff3c 2eab 813c cbd9 dbbd a657 b7bd
000003c0: e292 013e f32c cabc 540e 02be b658 e0bd
000003d0: 987d a03c a5af 65bd 8858 dbbd c388 4f3d
000003e0: 18e3 21bd 5c92 263e a6a0 d7bc 47bd b9bd
000003f0: c560 d6bd 0447 61be 86ac 4fbd af61 2d3b

conv3.bias f4 [64]
0.01589972 0.030325139 -0.042792782 -0.03158586 -0.025858112 0.03145534 0.013159964 -0.00043667085
-0.02249719 -0.03487553 -0.0063851224 0.01422594 -0.025978234 0.00060043036 0.0018827178 -0.029296476
0.017025156 -0.01722287 -0.032409918 0.03261219 0.014992449 0.0045299395 -0.0071197 -0.010235239
0.03754334 0.023902118 0.02290326 -0.03560594 -0.019086206 0.0035514624 0.025862897 0.016070606
0.01781866 0.0013026067 0.015445478 0.03981287 -0.012389414 0.009917916 0.017982453 0.018769007
0.00058047514 -0.0122437 0.028627092 0.035867948 0.034242716 -0.036772013 -0.021057798 -0.0032832543
0.0204044 0.02730533 0.035079166 -0.03503197 0.018783959 -0.019785829 -0.011836608 -0.025976239
0.029990325 0.028533973 -0.03634978 0.013111177 -0.00066813396 -0.026276829 -0.027266558 -0.03445456
00000000: 2140 823c 6d6c f83c 7c47 2fbd 2d60 01bd
00000010: 64d4 d3bc 51d7 003d e49c 573c f8f0 e4b9
00000020: 074c b8bc a5d9 0ebd 4a3a d1bb eb13 693c
00000030: 4ed0 d4bc 3366 1d3a 87c5 f63a 2aff efbc
00000040: 5778 8b3c fa16 8dbc 43c0 04bd 5c94 053d
00000050: e4a2 753c e36f 943b 5f4c e9bb b4b1 27bc
00000060: 0cc7 193d 60ce c33c 9e9f bb3c 89d7 11bd
00000070: ad5a 9cbc a7bf 683b 6dde d33c 81a6 833c
00000080: 70f8 913c 3abc aa3a 080f 7d3c d212 233d
00000090: f8fc 4abc c17e 223c f04f 933c 76c1 993c
000000a0: 072b 183a cd99 48bc 5d83 ea3c 45ea 123d
000000b0: 1742 0c3d 409e 16bd 6781 acbc de2b 57bb
000000c0: 2127 a73c 6daf df3c 2caf 0f3d af7d 0fbd
000000d0: d1e0 993c e415 a2bc 55ee 41bc 1fcc d4bc
000000e0: 45ae f53c 14c0 e93c 82e3 14bd 43d0 563c
000000f0: b625 2fba 8142 d7bc 1e5e dfbc 3a20 0dbd

bn3.weight f4 [64]
1.0001607 0.90972066 0.9356509 1.0813394 0.9376756 0.9182127 1.1303576 0.9873934
1.1748973 1.0628273 0.8207094 0.75031316 0.8891855 1.0112989 1.0126424 0.9936506
1.0049022 1.1823709 1.0595778 0.92668533 0.9528119 0.8022068 0.93531924 0.9931268
1.0226353 1.0149429 1.0477222 1.1142175 0.95623994 0.91029036 0.9827332 1.0120507
0.98121595 0.87488395 1.104145 1.1365937 1.0302085 1.0017813 1.170241 1.052113
1.050515 0.9213875 0.9145983 1.0154272 0.8120078 1.0149127 1.2048643 0.8795992
0.9221631 0.9312001 0.93668556 0.8583895 0.9087672 0.7903466 0.96946234 0.99685216
1.0156827 0.9620578 1.0674925 1.1239867 1.1974142 1.1691804 1.1128844 0.80170983
00000000: 4405 803f 74e3 683f d186 6f3f 5469 8a3f
00000010: 820b 703f fd0f 6b3f 8faf 903f d0c5 7c3f
00000020: 0963 963f ba0a 883f 031a 523f 8614 403f
00000030: a9a1 633f 3e72 813f 449e 813f e35f 7e3f
00000040: a3a0 803f ee57 973f 3fa0 873f 403b 6d3f
00000050: 7beb 733f 6d5d 4d3f 1571 6f3f 8f3d 7e3f
00000060: b7e5 823f a6e9 813f c31b 863f ae9e 8e3f
00000070: 24cc 743f ca08 693f 6794 7b3f e18a 813f
00000080: f830 7b3f 65f8 5f3f a054 8d3f e77b 913f
00000090: dfdd 833f 5f3a 803f 75ca 953f a4ab 863f
000000a0: 4777 863f 0de0 6b3f 1d23 6a3f 85f9 813f
000000b0: bedf 4f3f a9e8 813f fe38 9a3f 6a2d 613f
000000c0: e212 6c3f 2163 6e3f a0ca 6f3f 6abf 5b3f
000000d0: f8a4 683f 2854 4a3f af2e 783f b431 7f3f
000000e0: e401 823f 6c49 763f 98a3 883f ccde 8f3f
000000f0: de44 993f b4a7 953f ff72 8e3f db3c 4d3f

bn3.bias f4 [64]
-0.117902 -0.19804569 -0.2625762 -0.20954438 -0.1724213 -0.143678 -0.2442769 -0.24266446
-0.2606241 -0.22833414 -0.20308091 -0.019692693 -0.3593793 0.02529078 -0.23688313 -0.26541695
-0.17442358 -0.14726244 -0.2627628 -0.22425218 -0.30654415 -0.12568659 -0.011185803 -0.21558076
-0.3593327 -0.2566119 -0.08529336 -0.12804754 -0.19522095 -0.21800226 -0.23601972 -0.2624124
-0.3753809 -0.24426137 -0.2190853 0.029848484 -0.23122175 -0.08382267 -0.4710536 -0.32725447
-0.13967669 -0.046282828 -0.28211734 -0.33732024 -0.09061309 -0.31236252 -0.11781174 -0.272391
-0.155353 -0.16651204 -0.16454622 -0.29450873 -0.43831506 -0.14862765 -0.069482915 -0.20061247
-0.15590218 -0.21626034 -0.26651755 -0.25714824 -0.020631442 -0.13847616 -0.21046685 -0.2668521
00000000: 9b76 f1bd 7dcc 4abe 6370 86be cd92 56be
00000010: 368f 30be 5320 13be b923 7abe 087d 78be
00000020: 8670 85be 6dd0 69be 71f4 4fbe 9252 a1bc
00000030: 9000 b8be 9c2e cf3c 7e91 72be bbe4 87be
00000040: 189c 32be f7cb 16be d988 86be 5da2 65be
00000050: 5bf3 9cbe fcb3 00be a944 37bc 34c1 5cbe
00000060: 75fa b7be a362 83be 49ae aebd e51e 03be
00000070: 00e8 47be fc3b 5fbe 27af 71be eb5a 86be
00000080: ed31 c0be a71f 7abe e657 60be cf84 f43c
00000090: 65c5 6cbe 38ab abbd f02d f1be e68d a7be
000000a0: 6807 0fbe 1093 3dbd af71 90be 3db5 acbe
000000b0: 5b93 b9bd fbed 9fbe 4847 f1bd d576 8bbe
000000c0: db14 1fbe 2282 2abe ce7e 28be d9c9 96be
000000d0: d56a e0be d931 18be 0f4d 8ebd 5b6d 4dbe
000000e0: d2a4 1fbe 5a73 5dbe fd74 88be efa8 83be
000000f0: 4503 a9bc b2cc 0dbe 9f84 57be d7a0 88be

bn3.running_mean f4 [64]
-2.6227872 -3.679194 -1.9911101 -0.3086682 -2.9922206 -1.118613 -1.132232 -2.3016858
-1.5106419 -3.1424093 3.95963 -0.20479003 -2.4607928 -0.23474017 -3.5152469 -1.2838916
4.084123 -1.3904227 -3.0768905 -2.9495869 0.066730335 -0.7843806 0.53449017 -1.8522145
-1.5430677 -0.8072432 -7.486549 -1.9379994 -1.5315547 -4.0885906 -3.2096972 -5.8284616
-1.6465096 -1.937054 -6.6514626 -5.136214 0.5298789 -5.048621 -4.838621 -1.7599626
-1.3048276 0.11849246 -3.0629184 -3.664061 -1.3697324 -1.3078411 -2.8701308 0.14260076
-3.9838848 0.8107525 -2.5366762 -1.586545 1.9592375 1.4540255 -4.4749117 -4.6907806
-0.8516419 -3.466391 -2.781161 -3.758321 -3.1717281 2.1801484 -4.5620327 1.393628
00000000: bfdb 27c0 ea77 6bc0 b2dc febf c209 9ebe
00000010: 8b80 3fc0 b62e 8fbf faec 90bf d24e 13c0
00000020: b75c c1bf 3c1d 49c0 946a 7d40 7ab4 51be
00000030: a17d 1dc0 ba5f 70be cef9 60c0 8f56 a4bf
00000040: 23b1 8240 5ff9 b1bf c6eb 44c0 08c6 3cc0
00000050: eaa9 883d 2bcd 48bf 59d4 083f 5d15 edbf
00000060: 3e83 c5bf 7ea7 4ebf cf91 efc0 5d10 f8bf
00000070: fc09 c4bf bcd5 82c0 ae6b 4dc0 c282 bac0
00000080: d4c0 d2bf 63f1 f7bf c8d8 d4c0 dd5b a4c0
00000090: 25a6 073f 4e8e a1c0 fcd5 9ac0 7446 e1bf
000000a0: 9704 a7bf 2dac f23d db06 44c0 fa7f 6ac0
000000b0: 6453 afbf 5667 a7bf 39b0 37c0 ef05 123e
000000c0: f8f7 7ec0 7a8d 4f3f e758 22c0 e813 cbbf
000000d0: 4bc8 fa3f 821d ba3f 7a32 8fc0 e01a 96c0
000000e0: 3405 5abf 5ad9 5dc0 8bfe 31c0 5588 70c0
000000f0: 98fd 4ac0 8d87 0b40 2cfc 91c0 6762 b23f

bn3.running_var f4 [64]
13.132765 14.786375 16.680716 10.710334 10.146898 13.411898 17.473282 12.609286
16.264088 13.799772 13.64054 10.058471 10.917846 11.326964 16.55865 11.788749
16.658443 9.903684 9.275767 15.616128 13.34939 9.568858 11.817288 15.270977
9.529726 14.357826 33.368473 10.318526 15.722532 22.764116 18.697508 27.355955
11.715753 12.798626 26.653885 24.763508 15.274901 16.658245 17.069965 14.451397
10.62588 10.7858925 14.941433 16.063097 8.155379 7.730664 20.013903 9.211132
34.44571 18.860294 12.908672 12.078009 13.641673 12.048385 19.815058 26.889626
17.521015 25.12105 11.705858 24.321568 23.614136 13.37527 18.137848 10.690251
00000000: ce1f 5241 fe94 6c41 1b72 8541 875d 2b41
00000010: b259 2241 2297 5641 48c9 8b41 a3bf 4941
00000020: da1c 8241 decb 5c41 a73f 5a41 7fef 2041
00000030: 7faf 2e41 3f3b 3541 1d78 8441 b79e 3c41
00000040: 7e44 8541 7d75 1e41 8b69 1441 a9db 7941
00000050: 1a97 5541 0b1a 1941 9d13 3d41 ec55 7441
00000060: c279 1841 a8b9 6541 5179 0542 af18 2541
00000070: 7e8f 7b41 e91c b641 7f94 9541 ffd8 da41
00000080: b973 3b41 2cc7 4c41 283b d541 aa1b c641
00000090: ff65 7441 1644 8541 4a8f 8841 ec38 6741
000000a0: 9b03 2a41 0493 2c41 1c10 6f41 3981 8041
000000b0: 6f7c 0241 9961 f740 791c a041 cc60 1341
000000c0: 68c8 0942 e2e1 9641 ec89 4e41 863f 4141
000000d0: 4b44 5a41 2fc6 4041 3d85 9e41 f41d d741
000000e0: 0a2b 8c41 e9f7 c841 324b 3b41 9292 c241
000000f0: c0e9 bc41 1b01 5641 501a 9141 450b 2b41

fc1.weight f4 [128, 576]
-0.15599114 -0.20844525 0.06879021 -0.06262911 -0.22678253 -0.012738189 -0.001411158 -0.055500496
-0.04580189 -0.039185993 -0.08036202 -0.09874214 -0.07109233 -0.023696452 -0.09316561 -0.07108293
-0.1689463 -0.054144148 0.040129475 0.013186024 0.08096947 -0.06889266 -0.029655952 -0.008086288
-0.1196899 -0.009451341 -0.019998819 -0.21370646 0.19639717 0.0055759973 -0.07049927 -0.022184039
-0.17914122 0.106668375 0.1000733 0.14015946 0.05053152 -0.10452444 -0.017498348 -0.041945558
-0.15044096 -0.11053523 0.046338618 0.001754927 0.056971002 -0.13508722 -0.15568072 0.010831185
0.01865162 0.03683788 0.12055151 0.06362691 -0.007951361 0.03093289 0.02870522 -0.02026686
-0.07980194 0.037668854 0.07199352 -0.058099985 -0.079296224 0.08016894 0.005790507 0.10862034
0.081389725 0.06962835 0.05857254 0.03344704 0.04886285 -0.047258265 -0.0051660454 0.0002069115
0.073674016 0.09422511 -0.00022635442 0.06903101 -0.007249557 -0.062443368 0.004723338 -0.18043695
0.07515148 0.14791605 0.09084082 0.124129936 0.045788907 -0.11750065 -0.07904892 -0.035825904
0.06743882 0.15960218 0.011455545 0.08086552 -0.0837992 0.08371917 0.058378384 0.05020907
0.043449957 -0.03569125 0.017064266 0.0026886046 -0.095774695 -0.011045769 0.025110597 -0.021068746
0.12827621 -0.020857437 -0.04568474 -0.122050725 0.09344022 0.083401635 0.15400246 0.07271764
-0.013619308 -0.21865289 0.10651243 0.0054423455 0.10165383 0.11257519 0.03975576 -0.17791986
-0.04631755 -0.21355054 -0.059113514 0.0768856 0.040323056 0.10802027 -0.029980162 0.12142219
0.05357006 -0.15399975 -0.06437382 -0.09666073 -0.102635935 -0.14156684 -0.0094614 0.07449524
0.04592909 -0.19408529 -0.037030376 -0.11355273 0.017537853 -0.014310433 -0.0059561045 -0.06606895
-0.10861166 -0.027727809 -0.04853372 0.38745767 0.06468961 0.042778306 0.12045739 -0.11346914
0.12761824 -0.21140149 0.14787804 -0.00043672672 0.039702006 -0.14617646 -0.023209507 -0.07042519
0.1220577 -0.006235555 -0.21810186 -0.0884383 0.13017642 0.003345915 -0.027396437 0.114995204
0.018752754 0.0982711 0.029375445 0.10348515 -0.08507242 -0.032619573 -0.04094803 -0.067501746
0.043128844 -0.029790724 -0.12830715 -0.015896954 -0.04298378 -0.14559346 -0.14511874 0.15623425
-0.08053026 -0.026598487 0.022383023 0.03388715 0.08037365 -0.01914939 -0.06967744 -0.018602986
0.15731584 0.21285695 -0.0545303 0.008895791 0.12910219 0.1314002 0.12600628 -0.04844656
0.09537493 -0.069456935 -0.0432947 0.031569608 -0.18917237 -0.04698792 0.027115848 -0.06786399
-0.28322378 0.00897623 -0.047174904 0.033704255 0.10490627 0.0890227 0.021136945 -0.103483394
-0.04772518 -0.12436093 -0.0050530843 0.053402882 -0.057557482 0.041585106 -0.026737032 0.17711899
-0.0075253253 0.07735116 -0.057486825 0.045305327 0.06480907 0.21889399 0.018951125 0.059611253
-0.087886624 -0.12925535 -0.01776043 0.011472205 0.11440754 0.0022398494 -0.21795699 -0.16699868
-0.11479579 -0.050506912 0.0113322865 0.042082764 0.13081142 0.07597293 0.012046008 0.19068907
-0.05961177 -0.19425221 -0.26450834 0.15176861 0.10251583 0.19655167 0.10761816 -0.088751145
00000000: 24bc 1fbe ac72 55be e2e1 8c3d b143 80bd
00000010: ae39 68be d6b3 50bc 9bf6 b8ba 7d54 63bd
00000020: c39a 3bbd 7e81 20bd d894 a4bd 5239 cabd
00000030: db98 91bd 101f c2bc 9dcd bebd ed93 91bd
00000040: 4200 2dbe 41c6 5dbd ce5e 243d 310a 583c
00000050: 52d3 a53d 9817 8dbd 0af1 f2bc 5a7c 04bc
00000060: fa1f f5bd ccd9 1abc 90d4 a3bc ded5 5abe
00000070: 571c 493e dbb6 b63b ec61 90bd 4dbb b5bc
00000080: cc70 37be f374 da3d 3bf3 cc3d f685 0f3e
00000090: 24fa 4e3d e910 d6bd b258 8fbc 1bcf 2bbd
000000a0: 320d 1abe 4b60 e2bd 90cd 3d3d 9405 e63a
000000b0: 6d5a 693d 4e54 0abe c46a 1fbe 4875 313c
000000c0: 48cb 983c 51e3 163d b6e3 f63d d34e 823d
000000d0: 6d46 02bc f966 fd3c 3627 eb3c b006 a6bc
000000e0: 336f a3bd a84a 1a3d 5771 933d 40fa 6dbd
000000f0: 0f66 a2bd 9d2f a43d 4bbe bd3b 5774 de3d
00000100: a8af a63d 4f99 8e3d c2e9 6f3d c3ff 083d
00000110: 6924 483d e291 41bd ee47 a9bb 62f6 5839
00000120: 67e2 963d 18f9 c03d 8d59 6db9 2160 8d3d
00000130: b18d edbb 9ec4 7fbd 3bc6 9a3b 77c4 38be
00000140: 05e9 993d 4e77 173e c00a ba3d d637 fe3d
00000150: 268d 3b3d 2ea4 f0bd 66e4 a1bd 2fbe 12bd
00000160: 5d1d 8a3d c16e 233e 0ab0 3b3c d29c a53d
00000170: ea9e abbd f574 ab3d 2c1e 6f3d 07a8 4d3d
00000180: 95f8 313d fd30 12bd 5cca 8b3c 4d33 303b
00000190: 8625 c4bd 50f9 34bc bdb4 cd3c 5d98 acbc
000001a0: d75a 033e 37dd aabc ec1f 3bbd bbf5 f9bd
000001b0: 965d bf3d 7ace aa3d d2b2 1d3e fcec 943d
000001c0: 8523 5fbc 8be6 5fbe 3023 da3d b455 b23b
000001d0: e22f d03d d28d e63d f0d6 223d a030 36be
000001e0: 79b7 3dbd feac 5abe 0321 72bd 3376 9d3d
000001f0: ca29 253d bb39 dd3d f598 f5bc 32ac f83d
00000200: 476c 5b3d 1cb2 1dbe 6cd6 83bd 10f6 c5bd
00000210: ca32 d2bd e6f6 10be fd03 1bbc f690 983d
00000220: 2420 3c3d 4bbe 46be 2aad 17bd 558e e8bd
00000230: 8bab 8f3c 4e76 6abc 6d2b c3bb 284f 87bd
00000240: ca6f debd 6e25 e3bc 4bcb 46bd da60 c63e
00000250: fc7b 843d 4e38 2f3d 5db2 f63d 8262 e8bd
00000260: 5bae 023e a279 58be 576d 173e 78f8 e4b9
00000270: 929e 223d 48af 15be dd21 bebc 153b 90bd
00000280: 63f9 f93d a053 ccbb 1856 5fbe 241f b5bd
00000290: f84c 053e 2447 5b3b 7e6e e0bc 9b82 eb3d
000002a0: 609f 993c 5c42 c93d c6a4 f03c 06f0 d33d
000002b0: 733a aebd 1a9c 05bd 1fb9 27bd 5b3e 8abd
000002c0: dfa7 303d ad0b f4bc f362 03be 543a 82bc
000002d0: c30f 30bd 7416 15be 029a 14be dffb 1f3e
000002e0: 0ded a4bd 12e5 d9bc 9a5c b73c 41cd 0a3d
000002f0: f19a a43d 2edf 9cbc 0cb3 8ebd 4a65 98bc
00000300: 6717 213e 2cf7 593e 2a5b 5fbd a7bf 113c
00000310: 5d33 043e c68d 063e ca07 013e e66f 46bd
00000320: ee53 c33d 703f 8ebd c955 31bd 224f 013d
00000330: 67b6 41be 6876 40bd 0e22 de3c 47fc 8abd
00000340: b502 91be 0a11 133c 793a 41bd 790d 0a3d
00000350: 19d9 d63d 8951 b63d 6327 ad3c 1aef d3bd
00000360: 7a7b 43bd f1b0 febd 5894 a5bb fbbc 5a3d
00000370: 65c1 6bbd 2555 2a3d 9f07 dbbc ae5e 353e
00000380: 0197 f6bb 496a 9e3d 4e77 6bbd 1492 393d
00000390: 9eba 843d bf25 603e 643f 9b3c ee2a 743d
000003a0: e7fd b3bd 845b 04be 527e 91bc eaf5 3b3c
000003b0: 804e ea3d 70ca 123b 1e30 5fbe b401 2bbe
000003c0: 0e1a ebbd 56e0 4ebd 0eab 393c fa5e 2c3d
000003d0: 6ef3 053e b297 9b3d 9f5c 453c ff43 433e
000003e0: 792b 74bd 0dea 46be a36d 87be 3b69 1b3e
000003f0: d2f3 d13d d744 493e e966 dc3d 29c3 b5bd

fc1.bias f4 [128]
0.012430193 0.03561411 0.0047754636 -0.022249002 0.01679115 0.0037352599 -0.040212955 0.030313062
0.0158313 -0.040416338 0.038271785 -0.010902619 -0.04176114 -0.008903322 0.012666132 0.027038867
0.02639346 0.0016191952 0.003898908 -0.01036453 -0.004628881 0.023903666 0.027206264 -0.035219546
-0.025425762 -0.0035730621 0.014144884 -0.02820392 -0.034208924 -0.016259255 -0.025193276 0.036580898
0.013069855 0.027978865 0.00962591 0.028350702 -0.025319554 0.028669419 -0.039977085 -0.030856973
-0.025879743 -0.029133335 -0.0082527995 0.0031820629 0.020908076 -0.0043625287 0.03643932 -0.032324817
-0.004844069 0.00557088 -0.014725674 -0.019967053 -0.011039051 0.02064598 0.018335592 -0.008882635
-0.026644276 -0.004688533 0.039945118 0.014653747 0.0061802 0.008738586 -0.0074157882 0.024005651
-0.024265122 0.018324893 -0.023089346 0.0313954 0.030657232 0.03641606 -0.015316419 0.011754325
0.021132767 -0.020395283 -0.016661791 -0.027980784 0.015286093 0.015484956 -0.037454985 0.018268554
0.008957457 0.0053761443 -0.0011560329 -0.037476398 -0.026591167 0.02910676 -0.005943548 -0.010419911
0.02908134 0.020989748 -0.0068081603 0.0050434507 -0.026628174 -0.0049306056 0.03288511 -0.002839362
0.018313725 -0.036608253 -0.013635119 0.036478776 0.029604407 -0.0003023607 0.037190184 -0.019061884
0.024872528 0.0047866665 -0.00735737 0.038211554 0.009844253 0.014691347 0.011189726 -0.030900223
0.037855264 -0.017574387 0.03224645 -0.028878078 -0.02539295 0.02640032 0.028888086 -0.020414963
-0.03970085 0.0023751128 -0.037890907 0.0218506 -0.0005266552 -0.0009636706 -0.010360077 0.0028217433
00000000: 02a8 4b3c 1ae0 113d 7e7b 9c3b 8a43 b6bc
00000010: 988d 893c 43cb 743b 57b6 24bd 1953 f83c
00000020: a4b0 813c 9a8b 25bd e0c2 1c3d e6a0 32bc
00000030: bb0d 2bbd 3ddf 11bc 9c85 4f3c 9d80 dd3c
00000040: 1937 d83c 2d3b d43a d284 7f3b fdcf 29bc
00000050: dead 97bb 9fd1 c33c acdf de3c 5f42 10bd
00000060: b049 d0bc 092a 6abb f2bf 673c e80b e7bc
00000070: a81e 0cbd 2132 85bc 2162 cebc dad5 153d
00000080: f222 563c ef33 e53c feb5 1d3c bb3f e83c
00000090: f46a cfbc 21dc ea3c 03bf 23bd c3c7 fcbc
000000a0: c101 d4bc 08a9 eebc c036 07bc 288a 503b
000000b0: 6a47 ab3c 8bf3 8ebb 6541 153d 0767 04bd
000000c0: ffba 9ebb ee8b b63b f443 71bc f291 a3bc
000000d0: 23dd 34bc c221 a93c 8634 963c 7988 11bc
000000e0: 1945 dabc 44a2 99bb 7e9d 233d 4516 703c
000000f0: 4683 ca3b 492c 0f3c 2400 f3bb 80a7 c43c
00000100: a6c7 c6bc 161e 963c de25 bdbc 7798 003d
00000110: e024 fb3c 0229 153d b8f1 7abc 3695 403c
00000120: a01e ad3c 0214 a7bc 4f7e 88bc f537 e5bc
00000130: 8572 7a3c 9db4 7d3c 666a 19bd efa7 953c
00000140: 4cc2 123c 5e2a b03b 0786 97ba da80 19bd
00000150: b8d5 d9bc 4d71 ee3c 18c2 c2bb 46b8 2abc
00000160: fe3b ee3c b1f2 ab3c fd16 dfbb 8843 a53b
00000170: 5423 dabc eb90 a1bb 89b2 063d 9714 3abb
00000180: aa06 963c 89f2 15bd d665 5fbc c56a 153d
00000190: f184 f23c 2b86 9eb9 bc54 183d ab27 9cbc
000001a0: 79c1 cb3c 78d9 9c3b 1816 f1bb b883 1c3d
000001b0: ca49 213c fab3 703c 1d55 373c 7722 fdbc
000001c0: 1f0e 1b3d 29f8 8fbc db14 043d b891 ecbc
000001d0: e004 d0bc 7c45 d83c b5a6 ec3c 483d a7bc
000001e0: 5c9d 22bd c8a7 1b3b 7f33 1bbd 0800 b33c
000001f0: 3b0f 0aba d79e 7cba 50bd 29bc ffec 383b

bn4.weight f4 [128]
1.3632339 1.4401822 1.1806383 1.2226399 1.3257339 1.2948486 1.3699924 1.4936329
1.3536849 1.1447533 1.2765453 1.2982213 1.2352177 1.3087023 1.4999634 1.2664661
1.1932764 1.3932459 1.4439667 1.4716746 1.2971164 1.4467033 1.3919648 1.3126407
1.242482 1.3912508 1.3121372 1.2801095 1.3800287 1.3836349 1.2999761 1.2772152
1.2531142 1.3413371 1.4348141 1.1910752 1.3528146 1.4429566 1.4001166 1.4592023
1.3361175 1.3738288 1.1898612 1.4752222 1.247294 1.2126603 1.4083 1.3907769
1.301428 1.3588073 1.3300829 1.3759888 1.2723908 1.2915621 1.2436258 1.4014505
1.3753134 1.2639264 1.2795674 1.4893247 1.2598977 1.2834402 1.2390423 1.410753
1.3747965 1.2036476 1.4096489 1.5401803 1.3429062 1.3759489 1.2605729 1.3001713
1.317672 1.6011517 1.4310262 1.3495798 1.4202194 1.2685763 1.3991765 1.2692243
1.3227538 1.2451358 1.2702882 1.3460797 1.287008 1.3344473 1.3497066 1.3530282
1.4248012 1.1874732 1.297732 1.4200509 1.3724746 1.4714029 1.3569201 1.2834326
1.352705 1.3271602 1.3883561 1.368683 1.2967283 1.2898958 1.3306805 1.4885665
1.266677 1.282757 1.293123 1.3766198 1.2858299 1.4263152 1.2955459 1.3652767
1.3152893 1.3613222 1.203066 1.3760469 1.39498 1.42289 1.3332909 1.5225223
1.2614623 1.3263502 1.3368772 1.289918 1.312082 1.2728472 1.497039 1.4166671
00000000: 737e ae3f e457 b83f 281f 973f 777f 9c3f
00000010: a6b1 a93f 99bd a53f e95b af3f 5d2f bf3f
00000020: 8c45 ad3f 4787 923f d665 a33f 1e2c a63f
00000030: 9d1b 9e3f 8f83 a73f cdfe bf3f 901b a23f
00000040: 48bd 983f e255 b23f e7d3 b83f d55f bc3f
00000050: e907 a63f 932d b93f e72b b23f 9c04 a83f
00000060: a609 9f3f 8214 b23f 1df4 a73f a1da a33f
00000070: c8a4 b03f f31a b13f 9e65 a63f ca7b a33f
00000080: 0c66 a03f efb0 ab3f fda7 b73f 2775 983f
00000090: 0729 ad3f cdb2 b83f 0537 b33f 24c7 ba3f
000000a0: e605 ab3f 9fd9 af3f 5f4d 983f 15d4 bc3f
000000b0: 54a7 9f3f 7438 9b3f 2d43 b43f fa04 b23f
000000c0: 3195 a63f 66ed ad3f 2840 aa3f 6720 b03f
000000d0: b4dd a23f e851 a53f 212f 9f3f bb62 b33f
000000e0: 450a b03f 57c8 a13f ddc8 a33f 31a2 be3f
000000f0: 5444 a13f c547 a43f f098 9e3f 8e93 b43f
00000100: 55f9 af3f 2011 9a3f 606f b43f a124 c53f
00000110: 5ae4 ab3f 181f b03f 745a a13f 036c a63f
00000120: 7aa9 a83f 8af2 cc3f de2b b73f 08bf ac3f
00000130: c0c9 b53f b560 a23f 3718 b33f f175 a23f
00000140: ff4f a93f 9c60 9f3f ce98 a23f 574c ac3f
00000150: aebc a43f 2bcf aa3f 30c3 ac3f 0730 ad3f
00000160: e35f b63f 1fff 973f 151c a63f 3ac4 b53f
00000170: 3fad af3f ee56 bc3f 8faf ad3f 8547 a43f
00000180: 7025 ad3f 63e0 a93f a7b5 b13f 0131 af3f
00000190: 31fb a53f 4e1b a53f bd53 aa3f 5989 be3f
000001a0: 7922 a23f 6231 a43f 0e85 a53f 1435 b03f
000001b0: 1396 a43f 7f91 b63f 73d4 a53f 63c1 ae3f
000001c0: 665b a83f ce3f ae3f 11fe 993f 4e22 b03f
000001d0: b48e b23f 4221 b63f 47a9 aa3f 03e2 c23f
000001e0: 9977 a13f d8c5 a93f cb1e ab3f 081c a53f
000001f0: 4ef2 a73f a8ec a23f f99e bf3f 5955 b53f
