backup/rotate+gan+10samples.pth (torch, 538038 bytes, 26 tensors)

conv1.weight f4 [32, 1, 3, 3]
0	0xbe990afc	-0.29891193
1	0xbe528018	-0.20556676
2	0x3db6b6a1	0.089215524
3	0xbe51ad40	-0.20476246
4	0xbd42f28d	-0.047594596
5	0x3eb74ca8	0.35800672
6	0x3e45ba3c	0.19309324
7	0x3ecf5dd2	0.40501267
8	0xbeb0c81e	-0.34527677
9	0x3d4394a6	0.047749184
10	0xbd84f303	-0.06491663
11	0x3e868c03	0.26278695
12	0x3e70d084	0.23517042
13	0xbed6a84a	-0.4192527
14	0xbd2704f6	-0.040776215
15	0xbd8a9808	-0.06767279
16	0x3de143f1	0.10999287
17	0x3d07e1d2	0.033174343
18	0xbe3f5d79	-0.18688
19	0x3e4294b0	0.19002032
20	0xbe8e2bed	-0.27767888
21	0x3e8cf602	0.2753144
22	0x3e292ce3	0.16521029
23	0xbd26d56b	-0.040730875
24	0xbecdca12	-0.4019323
25	0x3d0ae74a	0.03391198
26	0xbbc5345e	-0.0060182055
27	0xbd2bf6d0	-0.041983426
28	0xbeb05491	-0.3443952
29	0x3ea1dcb7	0.31613705
30	0xbebe803d	-0.37207213
31	0x3e3c18e7	0.18368874
32	0x3d93b54c	0.07212314
33	0xbed7d255	-0.42152658
34	0xbdc0b38a	-0.09409244
35	0xbe5e272c	-0.2169463
36	0x3e8931fa	0.26795942
37	0xbea68a24	-0.32527268
38	0x3d2c3cec	0.042050287
39	0x3b3977b4	0.0028300108
40	0xbebe5cd5	-0.371802
41	0x3ea8003c	0.3281268
42	0xbb079d1b	-0.0020693007
43	0xbd3d599c	-0.046228036
44	0xbe4266e0	-0.18984556
45	0xb9d39db1	-0.00040362545
46	0xbefbd40a	-0.4918521
47	0x3e21f04d	0.15814324
48	0x3c9286f5	0.017886618
49	0xbc0425bc	-0.008065637
50	0xbdd309a2	-0.10304572
51	0x3e7de73e	0.24795243
52	0x3dc57725	0.09641866
53	0x3e91fe91	0.2851453
54	0x3d83289b	0.06404229
55	0x3e2b353f	0.1671953
56	0xbeabe1ee	-0.33570808
57	0xbda1dd51	-0.07903541
58	0xbe8e4f97	-0.27795097
59	0xbe54c0b7	-0.2077664
60	0x3dc68fb3	0.09695377
61	0xbe8102f0	-0.25197554
62	0x3e9eb4ec	0.30997407
63	0xbdf651f2	-0.120273486
64	0xbea15d4f	-0.315165
65	0xbe883b05	-0.26607528
66	0x3e1d1f64	0.15344006
67	0xbba3f5e3	-0.005003677
68	0x3ce40de1	0.02783865
69	0x3e23d60d	0.15999623
70	0x3e6869ec	0.22696656
71	0x3e0f7b67	0.14011918
72	0x3e2e12af	0.16999315
73	0x3e5052fc	0.20344156
74	0xbe137aae	-0.14402267
75	0x3e940907	0.28913137
76	0xbe8cc8eb	-0.27497038
77	0xbd8f024b	-0.06982859
78	0xbeba77d7	-0.36419556
79	0xbeaddd6d	-0.33957997
80	0x3c48d0d7	0.012256823
81	0xbec6a910	-0.3880086
82	0x3e591677	0.21199976
83	0xbe881549	-0.2657874
84	0xbee6b1ce	-0.4505753
85	0x3d712016	0.05886849
86	0x3db14ecb	0.08657607
87	0xbea3bdef	-0.31980845
88	0xbb6a51b7	-0.0035754272
89	0x3e7a134f	0.24421428
90	0x3dbfd9bc	0.093677014
91	0x3d6ae2c4	0.057345167
92	0x3e6908cd	0.22757263
93	0x3dbf2927	0.09334021
94	0x3e25fc56	0.1620954
95	0x3d1fe1bc	0.039033636
96	0xbeb0c7b3	-0.34527358
97	0xbe8a2405	-0.26980606
98	0xbdc30731	-0.09522856
99	0xbdd8cbe5	-0.10585765
100	0x3e8b8601	0.27250674
101	0x3e9d652d	0.30741253
102	0xbe48948d	-0.19587918
103	0xbe3ebab5	-0.1862591
104	0x3bff3866	0.0077887056
105	0xbdcc81a3	-0.09985664
106	0xbe6b61fd	-0.22986598
107	0xbd83135f	-0.06400179
108	0xbeb5ffb9	-0.35546663
109	0x3eb41621	0.35173133
110	0xbe3f9f5b	-0.18713133
111	0x3df38436	0.118904516
112	0x3e176c74	0.14787465
113	0xbd87d77d	-0.06632898
114	0xbe0c3ae8	-0.13694346
115	0xb9d47887	-0.0004052559
116	0xbe7caf51	-0.24676253
117	0xbea714b6	-0.3263299
118	0xbe8e92be	-0.2784633
119	0xbe116408	-0.14198315
120	0xbe144468	-0.1447922
121	0x3e22f7e5	0.15914877
122	0x3e2a60e3	0.16638522
123	0xbdae7cf7	-0.08519929
124	0x3e0aa9fb	0.13541405
125	0x3df87c2e	0.121330604
126	0xbea1a756	-0.3157298
127	0x3e455e5a	0.19274274
128	0x3da35adc	0.079763144
129	0xbe7dcebc	-0.24785894
130	0xbe0cc460	-0.13746786
131	0xbea09683	-0.3136483
132	0x3e37d03b	0.17950527
133	0xbdb6decc	-0.08929214
134	0x3da9cae7	0.08290654
135	0x3dccd778	0.10002035
136	0x3e27ed1c	0.16399044
137	0x3dfbc4ce	0.12293397
138	0xbe73fea0	-0.238276
139	0xbd4abd75	-0.049497087
140	0x3eb2a861	0.34894088
141	0xbebeeb87	-0.37289068
142	0xbe21b2b5	-0.15790828
143	0x3e3b54cc	0.18294066
144	0xbe70e3ea	-0.23524442
145	0xbe9ee7f3	-0.31036338
146	0xbcd7dd10	-0.026350528
147	0xbe9eb84f	-0.3099999
148	0x3dd24549	0.10267121
149	0x3c63e645	0.013909881
150	0xbe85b5a6	-0.2611515
151	0xbda44c70	-0.08022392
152	0x3e8854ad	0.26627102
153	0xbe6edc4b	-0.23326223
154	0xbec39b1c	-0.38204277
155	0xbdc18faa	-0.0945123
156	0x3db49572	0.08817567
157	0x3d6e40f8	0.058167428
158	0xbe60dd31	-0.21959378
159	0xbccbaaba	-0.024861682
160	0x3ee470a4	0.44617188
161	0xbdaa45e4	-0.08314112
162	0x3e735fd9	0.23767032
163	0x3e5b2b4c	0.21403235
164	0xbea6dbcd	-0.3258957
165	0xbe46bbee	-0.19407627
166	0xbe96e0e7	-0.29468462
167	0xbeb04a24	-0.34431565
168	0xbd814324	-0.06311634
169	0xbcdef1c1	-0.027214887
170	0xbd9747d7	-0.07386749
171	0x3d4d7a9e	0.050165765
172	0x3e604f19	0.21905173
173	0x3e45bd85	0.19310577
174	0x3e7cc46e	0.24684307
175	0xbd884733	-0.06654205
176	0xbdd1fd9b	-0.102534495
177	0xbe3bf809	-0.18356337
178	0xbd5f6260	-0.054537177
179	0xbeaa5b5d	-0.3327283
180	0xbcfa9c30	-0.030592054
181	0x3e6e7ac7	0.23289023
182	0xbe20c95d	-0.15701814
183	0xbe37fb9b	-0.17967074
184	0x3ebec477	0.37259266
185	0xbd4c6e7f	-0.049910065
186	0xbe8650ac	-0.26233423
187	0x3e99b1a0	0.3001833
188	0x3e66c9c2	0.22537902
189	0xbefa4f15	-0.4888846
190	0xbeaf1ce8	-0.3420174
191	0xbe9cf774	-0.30657542
192	0x3da96c02	0.08272554
193	0x3da21622	0.07914378
194	0xbe9d16b8	-0.30681396
195	0x3c88bb6a	0.016690928
196	0x3db638b0	0.08897531
197	0x3b26cf92	0.0025453311
198	0xbe8d3d35	-0.2758576
199	0xbe2d9355	-0.16950734
200	0x3de16cd3	0.11007085
201	0xbdc65a84	-0.09685233
202	0xbea035ba	-0.3129099
203	0x3e90fb69	0.2831681
204	0x3d026f3f	0.031844374
205	0xbea53557	-0.32267258
206	0x3dc3806f	0.09545981
207	0x3e0db6cf	0.13839267
208	0x3ea0d2a7	0.31410715
209	0xbe8dabbc	-0.27670085
210	0xbe5705bc	-0.20998281
211	0x3d244bdb	0.040111404
212	0x3cb3b373	0.021936154
213	0xbbef9bcf	-0.007312275
214	0x3dfda72e	0.123854026
215	0xbeeaf34d	-0.4588875
216	0xbef089b5	-0.46980062
217	0xbdd31e15	-0.10308472
218	0xbd5321b3	-0.05154581
219	0x3e8fdec7	0.28099653
220	0x3e98983d	0.2980365
221	0x3d53ffa9	0.05175749
222	0x3b5268df	0.0032105965
223	0x3c5db966	0.013532972
224	0xbe82f3a2	-0.25576502
225	0x3d073d0b	0.0330172
226	0xbdbdebcb	-0.092734896
227	0xbe9802fe	-0.29689783
228	0xbdbf86c4	-0.093518764
229	0x3ea384d1	0.31937268
230	0x3e4c4870	0.19949508
231	0xbe03d334	-0.12873536
232	0xbd78d63b	-0.06075118
233	0xbe38d678	-0.18050563
234	0xbe8bce68	-0.27305913
235	0xbdf5a143	-0.11993649
236	0x3e9c41f2	0.30519062
237	0xbe896670	-0.26835966
238	0x3e311c7b	0.1729602
239	0x3d98cb68	0.07460672
240	0xbe2f283d	-0.17105193
241	0x3e8b6df7	0.27232334
242	0x3a2ed909	0.0006669914
243	0x3e7ebd10	0.24876809
244	0x3cacdca2	0.0211013
245	0xbeab9fad	-0.3352026
246	0x3ebe8346	0.3720953
247	0xbc82b259	-0.015954183
248	0xbee214ff	-0.44156644
249	0x3e1498cc	0.14511412
250	0x3e4dbfa2	0.20092633
251	0xbe067697	-0.13131176
252	0x3df43565	0.11924247
253	0x3e7ec9b5	0.24881633
254	0x3ea363e9	0.31912163
255	0xbddb835e	-0.10718416

conv1.bias f4 [32]
0	0x3d30501e	0.043045156
1	0xbde8697c	-0.113482445
2	0xbe1dd0f9	-0.15411748
3	0xbe9580b1	-0.29199746
4	0xbe596571	-0.21230103
5	0x3ea76c60	0.3269987
6	0x3e3eb18c	0.18622416
7	0xbe395872	-0.18100145
8	0xbe6e4598	-0.23268735
9	0x3e69ea65	0.2284332
10	0xbcd9f29b	-0.026604941
11	0xbd889f39	-0.06670994
12	0xbeb1f815	-0.34759584
13	0x3e768e48	0.24077713
14	0x3dd46c7c	0.10372254
15	0xbdb1c21a	-0.086796
16	0x3db9fa0c	0.09080896
17	0x3ea53441	0.3226643
18	0x3e885685	0.2662851
19	0x3e8fd551	0.28092435
20	0xbe4417aa	-0.19149652
21	0x3e53f6e4	0.2069965
22	0xbe7d26cc	-0.24721831
23	0x3e79281f	0.24331711
24	0xbc861ff0	-0.01637265
25	0x3decdd95	0.11565701
26	0x3e6fe016	0.23425326
27	0xbe989f8e	-0.2980923
28	0xbd5b9ac8	-0.053614408
29	0x3e48269b	0.19545977
30	0xbea7c0f7	-0.32764408
31	0xbd94a7b9	-0.07258553

bn1.weight f4 [32]
0	0x3f5238cb	0.8211791
1	0x3efe80ae	0.4970755
2	0x3f66d6be	0.9017142
3	0x3f9f7a7f	1.2459258
4	0x3f83e427	1.0304002
5	0x3ef931d1	0.4867082
6	0x3f8f2f3c	1.118629
7	0x3f94efa1	1.1635629
8	0x3f95fd26	1.171788
9	0x3f52a2fd	0.8227995
10	0x3f7c9362	0.9866239
11	0x3f8f8d13	1.1214927
12	0x3f86a28a	1.0518353
13	0x3f9b3cd7	1.2127942
14	0x3f8be110	1.0928059
15	0x3f70ae11	0.94015604
16	0x3fa7a9f5	1.3098742
17	0x3fa4dd31	1.2880002
18	0x3faff9b5	1.374808
19	0x3f6506fc	0.8946378
20	0x3f11b96e	0.5692357
21	0x3fb72011	1.4306661
22	0x3f8b7ecb	1.0898069
23	0x3f629a86	0.88517034
24	0x3f70b6cf	0.94028944
25	0x3f8b1ba8	1.0867815
26	0x3f6c7e1b	0.9237992
27	0x3f9ef5cd	1.2418762
28	0x3f5d7276	0.8650278
29	0x3f2e7afb	0.68156403
30	0x3f7b4f4f	0.9816789
31	0x3f365811	0.7122813

bn1.bias f4 [32]
0	0xbe416c55	-0.18888982
1	0xbe9e2aa4	-0.30891907
2	0xbc5fb79e	-0.013654618
3	0xbdbc58f6	-0.091966555
4	0xbdbbb614	-0.09165588
5	0xbe8ad136	-0.2711274
6	0xbe1f8e18	-0.15581548
7	0xbd8cd881	-0.06877232
8	0xbd16d6f5	-0.036826093
9	0xbe1dd179	-0.15411939
10	0x3d09b574	0.033620313
11	0x3c9f0218	0.019410178
12	0xbe43813c	-0.19092268
13	0xbd6ae7ca	-0.057349958
14	0xbdfaea82	-0.1225176
15	0xbc993be3	-0.018705314
16	0xbdacc0d2	-0.08435215
17	0x3d81281e	0.0630648
18	0x3cca525a	0.024697471
19	0xbd34204f	-0.043976124
20	0xbf0c4d23	-0.548052
21	0xbd2249be	-0.039621107
22	0xbdd57ef9	-0.10424609
23	0xbdf08c18	-0.11745471
24	0xbda04184	-0.07824996
25	0xbead95eb	-0.3390344
26	0xbe910320	-0.28322697
27	0xbd67dcd3	-0.05660708
28	0x3dde0ba7	0.10842066
29	0xbea6d5e8	-0.32585073
30	0xbe8063ac	-0.25076044
31	0xbea8b4fc	-0.3295058

bn1.running_mean f4 [32]
0	0x3d16ec5c	0.036846504
1	0xbdcf8b67	-0.10134011
2	0xbe30d2a0	-0.17267847
3	0xbea0db79	-0.31417444
4	0xbe55aa26	-0.20865688
5	0x3eae4bd1	0.34042218
6	0x3e3cdfdc	0.1844477
7	0xbe3a8c03	-0.18217473
8	0xbe768e5e	-0.24077746
9	0x3e51c8c2	0.2048674
10	0xbd02ad0e	-0.03190332
11	0xbd8bd8bd	-0.06828449
12	0xbebcc860	-0.36871624
13	0x3e68eeeb	0.2274739
14	0x3dc87c8b	0.0978938
15	0xbdac5c18	-0.08416003
16	0x3d951754	0.0727984
17	0x3e9e1fdd	0.30883685
18	0x3e827d85	0.2548639
19	0x3e8e1ea5	0.27757755
20	0xbe470853	-0.19436769
21	0x3e35aec1	0.17742445
22	0xbe81826e	-0.25294822
23	0x3e6ac17a	0.22925368
24	0xbd1255d1	-0.035726372
25	0x3dc90a59	0.09816427
26	0x3e6b1433	0.22956924
27	0xbe988ddb	-0.29795727
28	0xbd48ad1b	-0.04899321
29	0x3e4d4384	0.20045286
30	0xbea77a46	-0.32710475
31	0xbd261cc5	-0.04055478

bn1.running_var f4 [32]
0	0x3e81ad14	0.2532736
1	0x3d3ddf02	0.046355255
2	0x3daab118	0.08334559
3	0x3f403b48	0.75090456
4	0x3e1beadb	0.15226309
5	0x3e5d3dbd	0.21605583
6	0x3eabdb13	0.33565578
7	0x3e875d03	0.2643815
8	0x3ee849a2	0.45368677
9	0x3f3a5d0a	0.72798216
10	0x3e5a553c	0.21321577
11	0x3e87ca68	0.2652161
12	0x3dfbb44d	0.12290249
13	0x3eb7715c	0.35828674
14	0x3e937728	0.28801847
15	0x3ea6d560	0.32584667
16	0x3f3b1fb2	0.7309524
17	0x3eab1b8c	0.33419454
18	0x3f3d5cc6	0.73969686
19	0x3e74728f	0.23871826
20	0x3e934ecb	0.28771052
21	0x3f8b2675	1.0871111
22	0x3ef7e6f9	0.48418406
23	0x3e4e89d9	0.20169772
24	0x3e0936d5	0.13399823
25	0x3da7c490	0.08191788
26	0x3e8b3f91	0.27196935
27	0x3f0443cf	0.5166597
28	0x3ea6627d	0.32497016
29	0x3e6dee34	0.23235399
30	0x3e8697fb	0.26287827
31	0x3fdf73fd	1.7457272

conv2.weight f4 [64, 32, 3, 3]
0	0xbbffb47b	-0.0078034974
1	0x3cf19102	0.02948809
2	0xbcfeab87	-0.03108765
3	0xbc05b2a7	-0.00816027
4	0x3e09dbc0	0.13462734
5	0xbdeec3bc	-0.11658427
6	0xbc5c60c6	-0.013450807
7	0xbdda3e22	-0.10656382
8	0x3df212e7	0.118200116
9	0xbe0ac31b	-0.1355099
10	0xbda98eea	-0.08279212
11	0xbd917736	-0.07102816
12	0x3c12c46b	0.0089579625
13	0xba27dc03	-0.0006403329
14	0xbe084b7a	-0.13310042
15	0x3c88dff0	0.016708344
16	0x3dd03ded	0.101680614
17	0xbb4f773f	-0.003165677
18	0xbe3e0061	-0.18554832
19	0xbe1f1182	-0.15534022
20	0xbe3f296b	-0.18668143
21	0x3d060f9a	0.032729723
22	0x3e17a0b1	0.14807393
23	0xbd80c537	-0.06287616
24	0x3c7a5ddb	0.015281166
25	0x3e3aadae	0.18230316
26	0x3c651cb8	0.013983898
27	0xbe0ce063	-0.13757472
28	0xbe499736	-0.19686589
29	0x3dbccbf6	0.0921859
30	0x3a37754c	0.00069983746
31	0xbdfe6163	-0.12420919
32	0x39926b30	0.0002792715
33	0x3ce27266	0.02764244
34	0xbd46a6ee	-0.04849904
35	0xbd3bbf2d	-0.045836616
36	0xbe3d14c2	-0.1846495
37	0xbd73ace3	-0.05949105
38	0xbcbadfe6	-0.022811841
39	0xb93b41a0	-0.00017858157
40	0xbe213467	-0.15742646
41	0xbda82b35	-0.08211366
42	0xbd25830f	-0.04040819
43	0xbd368d2b	-0.044568222
44	0x3ca2391c	0.019802622
45	0xbd4229b0	-0.047403038
46	0xbda624b7	-0.081124716
47	0xbe015e07	-0.12633525
48	0xbc9c6439	-0.019090759
49	0x3dcde298	0.10052985
50	0xbdb5cae3	-0.08876588
51	0x3dbaf03b	0.091278516
52	0x3d844859	0.06459112
53	0x3d0da4cc	0.03458099
54	0x3d5373ec	0.051624224
55	0xbdfcda88	-0.12346369
56	0xbdc9a81f	-0.0984652
57	0xbcc7cd51	-0.024389895
58	0x3db10142	0.08642818
59	0x3e55d7cc	0.20883101
60	0x3db5cb46	0.08876662
61	0x3d9a843a	0.075447515
62	0x3de32a86	0.11092095
63	0x3c31ace7	0.010844446
64	0xbe0f24e0	-0.1397891
65	0xbe3dd289	-0.18537344
66	0xbc8f98ca	-0.01752891
67	0x3c1afde5	0.009459947
68	0x3d1f960e	0.038961463
69	0x3db981c0	0.09057951
70	0x3d3ee025	0.04660048
71	0x3e354c93	0.17704992
72	0xbdb5620a	-0.0885659
73	0xbdb28fbc	-0.087188214
74	0xbd840f13	-0.06448188
75	0x3d78a264	0.060701743
76	0xbdda184f	-0.10649168
77	0xbd5e6d49	-0.05430344
78	0x3ddf68cf	0.109086625
79	0x3e00d9f2	0.1258314
80	0xbd16e54a	-0.03683976
81	0x3ad2fe7b	0.001609757
82	0xbd8c130f	-0.06839573
83	0xbb768b7a	-0.0037619756
84	0xbdd4723d	-0.10373352
85	0xbe008ef4	-0.12554532
86	0x3d9304fd	0.07178686
87	0x3c4365db	0.01192614
88	0xbd9060e3	-0.0704973
89	0x3d5126e0	0.051062465
90	0xbe4d0a72	-0.20023516
91	0xbe426ce4	-0.18986851
92	0xbc2a005b	-0.010376061
93	0xbdc92bc8	-0.09822804
94	0xbe01bc17	-0.12669407
95	0xbe24d6b2	-0.16097525
96	0x3e039267	0.12848817
97	0x3d1acae3	0.037791144
98	0xbde355d6	-0.11100356
99	0xbe835901	-0.25653842
100	0xbe4b55af	-0.19856904
101	0x3dc776ee	0.09739481
102	0xbdd96583	-0.10615065
103	0xbd82aee1	-0.06381012
104	0xbd86ec64	-0.06588057
105	0x3d6aaa01	0.057291035
106	0xbc186766	-0.009301996
107	0xbd870864	-0.06593397
108	0xbd20224f	-0.03909522
109	0xbdebbe7d	-0.11510942
110	0x3da0696d	0.07832608
111	0xbdce46ed	-0.10072122
112	0x3dce6864	0.10078505
113	0xbe0ecd59	-0.13945521
114	0x3cf82267	0.030289842
115	0x3da70202	0.0815468
116	0x3d8d710c	0.069063276
117	0x3d044236	0.032289706
118	0xbde8b164	-0.113619596
119	0xbc89afc2	-0.01680744
120	0xbcc33b56	-0.023832005
121	0xbd99d50d	-0.07511339
122	0x3d5b209c	0.053497896
123	0x3d64fcf4	0.055905297
124	0xbd7c2fec	-0.06156914
125	0x3d4bebdd	0.049785484
126	0xbda6c9b8	-0.081439435
127	0xbe17fe58	-0.14843118
128	0x3d47eb26	0.04880824
129	0xb8972a9b	-7.208177e-05
130	0x3d80cec5	0.06289438
131	0x3e3f5715	0.18685563
132	0x3ddb22a2	0.10699965
133	0xbc9939e7	-0.018704368
134	0x3d8c6274	0.06854716
135	0xbe326e06	-0.17424783
136	0xbe3d4678	-0.18483913
137	0xbd321cba	-0.043484427
138	0xbe65becb	-0.22436063
139	0xbe4af964	-0.19821697
140	0xbd883317	-0.066503696
141	0xbca666aa	-0.020312626
142	0xbc9ae794	-0.018909253
143	0x3d5547d3	0.05207045
144	0x3da41da1	0.08013464
145	0xbdd182a2	-0.10229994
146	0x3d27c371	0.04095787
147	0xbcde40c7	-0.027130498
148	0xbcb4eea9	-0.022086458
149	0x3defb580	0.1170454
150	0x3be3681b	0.0069399006
151	0x3d1eeec0	0.03880191
152	0x3d4cad47	0.049969938
153	0xbcb7230a	-0.022355575
154	0xbc87166c	-0.016490184
155	0xbe4d1f7b	-0.2003154
156	0x3d14a2f6	0.036288224
157	0x3e327552	0.17427567
158	0x3ddbbe99	0.10729713
159	0x3dbd2d1f	0.09237122
160	0x3e082be0	0.13297987
161	0x3dfcdb7e	0.12346552
162	0x3e17f9c4	0.14841372
163	0xbe08faaa	-0.13376871
164	0xbcf4f17f	-0.02990031
165	0xbb7d035e	-0.0038606743
166	0x3c7eb0ca	0.0155450795
167	0x3e45eea1	0.19329311
168	0xbd18e8e7	-0.037331488
169	0x3e010f11	0.12603404
170	0x3d010ec6	0.03150823
171	0xbe3fb03f	-0.18719576
172	0xbe2faef6	-0.17156586
173	0xbd72e1e5	-0.05929746
174	0xbd8cdd63	-0.06878164
175	0xbdf371b2	-0.1188692
176	0xbd84775f	-0.06468081
177	0x3d8ad782	0.06779386
178	0x3dcfe513	0.10151114
179	0xbdb73e10	-0.08947384
180	0xbdb4b6db	-0.088239394
181	0xbdcb559b	-0.09928437
182	0xbdee263e	-0.11628388
183	0xb434edf7	-1.6850377e-07
184	0xbd5781be	-0.052613966
185	0xbd9655ac	-0.07340559
186	0xbcfd28ad	-0.030903185
187	0x3d6545dc	0.055974826
188	0x3cbf224e	0.023331787
189	0x3dfcd08f	0.12344467
190	0x3cb9b5a3	0.022669619
191	0xbd9a4500	-0.07532692
192	0x3e320d36	0.17387852
193	0x3e8ac561	0.27103713
194	0x3e976bca	0.29574424
195	0x3e327928	0.1742903
196	0x3dc87023	0.097870134
197	0x3e5ed761	0.21761848
198	0xbd900a9e	-0.07033275
199	0xbdcb4e99	-0.09927101
200	0x3dea5c64	0.11443403
201	0xbe239630	-0.1597526
202	0x3bb9bd01	0.005668283
203	0x3d717490	0.058949053
204	0xbd86b8bb	-0.06578203
205	0x3c8101f1	0.015747996
206	0x3e41879e	0.1889939
207	0x3d935728	0.07194358
208	0xbe1049ef	-0.14090703
209	0xbd8f8925	-0.0700858
210	0xbd956baa	-0.07295926
211	0x3dc75c1b	0.097343646
212	0x3c426323	0.011864456
213	0xbc80edf0	-0.015738457
214	0x3dc0cf82	0.09414579
215	0x3cb44652	0.022006188
216	0xbab32963	-0.001366895
217	0xbda7c08b	-0.081910215
218	0xbdd7600c	-0.10516366
219	0x3d31e09d	0.0434271
220	0x3d9fe604	0.07807544
221	0x3bc6e4a0	0.0060697347
222	0xbd02b8c1	-0.031914476
223	0x3d4282e3	0.047488105
224	0x3dae53d3	0.08512082
225	0xbddb121b	-0.10696813
226	0xbe201493	-0.15632848
227	0xbdc5a04d	-0.096497156
228	0xbc45caec	-0.012072306
229	0xbd0522d3	-0.032503914
230	0x3d1c5198	0.03816375
231	0x3dbd73b6	0.09250586
232	0x3e4a3883	0.1974812
233	0x3d66a608	0.056310683
234	0xbb36658b	-0.002783152
235	0xbdddb5e9	-0.10825712
236	0xbb6aae9d	-0.0035809644
237	0xbd333d7f	-0.04375982
238	0xbcb4890d	-0.022038007
239	0xbce47336	-0.027886968
240	0xbdd68345	-0.104742564
241	0xbd4a5f63	-0.049407374
242	0x3c506368	0.012719013
243	0x3d9c1ecc	0.076230615
244	0x3c8bbf77	0.017059071
245	0xbe1d37d9	-0.15353335
246	0x3cf79a40	0.03022492
247	0xbc555dc1	-0.013022841
248	0xbd8c5f14	-0.06854072
249	0xbdb4a754	-0.08820978
250	0x3d30f4f1	0.043202344
251	0x3de316ba	0.11088319
252	0xbd540d9a	-0.051770784
253	0xbe3b006d	-0.18261881
254	0x3b563f20	0.0032691434
255	0xbd4eecb1	-0.050518695

conv2.bias f4 [64]
0	0x3d0345a8	0.03204885
1	0x3d485739	0.048911307
2	0xbcbafcf3	-0.022825694
3	0x3c85c73a	0.01633035
4	0xbc13209a	-0.008979941
5	0xbc500e33	-0.012698698
6	0xbb2ff59c	-0.0026849275
7	0x3c5bd94b	0.013418506
8	0x3bc98aeb	0.0061505935
9	0x3d414f59	0.047194812
10	0xb93a3a6d	-0.00017760108
11	0x3d0c88ca	0.03431014
12	0x39efdead	0.0004575154
13	0xbc8b0ebb	-0.016974797
14	0x3cacd7b8	0.021098956
15	0x3cf53e70	0.029937
16	0xbbf4717a	-0.0074598165
17	0xbd58795b	-0.05285011
18	0xbca12c17	-0.019674344
19	0x3d754cc5	0.059887666
20	0xbd1f3f04	-0.038878456
21	0x3be530fb	0.0069943643
22	0x3ce63263	0.028100198
23	0xbd1f3dff	-0.038877483
24	0xbd15493e	-0.036446802
25	0x3d58db20	0.05294335
26	0xbd5680fd	-0.052369107
27	0x3b285f49	0.002569156
28	0xbcd90491	-0.026491435
29	0x3b998b38	0.0046857856
30	0x3d72c852	0.05927307
31	0x3c07b2b2	0.00828235
32	0xbd38128f	-0.044939574
33	0x3d5bd52b	0.05367009
34	0x3c60d4e7	0.013722635
35	0x3cdca44c	0.026933812
36	0x3d58171f	0.052756425
37	0xbd065aa5	-0.03280129
38	0xbbf76b9f	-0.007550671
39	0x3d2d2805	0.042274494
40	0xbcf206ea	-0.029544313
41	0x3d5ce673	0.05393071
42	0xbd1d3e89	-0.038389716
43	0xbc93b4d0	-0.018030554
44	0xbd000335	-0.03125306
45	0x3ccbf795	0.02489833
46	0x3c119546	0.008885687
47	0x3c888267	0.016663743
48	0xbd77a039	-0.060455535
49	0xbbbab9ca	-0.0056984173
50	0x3c3b938e	0.011448754
51	0x3ca51502	0.020151619
52	0x3ce6c260	0.028168857
53	0xbd2e8c7b	-0.04261444
54	0x3c8c7452	0.01714531
55	0x3c85d7e3	0.016338294
56	0xb82668a8	-3.9674953e-05
57	0xbd2dd298	-0.042437166
58	0x3d608818	0.05481729
59	0xbd04f6d4	-0.032461956
60	0xbd0906c2	-0.03345371
61	0x3c15d360	0.009144634
62	0x3cbbac07	0.022909177
63	0xbc982751	-0.018573435

bn2.weight f4 [64]
0	0x3f6d1770	0.9261389
1	0x3f6aad58	0.9167075
2	0x3f8a6b5a	1.0814011
3	0x3f5ffdf2	0.87496865
4	0x3f995c8d	1.1981369
5	0x3f68d4b3	0.90949553
6	0x3f6e8648	0.93173647
7	0x3f5d906a	0.86548483
8	0x3f8d38f1	1.1033002
9	0x3fa2d285	1.2720495
10	0x3f6c216e	0.9223851
11	0x3f671a03	0.90274066
12	0x3f80a593	1.0050529
13	0x3f96593c	1.1745982
14	0x3f8cdd40	1.100502
15	0x3f843d29	1.0331165
16	0x3f938cb7	1.1527318
17	0x3f7ca4c0	0.9868889
18	0x3f7bfba6	0.9843086
19	0x3f7bc019	0.9833999
20	0x3f7f7df1	0.99801546
21	0x3f8def63	1.108868
22	0x3f6d80f8	0.92774916
23	0x3f81a0da	1.0127213
24	0x3f72e9a4	0.9488776
25	0x3f7d3da9	0.9892221
26	0x3f7cae4e	0.9870347
27	0x3f892b2d	1.0716301
28	0x3f818005	1.0117193
29	0x3f427a58	0.7596793
30	0x3f7175c8	0.94320345
31	0x3f6db1e0	0.9284954
32	0x3f699b1b	0.912523
33	0x3f94ad8c	1.1615462
34	0x3f811cc2	1.0086901
35	0x3f8d6017	1.1044949
36	0x3f5d5e0d	0.86471635
37	0x3f80b112	1.0054038
38	0x3f4e7ae3	0.8065626
39	0x3f8f81a3	1.1211437
40	0x3f6e045e	0.92975414
41	0x3fab9370	1.3404369
42	0x3f4fb87d	0.8114088
43	0x3f951db8	1.1649694
44	0x3fb260de	1.3935812
45	0x3f8d5f15	1.1044642
46	0x3f7ce5d2	0.9878818
47	0x3f1ac68a	0.60459197
48	0x3f85852f	1.043127
49	0x3f62db9c	0.8861635
50	0x3f883e71	1.0644056
51	0x3f6cd771	0.9251624
52	0x3f2531e0	0.6452923
53	0x3f58bdc5	0.84664565
54	0x3f896979	1.0735313
55	0x3f8f87ef	1.1213359
56	0x3f7bf007	0.9841313
57	0x3f6935bf	0.91097635
58	0x3f0752a6	0.52860487
59	0x3f6dd5f9	0.9290462
60	0x3f5c4085	0.8603595
61	0x3f658b98	0.8966613
62	0x3f8445ca	1.0333798
63	0x3f5a65c3	0.85311526

bn2.bias f4 [64]
0	0xbe211439	-0.1573037
1	0xbe9c779e	-0.3056001
2	0xbe5cdf4e	-0.21569559
3	0xbea8ece5	-0.32993236
4	0xbe14b91f	-0.14523743
5	0xbe8f52ff	-0.27993008
6	0xbe25563a	-0.16146174
7	0xbe889695	-0.26677385
8	0xbe2b5f3f	-0.16735552
9	0xbd6cafd0	-0.057784855
10	0xbe76df18	-0.24108541
11	0xbe0d14e1	-0.13777496
12	0xbeae3334	-0.3402344
13	0xbe284222	-0.16431478
14	0xbe50da00	-0.2039566
15	0xbd9737af	-0.07383668
16	0xbe419da2	-0.18907788
17	0xbe189d27	-0.14903699
18	0xbe432123	-0.1905561
19	0xbe94c0ad	-0.2905325
20	0xbe53a171	-0.20667054
21	0xbdc0287a	-0.0938272
22	0xbedbab6b	-0.4290422
23	0xbe1b522c	-0.15168065
24	0xbe1fb8d7	-0.15597855
25	0xbe10c869	-0.1413895
26	0xbe196d3a	-0.14983073
27	0xbea97bfc	-0.33102405
28	0xbc8cf772	-0.017207835
29	0xbea654c5	-0.3248655
30	0xbea66cde	-0.32504934
31	0xbe9a088e	-0.30084652
32	0xbd3cbe1a	-0.046079732
33	0xbe22eb81	-0.1591015
34	0xbea1a3c9	-0.3157027
35	0x3d4cf805	0.050041217
36	0xbe97667b	-0.29570374
37	0xbd127ca0	-0.035763383
38	0xbf3b9ed4	-0.7328923
39	0xbe665538	-0.22493446
40	0xbe811e34	-0.25218356
41	0xbe3ee446	-0.18641767
42	0xbebd506f	-0.36975428
43	0xbe27d6d4	-0.16390544
44	0xbe4fda5f	-0.20298146
45	0xbdf78a5e	-0.12086938
46	0xbe5aa2cb	-0.21351163
47	0xbed38b8e	-0.4131741
48	0xbe5a164d	-0.2129757
49	0xbe282c96	-0.16423258
50	0xbe95838a	-0.2920192
51	0xbe93707c	-0.28796756
52	0xbf1ba6dc	-0.6080148
53	0xbe20e02d	-0.15710516
54	0xbda877c2	-0.08225967
55	0xbcaa9051	-0.020820769
56	0xbe26f668	-0.16304934
57	0xbd2e171c	-0.042502508
58	0xbf254aae	-0.6456708
59	0xbec6342c	-0.3871168
60	0xbe9bd6f3	-0.3043743
61	0xbda25e72	-0.0792817
62	0xbe480dd4	-0.19536525
63	0xbf0ad0df	-0.5422496

bn2.running_mean f4 [64]
0	0xbf775b8a	-0.9662405
1	0xbf50736d	-0.81426126
2	0xbea53711	-0.32268575
3	0xbf5c6fc3	-0.86108035
4	0x3f31aaf6	0.6940149
5	0xbfc9ed9b	-1.5775636
6	0xbf307285	-0.6892474
7	0xbed9c6f2	-0.42534596
8	0xbfcbf331	-1.5933591
9	0xbfc2bd4d	-1.521402
10	0xc0580d68	-3.3758183
11	0xbfcb6307	-1.5889596
12	0xbd097542	-0.03355909
13	0xbf401606	-0.75033605
14	0x3e45e885	0.1932698
15	0xbfa589ab	-1.2932638
16	0xbf889ee7	-1.0673493
17	0xbf81f33d	-1.0152355
18	0xbfeeaab0	-1.864584
19	0xc04a92bd	-3.1652062
20	0xc05694bf	-3.3528287
21	0xbfc81c5a	-1.5633652
22	0xc0709535	-3.7591069
23	0xbe5d03fd	-0.21583553
24	0xbfed9aa6	-1.856282
25	0x3ecc0f72	0.39855534
26	0xc067c41f	-3.6213453
27	0xc00abf81	-2.1679385
28	0xc013bc46	-2.3083663
29	0xbfd2df92	-1.6474478
30	0xc01a1316	-2.407415
31	0xbf8ad103	-1.0845035
32	0xbfea10f8	-1.8286428
33	0xbfd41869	-1.6569949
34	0xbfc4ceff	-1.537567
35	0xbfdd1d65	-1.7274595
36	0xbfb955b5	-1.4479281
37	0xbfe3e6ee	-1.7804849
38	0xbeb465d9	-0.35233954
39	0xbf84dcd0	-1.0379887
40	0x3e6ef3c3	0.23335175
41	0xbf1fcd0c	-0.6242225
42	0xbfe78bef	-1.8089579
43	0xbfbfb6d1	-1.4977666
44	0xbfdabaf3	-1.7088302
45	0xbf46018f	-0.7734613
46	0xbff9aee6	-1.95065
47	0x3fa1f043	1.2651447
48	0xbfe5a6b5	-1.79415
49	0xbf8c1026	-1.0942428
50	0x3e85c6a0	0.261281
51	0xbfd57318	-1.6675749
52	0x3fd7fe3a	1.6874459
53	0xbf53172d	-0.8245724
54	0xbff4e44d	-1.9132172
55	0xc001f585	-2.0306103
56	0x3f065913	0.52479666
57	0xbfc70b2b	-1.5550283
58	0x3fb6f72f	1.4294184
59	0xc03b0a09	-2.9224875
60	0x3e50835d	0.20362611
61	0xbfcf01a4	-1.6172376
62	0xbfa5e839	-1.2961494
63	0xbf581b1b	-0.8441636

bn2.running_var f4 [64]
0	0x414bef4d	12.745923
1	0x411bcd2d	9.737592
2	0x40d653b7	6.697719
3	0x412b10c7	10.691596
4	0x40a5a5a8	5.1764717
5	0x4087aef5	4.240107
6	0x40cdc9f1	6.430901
7	0x40acdb6c	5.401785
8	0x40df2e6f	6.974418
9	0x4122ad0f	10.167251
10	0x40f7215c	7.722822
11	0x40d2aa4f	6.5832896
12	0x41083bfb	8.514644
13	0x40e7e48a	7.246648
14	0x40d26d40	6.575836
15	0x4147ab9e	12.479399
16	0x4134f7d5	11.310506
17	0x40e17565	7.0455804
18	0x40e4b7b1	7.1474233
19	0x4024ed75	2.5769932
20	0x409461e6	4.6369505
21	0x40b6ae79	5.708798
22	0x401c6455	2.4436238
23	0x40d008e7	6.5010867
24	0x413fecf3	11.995349
25	0x407fd671	3.9974635
26	0x40d82bbd	6.755339
27	0x40a3c575	5.1178536
28	0x40984a09	4.7590375
29	0x40838310	4.109749
30	0x40c93e85	6.288882
31	0x40e54e6f	7.1658244
32	0x40980115	4.750132
33	0x40a3add3	5.114969
34	0x40d2f1db	6.5920234
35	0x4114a5a9	9.290444
36	0x403c61d0	2.94347
37	0x40d94370	6.789482
38	0x400fa31d	2.2443306
39	0x40fee7b1	7.9657826
40	0x4093fb1f	4.6244044
41	0x40c9294f	6.2862926
42	0x40cf1c71	6.472222
43	0x40abdb66	5.370532
44	0x411c988a	9.787241
45	0x40b107aa	5.5321856
46	0x3ff035b4	1.8766389
47	0x40996af5	4.7943063
48	0x408d9e2e	4.425559
49	0x41375a60	11.459564
50	0x409985cc	4.7975826
51	0x40f1c91e	7.5558004
52	0x40b9161d	5.7839494
53	0x4086c639	4.211697
54	0x411717fe	9.443357
55	0x40d3f1fd	6.6232896
56	0x40a826ac	5.2547207
57	0x40b0aac4	5.5208454
58	0x40cb8c23	6.3608565
59	0x40459a80	3.087555
60	0x40659973	3.5874908
61	0x40f35578	7.604183
62	0x40a2eeab	5.0916343
63	0x4031c09b	2.7773807

conv3.weight f4 [64, 64, 3, 3]
0	0xbc7374b7	-0.01485937
1	0x3d08317a	0.03325031
2	0x3bfdcdf4	0.007745499
3	0x3c4e1ff5	0.012580861
4	0xbd898e1a	-0.06716557
5	0xbd1c65e7	-0.03818312
6	0xbe5857ef	-0.21127294
7	0xbdb0ecac	-0.086388916
8	0xbce02cff	-0.027365206
9	0x3dcf1dda	0.101131156
10	0x3c214c27	0.009844816
11	0xbcd8813f	-0.026428817
12	0x3e687b6d	0.22703333
13	0x3d19d9a5	0.037561078
14	0x3d7917c2	0.060813673
15	0x3dc64946	0.096819445
16	0xbe00ff94	-0.12597495
17	0xbd26f2f5	-0.040759046
18	0xbd06fd0a	-0.03295616
19	0x3e304696	0.17214426
20	0x3c869649	0.016429083
21	0x3dc85956	0.097826645
22	0xbd3d2077	-0.04617354
23	0xbd9db428	-0.07700378
24	0x3de0e306	0.10980801
25	0x3d90ef0b	0.07076844
26	0xbd8bc899	-0.0682537
27	0xbcdc8ae5	-0.026921699
28	0xbb90682f	-0.004406951
29	0x3c0aac5b	0.008463944
30	0x3d8e708c	0.0695506
31	0x3db6722d	0.08908496
32	0xbbdcf3ac	-0.006742915
33	0xbd07c310	-0.03314501
34	0x3d00caf1	0.03144354
35	0xbc0f333e	-0.008740244
36	0xbcb9afa7	-0.022666765
37	0xbd91ca48	-0.0711866
38	0x3dcb9f5b	0.09942504
39	0xbc9d0275	-0.01916621
40	0xbd6680ac	-0.056275055
41	0xbca6e749	-0.020373957
42	0xbcbd3d91	-0.023100646
43	0xbe647a7b	-0.22312348
44	0xbde7aec4	-0.11312631
45	0x3e66b08a	0.22528282
46	0x3e13d8bc	0.14438146
47	0x3d06ceb6	0.03291198
48	0x3d58ae33	0.052900504
49	0xbd98f0b7	-0.07467788
50	0x3d65b5de	0.056081645
51	0xbd0ae334	-0.033908084
52	0xbe461451	-0.19343688
53	0xbdca2b3d	-0.09871528
54	0xbd4d262f	-0.050085243
55	0x3def4a37	0.11684077
56	0xbd298b64	-0.0413927
57	0x3cc05101	0.023476126
58	0xbcb9f22f	-0.02269849
59	0xbdde0bb5	-0.10842077
60	0x3e05d8e4	0.13071018
61	0x3df24e20	0.118313074
62	0xbdf2d878	-0.118576944
63	0xbc6bd7d3	-0.014394718
64	0x3dd9a797	0.10627668
65	0x3e07c15d	0.13257356
66	0xbd6b0fa3	-0.05738796
67	0xbd7626e9	-0.0600957
68	0x3dd319aa	0.103076294
69	0xbe01a45d	-0.12660356
70	0xbd97af07	-0.07406431
71	0xbc95ebc6	-0.018300902
72	0x3d31d213	0.043413233
73	0xbe38c7cd	-0.18044968
74	0x3da0c2ca	0.07849653
75	0xbd4ef16e	-0.050523214
76	0xbdd78882	-0.10524084
77	0xbc09df40	-0.008415043
78	0xbd3ab17e	-0.045579426
79	0xbe27f7eb	-0.16403167
80	0x3bc1bdb2	0.005912506
81	0xbb8ed7f8	-0.0043592416
82	0xbd0fea7e	-0.03513574
83	0xbb4e1f70	-0.0031451844
84	0xbd72e55e	-0.059300773
85	0xbd68283e	-0.056679003
86	0xbe04b4fc	-0.12959665
87	0xbe0c31f9	-0.13690938
88	0xbcc7fd49	-0.024412768
89	0xbd01412e	-0.0315563
90	0xbbb209b9	-0.005433288
91	0xbb19a9bb	-0.0023447115
92	0x3d5e7624	0.054311886
93	0xbab06aa7	-0.0013459519
94	0xbdd8ff91	-0.105956204
95	0xbc14fc52	-0.009093361
96	0xbd9117e1	-0.07084633
97	0xbe2c2b1b	-0.16813318
98	0x3da3c111	0.07995809
99	0x3d929154	0.071566254
100	0x3c552bdf	0.013010948
101	0xbbd96902	-0.0066348324
102	0x3c4dbfea	0.012557963
103	0x39eae884	0.00044805196
104	0x3d9e7d70	0.07738769
105	0xbcc66c9a	-0.024221707
106	0xbd548c88	-0.051891834
107	0xbe2bfb7c	-0.16795152
108	0x3d058f4a	0.032607354
109	0xbda6d2b5	-0.08145658
110	0xba1085bc	-0.0005513092
111	0xbd92ec0d	-0.07173929
112	0x3c5a5ab7	0.013327292
113	0xbd4f3289	-0.050585303
114	0xbdacde28	-0.084408104
115	0xbe20021f	-0.15625809
116	0xbdee86d2	-0.11646809
117	0xbc2d58c6	-0.010580247
118	0xbd9e6692	-0.077344075
119	0x3d33f35b	0.043933254
120	0x3e3f59c7	0.18686591
121	0xbe0c4bfb	-0.13700859
122	0xbe1cc50b	-0.15309541
123	0xbd1af571	-0.037831727
124	0xbdfeef19	-0.12447948
125	0xbdc0fea6	-0.0942357
126	0xbdd8e565	-0.105906285
127	0xbcc0db6a	-0.023542125
128	0x394e7f4e	0.00019693116
129	0x3dd7fca2	0.10546233
130	0xbdd2cf24	-0.10293415
131	0xbe1aa8ca	-0.1510345
132	0x3ce7beff	0.028289316
133	0x3d08354d	0.033253957
134	0xbd905cd0	-0.070489526
135	0xbd921d82	-0.071345344
136	0xb9e45323	-0.0004354949
137	0xbc9cf58c	-0.019160055
138	0xbd8f4da7	-0.06997233
139	0xbb4fcdc3	-0.0031708337
140	0xbe014818	-0.12625158
141	0xbd4175e9	-0.04723159
142	0xbe2ce94f	-0.16885875
143	0xbd282085	-0.041046638
144	0xbd561985	-0.05227043
145	0x3d5fdc0d	0.054653216
146	0xbd26ccc8	-0.04072264
147	0x3d15b702	0.036551483
148	0x3c6c3ea6	0.014419233
149	0xbd160302	-0.036623962
150	0x3e042d37	0.12907873
151	0xbde47aac	-0.1115621
152	0xbe0915a9	-0.13387169
153	0xbd615b7b	-0.055018883
154	0xbd62d9bb	-0.055383425
155	0x3d9b3c8f	0.0757991
156	0x3de6bbbb	0.112662755
157	0xbadb8d64	-0.0016750512
158	0xbd5de4e0	-0.05417335
159	0x3c1dba2e	0.009626908
160	0xbddcb6bb	-0.107770406
161	0xbd36432a	-0.044497646
162	0x3ce40651	0.027835043
163	0xbdf79939	-0.12089772
164	0xbd8cb274	-0.06869975
165	0xbdfcb161	-0.1233852
166	0x3ae54052	0.0017490482
167	0x3cb52c02	0.022115711
168	0xbd752d89	-0.05985788
169	0x3de1863f	0.110119335
170	0x3b91d1a3	0.0044500395
171	0x3e2d994a	0.16953006
172	0x3d9cd3cd	0.07657585
173	0xbbc3e9d1	-0.005978801
174	0x3e284373	0.1643198
175	0xbd70d35c	-0.058795318
176	0x3d91fb3a	0.07127996
177	0x3d6cec57	0.05784258
178	0xbdc44241	-0.095829494
179	0x3d22bb9e	0.039729707
180	0xbdd4bb3b	-0.10387274
181	0x3d4c1eec	0.049834177
182	0x3d904154	0.0704371
183	0x3d4775f4	0.048696473
184	0x3dece40b	0.11566933
185	0x3d43d304	0.047808662
186	0x3df0319e	0.11728214
187	0x3e2cdb82	0.1688061
188	0x373a3e79	1.11010095e-05
189	0x3d97e965	0.07417563
190	0x3dbf2793	0.0933372
191	0x3ccc4912	0.024937186
192	0x3cf74dff	0.030188559
193	0x3dfb95b2	0.122844115
194	0x3de7c9ed	0.11317811
195	0xbd353fa6	-0.044250153
196	0x3deef53e	0.1166787
197	0x3e2dc5d4	0.16969997
198	0x3e5a3d85	0.2131253
199	0xbce70909	-0.02820255
200	0xbe0360bb	-0.12829868
201	0x3d65472e	0.055976085
202	0xbe6161fb	-0.22010033
203	0x3c202802	0.009775164
204	0xbd8f17fa	-0.06986995
205	0xbe7317ba	-0.2373952
206	0xbd17d207	-0.037065532
207	0xbd6bfb11	-0.057612482
208	0xbc5289ff	-0.012850284
209	0x3bc3bb2e	0.0059732413
210	0xbd8c872e	-0.06861721
211	0xbc740689	-0.014894136
212	0xbbd52d7c	-0.0065056663
213	0xbd81d12c	-0.063387245
214	0xbe04daab	-0.1297404
215	0xbe895874	-0.26825297
216	0xbd2e4a45	-0.042551298
217	0xbe133b17	-0.1437801
218	0xbde4d130	-0.11172712
219	0xbd3bb0c2	-0.045822866
220	0x3c8728f1	0.016499015
221	0x3d537884	0.051628605
222	0x3cd53d34	0.02603016
223	0xbdd9232c	-0.10602412
224	0x3bb631e6	0.0055601476
225	0xbdd7c605	-0.10535816
226	0x3dbae1b1	0.091250785
227	0xbd08c09f	-0.033386823
228	0xbdb121c9	-0.08649022
229	0xbd07632a	-0.033053555
230	0x3cc534e4	0.024073072
231	0xbcd412fb	-0.025887957
232	0x3dfdad2a	0.12386544
233	0xbc140c1f	-0.009036093
234	0xbce169ee	-0.027516332
235	0x3d1386db	0.03601728
236	0xbdd2e294	-0.102971226
237	0xbd848c2e	-0.0647205
238	0x3e12c22f	0.14331888
239	0x3de78a2f	0.11305653
240	0xbe3c2b4e	-0.18375894
241	0x3e2cecf1	0.16887261
242	0x3da8dbad	0.08245025
243	0x3d894c1f	0.06703972
244	0xbbc2a06b	-0.0059395335
245	0x3b083e6f	0.0020789166
246	0xbe054b1f	-0.13016938
247	0x3e0d5bba	0.13804522
248	0x3dea41ab	0.114383064
249	0xbdde7f7e	-0.10864161
250	0x3e2fe813	0.17178373
251	0x3df22f21	0.118253954
252	0xbbf67713	-0.007521519
253	0x3e9974a5	0.29971805
254	0x3d3a64a8	0.04550615
255	0x3cd06582	0.025439028

conv3.bias f4 [64]
0	0xbd203521	-0.039113168
1	0xbcb844a2	-0.022493664
2	0x3cda5f8a	0.026656885
3	0x3ba7f8e6	0.0051261066
4	0x3c07f25e	0.008297531
5	0xba988956	-0.0011637609
6	0xbd212edf	-0.03935134
7	0xbc462aba	-0.012095148
8	0xbc0ea424	-0.008706126
9	0xbc91a666	-0.01777954
10	0x3c2060ac	0.009788673
11	0xbd0615df	-0.0327357
12	0x3c8dbeef	0.017302958
13	0x3b11f5dc	0.0022271788
14	0x3b3f3268	0.0029174332
15	0x3c28f666	0.010312652
16	0xbb0e24e3	-0.0021689467
17	0x3c6ce3cf	0.014458611
18	0x3cf57c09	0.029966371
19	0x3c14c7a8	0.009080805
20	0xbc7363d8	-0.014855348
21	0x3cae9b40	0.021314263
22	0xba76b156	-0.00094105804
23	0x3ce6ef09	0.028190153
24	0x3c73b773	0.014875281
25	0x3cf05ca3	0.029341048
26	0x3cbf6edf	0.023368297
27	0xbd02d7a8	-0.031943947
28	0x3d4d01f9	0.05005071
29	0x3d0e2fae	0.03471344
30	0xbc987416	-0.018610042
31	0xbd0afa08	-0.033929855
32	0x3d14f2ef	0.036364492
33	0xbd20d929	-0.0392696
34	0x3cd6ccbc	0.026220672
35	0x3c34e30d	0.011040461
36	0xba0e8156	-0.00054361427
37	0xbc9c81fc	-0.01910495
38	0x3c33c19d	0.010971454
39	0x3d065480	0.03279543
40	0x3d227835	0.03966542
41	0x3ad15eb3	0.0015973657
42	0x3c161fa2	0.009162815
43	0x3cf51513	0.029917276
44	0x3c378d0c	0.011203062
45	0x3ca25de9	0.01982017
46	0x3d0d71b0	0.03453225
47	0xbce72b4e	-0.028218891
48	0xbcd8797f	-0.026425121
49	0x3d002fc6	0.03129556
50	0xbd2a3ce8	-0.04156199
51	0xbb86ce19	-0.004113924
52	0x3cffda98	0.031232163
53	0x3cf55284	0.029946573
54	0x3d366d10	0.044537604
55	0xba764bb3	-0.00093954353
56	0xbd0cc124	-0.03436388
57	0x3ccdea56	0.025136154
58	0xbc23c712	-0.0099961925
59	0xbb842181	-0.0040323143
60	0x3b700d52	0.0036629033
61	0x3d0ed67a	0.03487251
62	0x3cec2f0c	0.028831027
63	0xbc33c53e	-0.010972319

bn3.weight f4 [64]
0	0x3f5b92a0	0.85770607
1	0x3f7b0018	0.9804702
2	0x3f7dae04	0.9909365
3	0x3f9aa427	1.2081345
4	0x3f85b951	1.0447179
5	0x3f712606	0.94198644
6	0x3f6163c4	0.88042855
7	0x3f878692	1.0587943
8	0x3f89e062	1.0771601
9	0x3f859960	1.0437431
10	0x3f6f02a3	0.933634
11	0x3f8ea033	1.1142639
12	0x3f506705	0.81407195
13	0x3f80b665	1.0055662
14	0x3f7feb2e	0.9996823
15	0x3f590ac5	0.8478206
16	0x3f8ad9fa	1.0847771
17	0x3f7857a8	0.9700875
18	0x3f86b8e1	1.052517
19	0x3f5b5702	0.8567964
20	0x3f67501e	0.90356624
21	0x3f5c1a1c	0.8597734
22	0x3f525e2a	0.8217493
23	0x3f4ab286	0.79178655
24	0x3f80d2d0	1.0064335
25	0x3f6026e8	0.87559366
26	0x3f8c024d	1.0938202
27	0x3f64a005	0.8930667
28	0x3f64be57	0.89352936
29	0x3f8100a9	1.0078326
30	0x3f818833	1.011969
31	0x3f92b0ec	1.1460242
32	0x3f87d173	1.0610794
33	0x3f990249	1.1953822
34	0x3f7b50f5	0.98170406
35	0x3f5ed599	0.87044674
36	0x3f6603ff	0.8984985
37	0x3f7dd6a2	0.9915563
38	0x3f947c2f	1.1600398
39	0x3f8de83e	1.10865
40	0x3f8d8d9a	1.1058838
41	0x3f5f32f3	0.8718712
42	0x3f6b6f94	0.9196713
43	0x3fa11609	1.258485
44	0x3f8872f1	1.0660077
45	0x3f7271ed	0.94705087
46	0x3f90594b	1.127725
47	0x3f3f5941	0.74745566
48	0x3f711262	0.94168675
49	0x3f4cdeac	0.8002727
50	0x3f9767f1	1.1828595
51	0x3f5c13f8	0.8596797
52	0x3f98f1be	1.1948774
53	0x3f768379	0.9629436
54	0x3f92c3c2	1.146599
55	0x3f8eac98	1.1146421
56	0x3f9b9cc3	1.2157215
57	0x3f37c947	0.717915
58	0x3f94d920	1.1628761
59	0x3f714527	0.94246143
60	0x3f5d4e6a	0.86447775
61	0x3f95f3b4	1.1714997
62	0x3f756a73	0.95865554
63	0x3f67e3bb	0.90581864

bn3.bias f4 [64]
0	0xbe591aa9	-0.21201576
1	0xbef04ac5	-0.46932045
2	0x3c118b19	0.008883261
3	0xbe84ddfe	-0.25950617
4	0xbe4c6840	-0.19961643
5	0xbe1ecfca	-0.15508953
6	0xbe09c761	-0.13454963
7	0xbe791b4e	-0.24326822
8	0xbdf79680	-0.120892525
9	0xbe4f7f2e	-0.20263359
10	0xbe154881	-0.1457844
11	0xbee501b5	-0.44727865
12	0xbe40a334	-0.18812257
13	0x3de00454	0.109383255
14	0xbdf37b62	-0.11888768
15	0xbde1b273	-0.110203646
16	0xbd9ba091	-0.07598985
17	0xbdbe76d9	-0.09300012
18	0xbe8aa250	-0.2707696
19	0xbe911493	-0.2833601
20	0xbe552383	-0.20814328
21	0xbe481a64	-0.19541317
22	0xbe851b05	-0.25997177
23	0xbe89d81a	-0.26922685
24	0xbec9789a	-0.39349824
25	0xbe25225c	-0.16126388
26	0xbf04eb6a	-0.51921713
27	0xbdcfc544	-0.10145047
28	0xbd8e48f8	-0.069475114
29	0xbe8ebd1a	-0.27878648
30	0xbd852337	-0.06500857
31	0xbeaed80c	-0.34149206
32	0xbe462b66	-0.19352493
33	0xbd4afa43	-0.049555074
34	0x3de2ebb5	0.11080114
35	0xbd7213a7	-0.059100773
36	0xbd84cac4	-0.06483987
37	0xbe450fc7	-0.192443
38	0xbe2ebdf7	-0.17064653
39	0xbe6d24e4	-0.23158604
40	0xbe609cb4	-0.21934777
41	0xbe80f86a	-0.25189525
42	0xbe89ac08	-0.26889062
43	0xbe82a900	-0.25519562
44	0xbec39c66	-0.3820526
45	0xbe93a8b5	-0.2883965
46	0xbe5c969c	-0.21541828
47	0xbe6a2ce4	-0.22868687
48	0xbdf318a6	-0.11869936
49	0xbe5f337f	-0.21796988
50	0xbe277159	-0.16351832
51	0xbed7b2cd	-0.42128602
52	0x3d85f96d	0.06541715
53	0xbda700be	-0.081544384
54	0xbda81159	-0.08206434
55	0xbe81d94f	-0.25361106
56	0xbe26ff2a	-0.16308275
57	0xbe9acc7a	-0.30234128
58	0xbea2a5d0	-0.3176713
59	0xbdf859a8	-0.121264756
60	0xbe97062b	-0.29496893
61	0xbe9e40f4	-0.3090893
62	0xbe0950f2	-0.13409784
63	0xbe53ea0b	-0.20694749

bn3.running_mean f4 [64]
0	0xc01b8c32	-2.4304318
1	0xc0005933	-2.0054443
2	0xbf8b2baf	-1.0872706
3	0xc046dbea	-3.1071725
4	0xbf443651	-0.7664538
5	0x3f6c8ac3	0.92399234
6	0x3ef1c369	0.472194
7	0xbff95814	-1.9480004
8	0x3e3ff814	0.18746978
9	0xbf100777	-0.5626139
10	0xbef1b6dc	-0.47209823
11	0xbf332456	-0.6997732
12	0xc0167f80	-2.351532
13	0x409ae281	4.8401494
14	0x3fe4c4d0	1.7872562
15	0x3e8656e9	0.26238182
16	0x3fa3785f	1.2771109
17	0x401b52dd	2.4269326
18	0xc0a3455a	-5.102216
19	0x3f123266	0.5710815
20	0xc069ac5d	-3.6511452
21	0x3fd548a1	1.666279
22	0xbfa16bd1	-1.2611028
23	0x3bbfffb2	0.0058593387
24	0xbff0c9f2	-1.8811629
25	0x3f1a971c	0.60386825
26	0xbf33d7a7	-0.70250934
27	0x3ff398a4	1.9030957
28	0xbf668e62	-0.9006101
29	0xbfa0cad0	-1.2561893
30	0xbf930ffe	-1.1489255
31	0xc032a36f	-2.7912252
32	0xc0300444	-2.7502604
33	0xc0d09f46	-6.5194426
34	0x3de8ad97	0.11361235
35	0xbf8cb35e	-1.0992239
36	0xc08c5a50	-4.3860245
37	0x3fd9bc38	1.7010565
38	0xc0de2afb	-6.9427466
39	0xbf559e34	-0.83444524
40	0xbeaa7fc0	-0.3330059
41	0x404378bf	3.0542448
42	0x3f87114f	1.0552157
43	0xbe57343e	-0.21016023
44	0xbff37d6c	-1.9022651
45	0xc0679e2c	-3.619029
46	0xbf94f695	-1.1637751
47	0xbaaf6f01	-0.0013384522
48	0x3f4c8ca5	0.79902107
49	0xc001db89	-2.0290244
50	0xc093752d	-4.6080537
51	0xbe82fdb6	-0.2558419
52	0xc0cec3c3	-6.4613967
53	0xc02e46fb	-2.7230823
54	0xc0a8adfc	-5.2712383
55	0xc093ec56	-4.6225996
56	0x3ff37212	1.9019186
57	0x3f9e96dc	1.2389789
58	0x4015a19f	2.3379896
59	0xc09be23f	-4.871368
60	0x3f500028	0.8125024
61	0xc062bd16	-3.542791
62	0xbfe32a9b	-1.7747377
63	0xbf704ab3	-0.9386398

bn3.running_var f4 [64]
0	0x418fea6f	17.98947
1	0x41231972	10.193712
2	0x41189bac	9.538006
3	0x415b7c8f	13.71791
4	0x4136b685	11.41956
5	0x411cb178	9.793327
6	0x415707f6	13.439444
7	0x4156d6ec	13.427471
8	0x4166cbb2	14.42473
9	0x4152a006	13.164068
10	0x413ce8af	11.8068075
11	0x4132b864	11.170017
12	0x411221a5	9.133214
13	0x4151b96a	13.107767
14	0x413a6d6a	11.651712
15	0x413d28e2	11.822481
16	0x4154b365	13.2937975
17	0x4128ef36	10.558401
18	0x41a38653	20.440588
19	0x413ffb1c	11.998806
20	0x41128f7d	9.160031
21	0x41291e76	10.569937
22	0x41183ab0	9.514328
23	0x41286c9c	10.526516
24	0x414394c6	12.223822
25	0x410b52e4	8.707737
26	0x410eff8e	8.937391
27	0x41139962	9.224947
28	0x414a42b5	12.641286
29	0x41577861	13.466889
30	0x41164bcd	9.393506
31	0x4131046a	11.063578
32	0x4171803e	15.093809
33	0x41e9608e	29.172146
34	0x41443f60	12.265472
35	0x412666d1	10.400102
36	0x41a411d1	20.5087
37	0x4123e671	10.24376
38	0x41b89034	23.070412
39	0x414ae135	12.679982
40	0x414cfe31	12.812058
41	0x4105bb9d	8.358304
42	0x411bb461	9.731538
43	0x4150b939	13.04522
44	0x412cf35a	10.809412
45	0x4198974c	19.073875
46	0x415f392b	13.951457
47	0x413a245d	11.633878
48	0x4111e7e9	9.119119
49	0x415e75ea	13.903788
50	0x40ed1dfe	7.409911
51	0x410af45b	8.684657
52	0x41b08dde	22.069271
53	0x4113d4ae	9.239424
54	0x41b2ab92	22.333775
55	0x41992e2d	19.147547
56	0x4148a40e	12.540052
57	0x4122189f	10.131011
58	0x417e6b62	15.9012165
59	0x41580230	13.500534
60	0x41288727	10.532996
61	0x412f7a63	10.96738
62	0x4147bf16	12.484152
63	0x4129a13b	10.601863

fc1.weight f4 [128, 576]
0	0xbe125779	-0.1429118
1	0xbe1710cf	-0.14752506
2	0xbc0ea08d	-0.0087052705
3	0xbd064c8f	-0.032787856
4	0x3e1178e7	0.14206277
5	0x3d7f4804	0.06232454
6	0x3c207545	0.009793584
7	0x3dac6f3f	0.08419656
8	0x3e0cac30	0.1373756
9	0x3d8c8c1b	0.068626605
10	0x3d3aa7f3	0.045570325
11	0xbd33e7ed	-0.043922354
12	0x3d3f01f5	0.046632726
13	0x3cf673b4	0.030084468
14	0xbe2fcec1	-0.17168714
15	0x3dc01def	0.093807094
16	0xbccea2ed	-0.025224173
17	0x3d6acf02	0.057326324
18	0x3d38d66e	0.04512637
19	0x3dbe5765	0.09294013
20	0x3b6b3002	0.003588677
21	0x3dfbd55e	0.12296556
22	0x3e48e4d0	0.19618535
23	0xbd707275	-0.058702905
24	0xbd818895	-0.06324879
25	0xbe451101	-0.19244768
26	0xbe212a89	-0.15738882
27	0x3da12b52	0.07869591
28	0x3de08ecb	0.109647356
29	0xbd02b43d	-0.03191017
30	0x3d01b02b	0.031662147
31	0x3da2ff5a	0.07958861
32	0xbcfaf957	-0.030636473
33	0xbbe603c2	-0.007019491
34	0xbd53b165	-0.05168285
35	0x3da64275	0.081181444
36	0x3ac69a44	0.0015152176
37	0x3cd3572f	0.025798408
38	0x3dc8080b	0.09767159
39	0xbb14b297	-0.0022689456
40	0xbdaf8ebc	-0.08572146
41	0x3d917309	0.07102019
42	0x3d06d42b	0.032917183
43	0xbcdc28b0	-0.02687487
44	0xbe16fcef	-0.14744924
45	0xbe2da7f8	-0.16958606
46	0xbca27e9c	-0.019835763
47	0xbd4e5552	-0.050374337
48	0xbd2e3a35	-0.04253598
49	0x3dbe5c9e	0.09295009
50	0xbd9e5241	-0.077305324
51	0xbe6cd851	-0.23129393
52	0x3d736f19	0.059432123
53	0xbb3f8260	-0.0029221997
54	0x3cf88618	0.030337378
55	0x3cbbb125	0.022911618
56	0xbd65c7df	-0.056098815
57	0xbd5a4f22	-0.053298123
58	0xbd868828	-0.065689385
59	0xbacba19a	-0.0015535832
60	0x3c80487b	0.015659561
61	0x3e40e330	0.18836665
62	0xbe153b43	-0.14573388
63	0xbdd5e67d	-0.10444353
64	0xbcc06e94	-0.023490228
65	0x3cf2160f	0.029551534
66	0xbc7c7bb8	-0.015410356
67	0xbd84971f	-0.064741366
68	0x3dc069a9	0.09395153
69	0xbdb1ecd0	-0.086877465
70	0xbc990ecb	-0.018683812
71	0xbd6f2191	-0.05838162
72	0xbdb8b50b	-0.09018906
73	0xbd941592	-0.07230677
74	0xbcbfbef5	-0.023406485
75	0x3c8f00bf	0.01745641
76	0xbd6950c8	-0.056961805
77	0x3e143d97	0.1447662
78	0x3d93c15b	0.07214614
79	0x3c539cac	0.012915771
80	0xbd9505ec	-0.0727652
81	0xbe29d091	-0.16583468
82	0xbd72ab2e	-0.05924528
83	0x3d4fd5ec	0.05074112
84	0x3c9fb528	0.019495562
85	0xbdfb6164	-0.12274435
86	0x3e003d69	0.12523426
87	0x3de42001	0.11138917
88	0x3d4b522f	0.049638923
89	0xbdea1470	-0.114296794
90	0x3d5ca666	0.053869627
91	0xbe74b165	-0.23895796
92	0xbde2145c	-0.110390395
93	0x3d6ae6bc	0.05734895
94	0x3d8c969d	0.06864665
95	0xbd772a81	-0.06034327
96	0xbde420a5	-0.11139039
97	0xbe279650	-0.16365933
98	0xbb8fdfb3	-0.0043906807
99	0xbe1bfaf4	-0.1523245
100	0x3bd8a64e	0.006611622
101	0x3d0bf953	0.03417332
102	0x3ca06233	0.019578075
103	0xbd8768c6	-0.06611781
104	0xbdf562bf	-0.11981725
105	0x3db4f0a2	0.088349596
106	0x3d3d35fa	0.046194054
107	0x3ca9fce0	0.020750463
108	0xbd789a74	-0.060694173
109	0x3d822cde	0.06356214
110	0xbd0479ce	-0.032342725
111	0x3c724959	0.014787995
112	0xbd4e43b1	-0.050357524
113	0xbc2408df	-0.010011881
114	0xbda91333	-0.08255615
115	0xbd0ca0d2	-0.034333058
116	0x3e2bf3c1	0.16792203
117	0x3c840f42	0.016120557
118	0xbd1905ef	-0.037359174
119	0xbd58ef01	-0.052962307
120	0xbb5fe100	-0.003416121
121	0x3df53fe9	0.119750805
122	0xbdd68fe7	-0.10476666
123	0x3c59f2da	0.013302529
124	0xbcce10f6	-0.025154572
125	0xbdc556bb	-0.09635683
126	0x3d5fd97b	0.054650765
127	0x3d213b2c	0.03936307
128	0xbd928083	-0.07153418
129	0x3d5ff332	0.05467529
130	0x3cfef000	0.0311203
131	0xbdab826b	-0.08374485
132	0xbe0a0512	-0.13478497
133	0x3d24054c	0.040044114
134	0xbcac9374	-0.021066405
135	0x3bffccbf	0.00780639
136	0x3afd12eb	0.0019308006
137	0x3d419e96	0.04727038
138	0x3e411569	0.18855824
139	0x3cfa1ddb	0.030531814
140	0xbdbadac8	-0.091237605
141	0x3e39f754	0.18160754
142	0xbcf0cff8	-0.029396042
143	0xbda33190	-0.07968438
144	0xbbb69105	-0.005571487
145	0x3d154592	0.0364433
146	0xbdfa1bbc	-0.12212321
147	0x3d9e3325	0.07724599
148	0xbe59751c	-0.2123608
149	0xbe16b6ed	-0.14718218
150	0x3e632775	0.2218302
151	0xbc11fccd	-0.00891037
152	0xbdbd7e84	-0.092526466
153	0x3dda9e16	0.10674684
154	0xbb43014e	-0.0029755416
155	0x3e026415	0.12733491
156	0xbe01ddd2	-0.12682274
157	0xbd4880ae	-0.048950844
158	0xbd89afb6	-0.06722967
159	0xbd626e8f	-0.05528122
160	0x3d74e349	0.05978707
161	0x3e2cc903	0.16873555
162	0x39a9d473	0.0003239248
163	0x3da57f83	0.080809616
164	0x3e20462d	0.1565177
165	0xbd20562b	-0.039144676
166	0x3b64c55e	0.003490768
167	0xbde3c014	-0.1112062
168	0x3de24b8e	0.11049567
169	0x3e399e40	0.18126774
170	0xbc9cec0b	-0.019155523
171	0x3d624c51	0.055248562
172	0x3c76a13f	0.0150530925
173	0x3d0069f9	0.031351063
174	0x3d3648d8	0.044503063
175	0xbd0e50d9	-0.03474507
176	0xbd0d0545	-0.034428854
177	0xbe456d20	-0.19279909
178	0x3c858403	0.0162983
179	0xbd70209b	-0.058624845
180	0xbcfbe5e1	-0.030749263
181	0xbcf94fa0	-0.030433476
182	0x3d5b89eb	0.053598326
183	0xbd9241c4	-0.0714145
184	0xbcf4a463	-0.029863542
185	0xbddad523	-0.10685184
186	0xbdcf9379	-0.1013555
187	0x3bd5b4c9	0.0065217954
188	0xbd40bf5a	-0.047057487
189	0x3b3090f0	0.0026941858
190	0x3e0b3a62	0.1359649
191	0xbc47939d	-0.01218119
192	0x3caea6f6	0.021319848
193	0x3e329208	0.17438519
194	0x3d701f68	0.0586237
195	0xbcd70eee	-0.026252236
196	0xbcab6717	-0.02092318
197	0xbd26e9ab	-0.040750187
198	0xbe072ac8	-0.13199914
199	0xbdd4b626	-0.103863046
200	0xbd2d3be2	-0.042293437
201	0x3c6554aa	0.013997236
202	0xbe0faddc	-0.14031166
203	0x3d5a50f7	0.05329987
204	0xbd2b3a89	-0.04180387
205	0x3e50284b	0.2032787
206	0x3e7ee1c7	0.24890815
207	0x3bbf02c6	0.005829188
208	0xbdcabd8d	-0.09899435
209	0x3d1e1acf	0.038599785
210	0x3aebc401	0.0017987491
211	0x3d9514c4	0.07279351
212	0x3dba5442	0.09098102
213	0xbd2bdb2e	-0.041957073
214	0xbd8dac05	-0.06917576
215	0x3dd07691	0.10178865
216	0x3e06aa7c	0.13150972
217	0xbda27d5d	-0.079340674
218	0xbc68fae3	-0.014219972
219	0xbdae3cb2	-0.085076705
220	0xbdbf7821	-0.09349085
221	0x3d8e000d	0.069336034
222	0xbd55a670	-0.05216068
223	0x3d3f07ec	0.046638414
224	0x3d919635	0.07108728
225	0xbe3daea3	-0.1852365
226	0x3d0a4f4d	0.033767033
227	0x3bbea6c2	0.005818219
228	0x3cacee39	0.021109687
229	0xbdc7faf2	-0.09764661
230	0x3db7b289	0.089696
231	0x3dee8cb4	0.11647931
232	0x3d7cfae0	0.06176269
233	0x3c59fe68	0.013305284
234	0xba7bfe9f	-0.00096128316
235	0xbd92e611	-0.07172788
236	0x3d62503a	0.05525229
237	0x3d916168	0.07098657
238	0x3c91b278	0.017785296
239	0xbdb46ee2	-0.08810212
240	0xbc4676a0	-0.012113243
241	0x3dca3171	0.098727114
242	0x3e93b180	0.2884636
243	0xbd02af9a	-0.031905748
244	0x3d7dfbea	0.062007822
245	0xbddf4903	-0.10902598
246	0x3d6c803e	0.05773949
247	0xbea64b7f	-0.32479474
248	0x3e1101cb	0.1416084
249	0xbd198b0a	-0.037486114
250	0x3df246e3	0.11829927
251	0x3d77dd2c	0.06051366
252	0xbd0ba78a	-0.034095325
253	0x3d892c9f	0.06697964
254	0x3d8241f7	0.06360238
255	0x3d8943eb	0.067024074
