backup/rotate+gan+3samples_2.pth (torch, 537624 bytes, 26 tensors)

conv1.weight f4 [32, 1, 3, 3]
000000 59 23 5e 3e c2 a5 a2 bd 02 db f3 be b0 d8 39 be
       0.21693172 -0.07941772 -0.47628027 -0.18149066
000010 af 38 cb be 87 4a 00 be 08 f1 e5 3b 99 ba 4c be
       -0.39691684 -0.1252843 0.0070172586 -0.19993056
000020 62 1d 3e 3e e0 50 93 3e 3c 85 4a 3d 7b 10 42 bc
       0.18565896 0.2877264 0.04944347 -0.01184475
000030 f7 cd 8a be 0e 4a 25 be 88 2f 48 be 23 1f 66 bd
       -0.27110264 -0.16141531 -0.19549382 -0.056182038
000040 22 56 23 bd 07 2b 77 3e a8 9f 90 3d ab 54 64 3e
       -0.039877065 0.24137507 0.07061702 0.22297923
000050 f7 fc 18 bc 61 70 b5 be 85 a4 a2 3d 21 a4 d7 3d
       -0.009337655 -0.354373 0.07941536 0.10529352
000060 d5 09 9b be 99 b1 a3 be ae 26 7f be 50 06 40 be
       -0.3028094 -0.31971434 -0.24917099 -0.18752408
000070 7a 2e b5 be 30 26 84 be c8 d7 9f be 72 8d 16 be
       -0.3538702 -0.25810385 -0.31219316 -0.14702395
000080 f5 55 94 3d 0f 05 a9 bd 11 16 37 3e 7f ef 45 3e
       0.072429575 -0.08252918 0.17879511 0.19329642
000090 f7 7a 73 be c0 fa 08 be f9 fa 1d 3e d2 96 b6 be
       -0.23777376 -0.13376904 0.1542777 -0.35661942
0000a0 70 a7 36 3d 73 e5 b4 3e 08 60 c5 bd 5c 33 a9 3c
       0.044593275 0.35331306 -0.09637457 0.020654373
0000b0 17 79 97 3e 5c 74 8f 3d fd 62 b7 bd 83 3c 9c 3c
       0.29584572 0.07004616 -0.089544274 0.019071823
0000c0 62 4c 8b 3d f5 fd 47 3e 3c 86 8a be 54 2d 18 3d
       0.06801678 0.1953047 -0.27055538 0.037152603
0000d0 d0 46 5c be 33 1c bb 3e 00 10 81 bd ad 1c b7 3e
       -0.21511388 0.36544952 -0.0630188 0.35764065
0000e0 ad 9f 87 3e 00 95 49 3e f0 b7 b6 3c f8 76 8a 3e
       0.2648901 0.19685745 0.022304505 0.2704389
0000f0 ac dc 91 3e a8 f2 b1 3e bf 06 4a 3e 18 66 d9 3c
       0.28488672 0.34755445 0.19729136 0.02653794
000100 45 a8 af bc b2 13 bf be 5c d9 0f 3d e0 86 a3 3e
       -0.021442542 -0.37319714 0.0351194 0.3193884
000110 b7 d6 e0 bd b8 a5 f2 bd 9f 56 fa 3d 18 6e e2 3d
       -0.109784536 -0.118480146 0.12223553 0.11056155
000120 8a f0 04 3e 85 d6 82 bd 08 62 a5 be 5f a8 a8 be
       0.12982383 -0.063885726 -0.32301354 -0.32940957
000130 63 f4 56 3e 6a c1 bc 3e f3 da 5c be 4c bf ea 3d
       0.20991664 0.36866313 -0.21567897 0.11462268
000140 a7 3f 69 be 63 7b ab be 68 05 63 be 70 f6 70 be
       -0.22778188 -0.33492574 -0.22170031 -0.23531508
000150 d3 89 8b 3b d2 8f 52 3c 41 0c a3 3c 1a df 4e 3e
       0.0042583733 0.012851672 0.019903304 0.20202294
000160 4a 7b ad 3e 4e 62 81 3e 7e 90 2a be bf 12 3a 3c
       0.33883125 0.25270313 -0.16656682 0.0113570085
000170 75 a5 8a 3e 2a 1e 60 be bd 52 a5 be 4f ba f0 bd
       0.2707936 -0.21886507 -0.32289687 -0.117542855
000180 3f b3 99 3e 6a c6 59 be 9c 6f 72 bd 25 1d db 3d
       0.30019566 -0.21267095 -0.05918847 0.10698918
000190 9e 3b 74 3e e1 b4 89 3e 4c de 7a 3e 86 4b 26 3e
       0.23850867 0.26895812 0.24498862 0.16239747
0001a0 27 04 32 3e d1 42 3c 3e e4 35 80 3e 15 87 7f 3b
       0.17384396 0.18384863 0.25041115 0.0038990427
0001b0 26 6e 0b be ed 78 c1 bc 0b 87 b9 be a8 dd 84 bb
       -0.13616237 -0.023617232 -0.36235842 -0.004054744
0001c0 01 9d d2 3c 25 99 94 be 77 8d 94 3e 8e aa a4 3d
       0.02570963 -0.2902309 0.2901418 0.08040343
0001d0 c7 ea a2 be 02 ed c9 be 97 b7 be bd 44 c3 23 be
       -0.31819746 -0.39438635 -0.09312361 -0.15992457
0001e0 2f 9f fd ba 4d 7e 46 be 42 cb fc bd fe 51 59 3e
       -0.0019349809 -0.19384117 -0.12343456 0.21222684
0001f0 4c b0 50 3e 29 e0 96 3c 6a c1 95 be 20 1f 63 3e
       0.20379752 0.018417435 -0.29249126 0.22179842
000200 aa 70 f6 3d e4 aa d8 be 3d 88 50 be 6c 6e b8 bd
       0.12033208 -0.4231788 -0.20364471 -0.09005436
000210 55 7e 2a 3d 92 21 43 be 9e 95 1f 3d 0b cb c9 3e
       0.041624386 -0.19055775 0.038961045 0.39412722
000220 6a 91 fb bd 1f 99 b4 bd 2e db bb bd 0b 40 e2 be
       -0.12283595 -0.08818268 -0.091726646 -0.44189486
000230 d2 e0 03 be ae b3 38 3c 13 d9 a1 bc 77 dc a9 3e
       -0.12878731 0.011273308 -0.01975683 0.33176014
000240 7d ea 10 be d1 16 94 bb 87 4b 49 3d f5 0c 90 be
       -0.1415195 -0.0045193215 0.049144294 -0.28134885
000250 15 65 cd be e5 74 ab be 5f c5 a2 3e 96 4f 7a 3e
       -0.40116182 -0.3348762 0.31791207 0.24444422
000260 14 e8 62 bd 2e e1 75 3e c1 eb 34 3e 07 26 ba be
       -0.05539711 0.2401168 0.17668058 -0.36357138
000270 9b cf af bd 94 bc 4b bd d9 9e 41 be 12 d2 9c 3d
       -0.085845195 -0.04974039 -0.18908252 0.07657255
000280 88 08 9e be e2 89 b4 be f0 14 99 3e 3e a4 95 be
       -0.30865884 -0.35261446 0.29898787 -0.2922687
000290 4a 18 93 3d d7 0f 3b be b4 09 0d be 8a c9 d2 3b
       0.07182367 -0.18267761 -0.13773233 0.0064327167
0002a0 8f 95 9e 3e 47 77 92 be 54 a3 1e 3e 18 99 86 3c
       0.3097348 -0.28606626 0.15491992 0.016430423
0002b0 2d ea 54 be 2d 8d a1 be b3 3d d9 3e 22 82 8c 3d
       -0.20792456 -0.3155302 0.42429885 0.06860758
0002c0 60 92 b4 be 4a 60 83 3e 38 47 a8 bd 3b bd 83 3d
       -0.35267925 0.256594 -0.08216709 0.06432577
0002d0 b0 25 2d bd ae 47 10 be f7 64 90 3e 3c 1a 24 3e
       -0.04227227 -0.14089844 0.2820203 0.16025633
0002e0 e0 31 cc bd 77 5b 15 3d 1a e4 98 be b8 24 55 be
       -0.099704504 0.03646418 -0.29861528 -0.20814788
0002f0 2f a7 ae bd 07 ef 89 3e 33 a0 a6 3e 47 42 82 3e
       -0.085279815 0.26940176 0.32544097 0.2544119
000300 50 39 84 be f9 ce 74 bc 85 3e d2 3d de 22 5b be
       -0.25824976 -0.014941924 0.10265831 -0.2140002
000310 c1 de c4 be 3a 8a f2 bd 9e 22 bf 3e 5a 04 c2 3c
       -0.38451198 -0.11842771 0.37331098 0.023683716
000320 0b 37 65 be 39 2f 64 3e 7f dc 7b 3d 4b 17 bb be
       -0.22384278 0.22283639 0.06148958 -0.3654121
000330 d5 8b bb bd ab ba 90 3d 42 db 8e be e0 cc b8 3d
       -0.0915753 0.07066854 -0.27901655 0.09023452
000340 1c 38 4e 3e 96 fc 6a be f7 e1 36 be fe 47 aa be
       0.20138592 -0.22947916 -0.17859636 -0.3325805
000350 32 c9 85 be ae 16 62 be 5e eb 90 3c df a6 f4 3d
       -0.26130062 -0.22078964 0.017690357 0.11945891
000360 ba 91 90 be c0 86 30 bd 32 41 cc bc 0e b2 b2 bd
       -0.2823618 -0.043097258 -0.024933431 -0.087253675
000370 21 2d 3a be d6 7c 32 3e 8d 7a 31 be 05 02 34 be
       -0.18181278 0.17430434 -0.17331906 -0.17578895
000380 a4 58 2f 3e cd 79 fd bd 92 68 2f 3e 3f f4 94 3e
       0.17123657 -0.12376747 0.17129734 0.29092595
000390 4a c4 20 3e 90 36 4b 3b 39 3b c5 3d 0f c3 c0 be
       0.15699878 0.0031007864 0.096304365 -0.37648818
0003a0 4d ee ad be 75 3a c1 be 33 da 26 bc 70 76 11 3d
       -0.33970872 -0.37739912 -0.010183859 0.03551334
0003b0 9d 0c 86 3e 3d 8d 1e be b8 45 09 bd b7 92 3d 3e
       0.26181498 -0.15483566 -0.033513755 0.18512999
0003c0 0b e8 ba be b5 e8 0b be eb 1f 85 3e 80 d7 2d 3e
       -0.3650516 -0.1366299 0.26000914 0.16976738
0003d0 44 9e ca be fb 64 d3 be 1e d7 0b be a2 68 63 be
       -0.39573872 -0.4128798 -0.1365628 -0.22207883
0003e0 d1 0d 35 be 96 07 83 3e 23 5e fe be c1 5e ae bc
       -0.17681052 0.25591725 -0.49681196 -0.021285417
0003f0 80 4e 6a be e9 51 95 be d7 3e a8 be bc 10 4a be
       -0.22881508 -0.29164055 -0.32860443 -0.19732946

conv1.bias f4 [32]
000000 98 c0 bf bc 7e 05 05 be f0 e6 35 3d 0f 1a 1c be
       -0.023407266 -0.12990376 0.044409692 -0.15244316
000010 4b 5d 26 3d ac 9d 89 3e c4 b4 a4 3e d7 b9 51 be
       0.040616315 0.26878107 0.32169163 -0.20481049
000020 5c c9 4e be f8 2d a2 3d eb a0 16 3e 2f 66 f2 bd
       -0.20194 0.07918924 0.14709823 -0.11835896
000030 1e 8d ad be aa a6 70 be a8 3d 8f 3e 72 21 8e bd
       -0.33896726 -0.23501077 0.27976727 -0.06939973
000040 1b 15 6a 3e 2c 98 4a 3e 22 87 04 3e c1 0e 8a be
       0.22859614 0.19784611 0.12942174 -0.2696438
000050 14 1a 6d 3e 79 17 92 be 6a 6b a9 bc e7 f7 86 be
       0.2315448 -0.28533533 -0.020681102 -0.2636101
000060 32 3a 67 be e0 bb 98 be 63 b6 2d 3e e2 02 ed 3d
       -0.22580793 -0.29830837 0.16964106 0.115728155
000070 cc a8 81 be 7c f8 4e bd 10 af 79 bd d3 10 33 be
       -0.25324094 -0.050529942 -0.06095797 -0.17486887

bn1.weight f4 [32]
000000 f7 4b 71 3f 84 49 83 3f 3e eb 9c 3f ea 74 99 3f
       0.9425654 1.025681 1.225929 1.1988804
000010 cc 9a 86 3f 8f 3c 07 3f a5 4f 0c 3f fd a1 74 3f
       1.051599 0.5282678 0.5480903 0.95559675
000020 3b 2b 80 3f 32 c8 81 3f f7 62 b0 3f 23 6f 4d 3f
       1.0013193 1.013922 1.3780202 0.80247706
000030 38 25 9c 3f d1 f5 85 3f 6a 18 9c 3f c7 5c 67 3f
       1.2198858 1.0465642 1.219495 0.9037594
000040 2f eb 7e 3f 15 47 91 3f 5e c2 36 3f b1 c3 82 3f
       0.9957761 1.1349818 0.7139033 1.021597
000050 7a d1 4a 3f 11 6d 7b 3f 7b e5 84 3f 15 77 b9 3f
       0.79225886 0.982133 1.0382532 1.4489466
000060 c7 72 98 3f 75 9b 7b 3f 98 7b 7e 3f fa 2c 97 3f
       1.1910027 0.98284084 0.9940734 1.1810601
000070 6f 96 a3 3f 30 6e 8f 3f d5 33 35 3f c6 d9 8a 3f
       1.2780284 1.1205502 0.70782214 1.0847709

bn1.bias f4 [32]
000000 fd 5a 2a be 95 11 1e bd 19 31 6b be 6b 7d 29 bd
       -0.16636272 -0.038590986 -0.22967948 -0.041379374
000010 6f 9a 4f be 5c e2 80 be 75 73 e7 be 4f fa a7 3b
       -0.20273755 -0.25172698 -0.45205274 0.0051262747
000020 7b ed dc 3d 6d 66 dd 3d 6a 23 1a be bc 1f e6 be
       0.10787483 0.10810552 -0.15052572 -0.44946086
000030 5a 4c a5 bd db 95 e6 bd e2 37 c7 bd e7 b0 21 3c
       -0.080712035 -0.112590514 -0.09727456 0.009868837
000040 13 62 eb bd dd 79 4e bc a4 7b 12 bd 68 b9 39 3e
       -0.114933155 -0.012602297 -0.035762444 0.18137133
000050 12 18 90 3b 6d 0a 66 bd ca 00 09 3d 52 a5 83 bd
       0.0043974007 -0.056162287 0.033448018 -0.06428017
000060 b3 3f fb bd 68 41 11 be bc a1 27 be 4e de 65 bd
       -0.12268009 -0.14185107 -0.1637029 -0.05612021
000070 2f 01 f4 bc 20 88 34 bd 02 2b e0 bc ef b5 9b be
       -0.02978572 -0.04407513 -0.027364258 -0.30412242

bn1.running_mean f4 [32]
000000 0b 09 09 bd ec 9f fc bd 7a dc ca 3c 9b dc 2c be
       -0.03345589 -0.1233519 0.024763335 -0.1688103
000010 65 4d 2a 3d 53 db 8c 3e 13 3d b8 3e cf c2 5c be
       0.041577715 0.2751108 0.35984096 -0.21558689
000020 55 6b 5f be 9c f9 a0 3d 93 ed 1a 3e 86 9f b3 bd
       -0.21818288 0.07860109 0.1512969 -0.08770661
000030 fc 5d b7 be fe 55 7a be c7 75 89 3e 2f 61 67 bd
       -0.35813892 -0.24446866 0.2684767 -0.056489166
000040 13 54 69 3e 47 6d 39 3e e9 13 12 3e 47 7c 8b be
       0.22785978 0.18108092 0.14265408 -0.27243254
000050 20 8f 66 3e 73 90 90 be df 08 e6 bc 8f da 8c be
       0.22515535 -0.28235206 -0.028080402 -0.27510497
000060 a2 96 71 be 89 b3 a0 be 79 e5 30 3e 23 f1 c6 3d
       -0.23592618 -0.31386974 0.17275037 0.09713962
000070 d2 f1 89 be d0 25 57 bd 55 b1 98 bd 4f fa 38 be
       -0.26942307 -0.052526295 -0.074556984 -0.18064235

bn1.running_var f4 [32]
000000 16 f8 78 3f 7a fe e5 3d be 27 1a 3f 4a 08 62 3f
       0.9725355 0.11230178 0.6021689 0.882939
000010 f6 e7 f0 3e 4a c0 5e 3d db 5c 17 40 56 2a c8 3d
       0.47051972 0.0543826 2.3650424 0.097737
000020 6e 44 05 3e bb 91 e0 3e cc d9 91 3e 09 0d e7 3f
       0.13014385 0.43861184 0.28486478 1.8050853
000030 53 49 0f 3f 47 e6 c7 3e 07 c8 0a 3f fd 29 4b 3e
       0.5597126 0.39042875 0.5421147 0.19840236
000040 34 20 e3 3e 55 d1 48 3f 6e 35 aa 3d 46 be c5 3e
       0.44360507 0.78444415 0.08310972 0.3862173
000050 15 60 54 3e 92 fb db 3e 0e 58 df 3e 57 ca 0c 3f
       0.20739777 0.4296537 0.43621868 0.54996246
000060 97 f4 ce 3e c6 c6 fe 3e 28 c5 93 3e b9 88 d6 3f
       0.40420982 0.49761027 0.28861356 1.6760474
000070 ae c6 06 3f 1a 79 ee 3e 42 fb af 3d ed fd 92 3e
       0.5264691 0.46576768 0.085928455 0.28709355

conv2.weight f4 [64, 32, 3, 3]
000000 28 be fc 3b 2e ca a3 bd 74 19 0f 3e 10 8a df bd
       0.007713098 -0.07997547 0.13974553 -0.10915005
000010 79 b3 f2 bc 5e ff c4 3c 6b 19 80 bd 53 12 2c 3e
       -0.029626595 0.02404755 -0.06254848 0.16803865
000020 db b0 3d 3d a1 6c 95 3d af 39 37 3d 57 a4 06 3e
       0.04631124 0.0729611 0.044732746 0.13148628
000030 3f 5d 83 3c 86 43 c1 bb 27 62 95 3c e6 13 13 be
       0.016035674 -0.005897942 0.01823528 -0.1436306
000040 b3 0b af 3d 63 68 ae 3d c8 2c b8 bd d5 9f 56 be
       0.08547153 0.08516004 -0.08992916 -0.20959409
000050 06 e8 02 bd 3a b0 f7 bd 4c a1 c9 bd 09 fb 57 3d
       -0.031959556 -0.120941594 -0.09845218 0.05272964
000060 b8 c9 c3 bc ba 7d a2 3d ba 1c 5c 3d ac 2c cc bc
       -0.023899898 0.07934137 0.053738333 -0.024923645
000070 97 8b 84 3c 09 31 af bd c6 58 c8 3d 5c f6 ad 3a
       0.016179843 -0.085542746 0.09782557 0.0013272273
000080 db 95 af bd b2 b3 ed bc 36 5e 44 bc fb 6e ab 3d
       -0.085735045 -0.02901635 -0.011985352 0.08370777
000090 cf b5 18 bd 5c 2c 59 3e f1 a4 e4 bd 78 27 42 3e
       -0.03728276 0.21208328 -0.111642726 0.18960369
0000a0 8d b6 ef 3d 1f 5a c1 bd 0a dc 0f bd d2 2b f4 bd
       0.11704741 -0.09441017 -0.035121955 -0.119224206
0000b0 29 65 84 bb 30 c2 43 3c 18 b5 64 bc 60 64 08 3e
       -0.0040403795 0.011948153 -0.013959192 0.1331954
0000c0 a0 77 63 bd 2d c6 84 bd 87 4c 04 bc af e3 76 3d
       -0.055534005 -0.064831115 -0.008074886 0.06027573
0000d0 c9 95 a0 bd b1 7c 01 3e de 58 33 be 31 28 ea 3a
       -0.07841069 0.12645222 -0.17514369 0.0017864761
0000e0 6a 8a 02 3d b4 7a 7a bd 4b 4e a0 bc a5 93 06 bd
       0.031870283 -0.061152175 -0.019568583 -0.03285565
0000f0 48 5f 41 bc e5 72 43 bd 9c ec 9f bd 46 43 20 bd
       -0.011802502 -0.047716994 -0.078088015 -0.039126657
000100 ec e3 39 3a fe 1d 02 3d f4 da e4 bd 43 70 31 3d
       0.0007091153 0.031766884 -0.111745745 0.04331995
000110 4c 6e 8e 3d 8b cc ae 3c 43 fb 9c 3d ba 9e 5a 3d
       0.06954631 0.021337768 0.07665112 0.05337403
000120 e6 8d 03 3d 4e 02 ec 3d 1e a1 3e 3e 33 77 ac 3b
       0.032117747 0.11523877 0.18616149 0.005263233
000130 e4 2b 81 ba 8b 4b cb bd 86 49 a4 bd f1 4e fa bd
       -0.0009854999 -0.09926518 -0.08021836 -0.12222088
000140 90 3a d0 bb 7f 15 aa bd 67 f8 7d 3c 82 c8 0e be
       -0.0063546374 -0.08304881 0.015501118 -0.13943675
000150 43 c7 85 3d e4 15 b4 bd 2b b5 12 be c9 7e ce bd
       0.06532147 -0.08793238 -0.14326923 -0.10082776
000160 c6 49 cf bc 0c 4f 1f 3e d8 9b e5 3c fa c9 5a bd
       -0.025303733 0.15557498 0.028028414 -0.053415276
000170 25 8e ad bc c4 12 db bc 90 a9 87 be ea f4 ae bd
       -0.021185944 -0.026742347 -0.26496553 -0.085428074
000180 01 38 c0 3c 14 2a 1f bc f1 7b ab bd fe e7 e1 bd
       0.023464205 -0.009714622 -0.08373249 -0.11030577
000190 3f 40 5c 3d c8 5f ef 3d a8 1a 03 be aa d8 7a ba
       0.053772207 0.11688191 -0.12803137 -0.00095690286
0001a0 9a 66 b0 bd 39 9d 91 3a 41 b0 25 be 99 4b f9 bd
       -0.0861332 0.0011109478 -0.16180517 -0.12172622
0001b0 17 f4 53 bd 50 35 97 3d 65 3d 11 bd 59 f9 74 bd
       -0.051746454 0.073832154 -0.03545894 -0.05980811
0001c0 31 c1 0e 3d 92 5f 72 bd 09 f6 8d 3c 86 9d e7 bb
       0.03485221 -0.059173174 0.017329233 -0.007068339
0001d0 f4 4f 58 bd cc 6a 90 3b 64 b6 61 ba 65 51 a7 bd
       -0.052810624 0.0044072624 -0.0008610247 -0.08169822
0001e0 00 b9 2f 3d 65 c8 f1 bd 7c bd e6 bd 8e db b8 bc
       0.04290104 -0.118058 -0.1126661 -0.02256563
0001f0 bf 83 c7 bd a2 5d 33 3d 3b be 38 3d a4 a9 9b bb
       -0.097419254 0.043790467 0.045103293 -0.0047504473
000200 9a 81 1f bd a8 62 a5 3b e0 a1 f8 bd a7 24 10 bd
       -0.038941957 0.005047161 -0.1214025 -0.035191204
000210 f1 7e 99 bd 2c a2 ce bc 65 5b 2f bd 77 d1 ad 3d
       -0.07494915 -0.025223814 -0.04281177 0.08487218
000220 19 25 80 3c 13 38 4b 3c 7a 5a 63 3d 76 65 95 bc
       0.01564269 0.012403506 0.055506207 -0.018236857
000230 d7 b2 22 3e 28 19 28 3d f2 f4 be 3d 47 9a 27 3e
       0.15888534 0.041039616 0.09324063 0.16367446
000240 2b e5 5c bc b1 a9 6b bd a0 53 40 bd cb fd 7a bc
       -0.013482372 -0.057534877 -0.04695475 -0.015319298
000250 34 ba 10 be eb 16 2e bc b5 25 df 3d dd 46 b0 3d
       -0.14133531 -0.010625581 0.10895864 0.08607266
000260 c2 17 c2 3d ea bb a5 bd 97 bd 06 be d3 03 cf 3c
       0.09477188 -0.080924824 -0.1315826 0.025270378
000270 71 b1 f0 bd 42 60 85 3d 22 2d c8 3d 75 60 2a 3d
       -0.11752594 0.065125 0.097742334 0.041595895
000280 57 10 ab 3d 86 b6 16 bd 24 2c a8 ba 05 b2 be 3d
       0.08352726 -0.03679516 -0.0012830538 0.09311298
000290 21 f7 07 bd aa 1e ef 38 83 2d 67 bd 6f 18 cf 3c
       -0.033194665 0.0001140212 -0.056439888 0.025280206
0002a0 0d 11 95 3c b2 25 7d 3d 44 e4 95 3d d9 01 8e be
       0.018196607 0.061803527 0.07318929 -0.27735785
0002b0 43 9e a6 bc 03 1f a8 3c e8 39 a9 bd 83 96 14 3d
       -0.020339137 0.0205226 -0.08262998 0.03627635
0002c0 bf 61 cc 3d 6b b5 c5 3d 0a 1d 2b b9 f7 af a1 bd
       0.09979581 0.09653743 -0.00016318649 -0.07894891
0002d0 78 fc a7 bb 41 03 b3 3d 0a ef 9f 3c 49 4e c1 3c
       -0.005126532 0.08740855 0.019523162 0.0235969
0002e0 5e 5e 1f 3d 74 bb 01 bd c2 64 7a 3d 1a 9c fb 3d
       0.038908355 -0.03167291 0.061131246 0.122856334
0002f0 0f 58 21 bd 88 34 31 bd a0 c5 32 bd c9 f0 1e 3d
       -0.03939062 -0.04326299 -0.0436455 0.03880385
000300 da 33 03 be 26 49 a1 bb 89 48 2b bd d4 05 65 bd
       -0.12812749 -0.00492205 -0.04181722 -0.05591376
000310 2d bc 3e 3d 78 f9 d9 3b 8a 05 62 be 5c c9 ea bc
       0.046566177 0.0066520534 -0.22072425 -0.028660469
000320 6f cc 5e 3e 4d 94 1c be 6c 3f 09 3e bc c1 ac 3e
       0.21757673 -0.15290947 0.134031 0.33741558
000330 47 63 74 bd d7 41 45 3e 24 de 47 3b 8f 2f 17 3e
       -0.05966499 0.19263397 0.0030497396 0.14764236
000340 26 c9 fa bd b1 cc 0d 3e 92 09 fc 3c 81 25 0c be
       -0.12245397 0.13847615 0.030766282 -0.13686182
000350 a9 d8 95 bd e0 b2 2b be a9 b8 24 3d 25 20 ae 3d
       -0.07316715 -0.16767454 0.04021517 0.08502225
000360 ee 3e 51 3d 79 3b 3b 3e ed d8 0d be 73 f0 52 3e
       0.051085405 0.18284406 -0.13852282 0.20599537
000370 88 75 d4 3d ed 14 8a bd cb f5 a4 bd 58 94 00 be
       0.1037398 -0.067422725 -0.08054694 -0.12556589
000380 4c 62 ff 3d 57 e0 0e bd 9c 59 62 bd 94 aa 01 bc
       0.124699205 -0.034881916 -0.05526124 -0.007914204
000390 3f 25 7f bd 77 fd 01 3d 5d 87 71 3d 3a 77 98 bc
       -0.06229138 0.031735864 0.058966983 -0.01861154
0003a0 48 2d 6e 3d 75 3c b2 bd fd 3a aa 3d 13 3c 8e 3e
       0.058148652 -0.087029375 0.08312032 0.27780208
0003b0 dd b3 a9 bd 7d 2a 62 3d c7 2f ed bb bd 9c 62 be
       -0.08286259 0.0552163 -0.0072383615 -0.22130103
0003c0 75 ef 90 bd 8b 14 c0 bd 1a a9 a3 3d 9b c6 c1 bd
       -0.07076923 -0.09378918 0.07991238 -0.09461709
0003d0 16 89 87 bd 15 ba ed 3c 71 6c 3a bc 23 06 28 be
       -0.06617944 0.029019395 -0.0113783935 -0.16408591
0003e0 08 3d 34 bd 9e d9 0d be 33 1b 1c 3e 68 d2 0e 3d
       -0.044003516 -0.13852546 0.1524475 0.034868628
0003f0 f1 0f aa 3a 76 2d b3 3d d7 2f 9e bd c8 ff 09 3e
       0.0012974722 0.08748905 -0.077239685 0.13476479

conv2.bias f4 [64]
000000 22 91 72 bd 98 41 f2 3c ab 4e 31 bd 35 f0 68 bd
       -0.05922044 0.029572293 -0.043287914 -0.056869704
000010 04 01 23 3c d5 80 32 bd 29 22 5a 3d 37 a8 19 bd
       0.009948973 -0.043579895 0.053255234 -0.037513938
000020 2d 04 52 3c 5b cc c0 bc 00 f3 32 3b 41 50 98 3c
       0.012818378 -0.023534944 0.0027305484 0.018592956
000030 64 97 8d bc a8 82 c8 3c b2 78 0d 3d 4a 74 f2 3b
       -0.017284103 0.024476364 0.034538932 0.0073991166
000040 08 ed 18 bd 27 1e 25 3b 68 c2 4f bd 52 30 30 bd
       -0.037335426 0.0025194974 -0.05072251 -0.04301483
000050 31 1c 73 3d a4 58 75 3c 13 57 e9 bc 17 6a cd 3b
       0.059353057 0.014974747 -0.028483903 0.0062687504
000060 8f 1c 3f 3d 08 b3 50 bd 94 74 12 3d 51 e5 59 bc
       0.046658095 -0.050951988 0.03575571 -0.013299302
000070 81 e9 32 3d 28 7d 16 bd 7e c6 a3 3c db 1a 0e bb
       0.043679718 -0.036740452 0.01999211 -0.0021683488
000080 8b 6c c0 bc e6 43 7c 3d f4 6c e2 b9 e0 b6 53 bd
       -0.023489257 0.06158819 -0.00043187256 -0.051688075
000090 3a 94 51 b9 d5 f9 a2 bc ec c4 75 3c da 5c 45 bb
       -0.00019987012 -0.01989452 0.015000563 -0.0030115158
0000a0 f7 e0 27 3b 50 41 5b bd ed 1f 16 bd f7 18 1c bd
       0.0025616267 -0.053529084 -0.03665154 -0.038109746
0000b0 81 1f 1f 3d 33 fc 23 3c 5b 88 79 3c 11 aa f8 3c
       0.038848404 0.010008859 0.015230264 0.030354531
0000c0 a4 df 76 bd d3 5e 50 3d 40 6b 15 bd 44 31 55 bc
       -0.060271874 0.05087168 -0.036479235 -0.013012234
0000d0 27 4d 68 bd 98 db e9 3c c7 08 f7 3c 13 50 ae 3c
       -0.056714203 0.028547093 0.030155553 0.021278417
0000e0 4e e9 b6 3b 3d 7c 80 bd ea b2 0f 3d d2 d5 49 3d
       0.0055820113 -0.062736966 0.035082735 0.04927618
0000f0 5f e8 55 3c 13 2e c2 3c a0 31 19 3d e5 9f 12 bd
       0.01305589 0.02370361 0.03740084 -0.03579702

bn2.weight f4 [64]
000000 3d 2a 68 3f 0a 00 83 3f 89 da 7e 3f 18 0d 81 3f
       0.9068945 1.0234387 0.9955221 1.0082121
000010 33 7f 5a 3f 68 54 45 3f ce 25 7f 3f b0 36 5c 3f
       0.8535034 0.7708192 0.9966706 0.86020947
000020 1b ac 90 3f 56 48 56 3f 4f ad 72 3f 74 cd 99 3f
       1.1302522 0.83704126 0.947957 1.2015824
000030 58 4b 75 3f e1 08 92 3f 7e 6b 55 3f 6b be 55 3f
       0.9581809 1.140896 0.83367145 0.8349368
000040 5d d1 2e 3f 63 0f 72 3f 90 33 61 3f 77 5c 4f 3f
       0.68288213 0.9455473 0.87969303 0.81000465
000050 d4 88 7f 3f fb 4c 85 3f 93 e8 7b 3f 46 bd 85 3f
       0.9981816 1.0414118 0.98401755 1.0448387
000060 50 75 67 3f a6 15 80 3f 01 2b 76 3f 43 ed 6f 3f
       0.9041338 1.0006607 0.9615937 0.9372141
000070 12 ec 99 3f c9 5d 8a 3f f5 8d 4d 3f f7 27 81 3f
       1.2025168 1.0809871 0.80294734 1.0090321
000080 14 a8 74 3f 83 b7 88 3f 3f 63 96 3f f2 ad 8a 3f
       0.95568967 1.0681003 1.1749038 1.0834334
000090 fd 8b 91 3f c2 9a 86 3f 28 bf 8e 3f dd ac 31 3f
       1.1370846 1.0515978 1.1152086 0.69404393
0000a0 68 5f 88 3f 12 4a 88 3f 66 89 5e 3f 4b 14 7c 3f
       1.0654116 1.0647604 0.86928403 0.98468465
0000b0 f1 72 90 3f fd 66 8b 3f 3c e7 88 3f 67 8c 87 3f
       1.1285077 1.0890805 1.0695567 1.0589722
0000c0 ea 19 98 3f d0 88 80 3f 35 66 84 3f 93 52 81 3f
       1.1882908 1.0041752 1.0343691 1.0103325
0000d0 c1 05 7c 3f 06 c8 86 3f c6 1e 73 3f 37 6d 63 3f
       0.9844628 1.0529792 0.9496883 0.88838524
0000e0 a6 d3 8a 3f 5d 6c 79 3f 31 47 87 3f 10 9b 65 3f
       1.084584 0.97430974 1.0568601 0.8968973
0000f0 53 21 81 3f 88 27 90 3f 7c 8c 81 3f 26 1d 89 3f
       1.0088295 1.1262064 1.0120997 1.071202

bn2.bias f4 [64]
000000 cb 77 0a be 27 02 c7 bd 2c 9f 47 3d f6 ca b3 bd
       -0.1352226 -0.097172074 0.048735783 -0.08778946
000010 45 74 4e be 08 91 0b bf 1b 9a 67 be 9f 30 79 be
       -0.20161541 -0.54518175 -0.2261738 -0.24334954
000020 9a 3f 3a bd d6 60 89 be bd fc 56 be 37 c9 d5 bd
       -0.04547081 -0.26831692 -0.2099485 -0.10438769
000030 70 b0 2b be 02 18 6d be 9f af 96 be e0 86 fb bd
       -0.16766524 -0.2315369 -0.29430863 -0.12281585
000040 05 fc 85 be d4 76 28 bf 8b 31 88 be 8d 2d 7d be
       -0.26168838 -0.6580632 -0.26600298 -0.24724407
000050 e4 0f 8c be 26 3a 34 be 8f 42 c9 bd 28 04 0d be
       -0.27355874 -0.17600307 -0.09827148 -0.13771117
000060 79 af 6a be 17 b9 9c bd 36 77 6c be a2 c2 a1 bd
       -0.229185 -0.076524906 -0.2309235 -0.078984514
000070 90 3f 0b be 86 53 88 be d6 d6 94 be 11 e7 0f be
       -0.13598466 -0.26626223 -0.29070157 -0.14052989
000080 9c bc 19 be 43 7e 45 be b3 ed 76 be 76 af 7a be
       -0.15013355 -0.19286446 -0.24114113 -0.24480996
000090 ae 03 d6 bd 49 dd bc bd e7 6c 26 be 1d d7 2e be
       -0.104499206 -0.09221894 -0.1625248 -0.17074247
0000a0 13 f5 8d be c5 df 2d be 77 27 1e be 58 99 2a be
       -0.2772604 -0.16979893 -0.15444742 -0.16660058
0000b0 da f6 a3 be 3d 30 5c bd 3d 83 26 3b fe e2 49 be
       -0.3202427 -0.05375694 0.0025407814 -0.19715497
0000c0 b8 90 4c be 3c 39 90 be 22 9a 82 bd 79 50 6a be
       -0.19977081 -0.28168666 -0.06377055 -0.2288226
0000d0 e7 06 4d be 66 5d 54 bd ab 3c 5e be c1 9a 3a be
       -0.20022164 -0.051846884 -0.2170283 -0.18223096
0000e0 82 34 7e be c4 f6 aa be 1e 67 fe bd 9f ce 69 be
       -0.24824718 -0.33391392 -0.12422012 -0.22832726
0000f0 fd 36 3e be fe c6 3e be 53 00 02 bf 5a 12 95 bd
       -0.18575664 -0.18630597 -0.50781745 -0.07278891

bn2.running_mean f4 [64]
000000 8a bf d5 be 42 9f 60 bf 37 8a 19 c0 60 4e 29 c0
       -0.41747695 -0.8774301 -2.399061 -2.6454086
000010 a8 62 e8 bf 4e e3 c0 3f 1d bb 02 c0 e1 57 aa bf
       -1.8155107 1.5069368 -2.0426705 -1.3308069
000020 b1 ad ee 3f 04 95 2a c0 2c bd 3f bf 99 d7 29 c0
       1.8646756 -2.6653452 -0.7489803 -2.653784
000030 cd aa cf bf 5d 1a a7 3e c5 15 00 c0 a4 77 62 c0
       -1.6223999 0.326373 -2.0013287 -3.5385523
000040 0b 46 c7 bf 91 7c de bf da ed 39 c0 b2 bf 30 bf
       -1.556825 -1.7381765 -2.9051423 -0.69042504
000050 78 b4 c8 bf b7 71 cd bf 4c e2 45 be a4 71 d3 bf
       -1.5680075 -1.6050328 -0.19324607 -1.6519055
000060 b0 ac e3 bf fa 62 f2 bf 6d 2c 5c c0 97 d3 5a c0
       -1.7787075 -1.8936455 -3.4402115 -3.4191644
000070 93 e5 b8 be a3 1c c8 bf a5 5c 23 c0 25 e2 91 be
       -0.3611265 -1.5633739 -2.5525296 -0.28492847
000080 38 f3 4b c0 e5 ce 96 bf f5 7b 3c c0 08 7a 84 bf
       -3.18672 -1.1781889 -2.9450657 -1.0349741
000090 3f cd b7 bf 68 8e 7b c0 46 f0 52 3f fe 8d 05 c0
       -1.4359511 -3.9305668 0.8239788 -2.0867915
0000a0 c4 35 87 bf 8e ea 0c c0 7c e3 d5 bf 16 fa 63 c0
       -1.0563283 -2.201816 -1.6710048 -3.562139
0000b0 a3 94 f1 be ad 6a 45 c0 bb b9 04 c0 79 44 8b bf
       -0.47183713 -3.084636 -2.073836 -1.0880271
0000c0 59 3f c6 be 12 0c de be 73 31 a0 bf 13 9a 95 3f
       -0.38720205 -0.43368584 -1.2515091 1.1687645
0000d0 f0 bb e0 bf 58 56 9e bf a7 36 48 bc 7b ec 6c c0
       -1.7557354 -1.23701 -0.012220061 -3.7019336
0000e0 4e 2d f9 bf 2f 0d 15 c0 0c dd d9 bf e2 d0 35 bf
       -1.9466951 -2.3289297 -1.7020583 -0.71021855
0000f0 3e 8b bb be 57 b6 18 c0 d8 73 49 c0 23 82 dc 3e
       -0.3662967 -2.3861291 -3.1476955 0.43068036

bn2.running_var f4 [64]
000000 18 73 b5 40 27 b3 e0 40 91 24 e2 40 eb ad f0 40
       5.6702995 7.021869 7.0669637 7.52123
000010 4c c7 02 41 8d d9 aa 40 65 65 99 40 05 16 78 40
       8.173656 5.3390565 4.7936273 3.876344
000020 f0 81 3e 40 cb c2 a3 40 0b c1 dd 40 ad 33 70 40
       2.9766808 5.1175284 6.929815 3.753154
000030 14 f6 53 40 23 a4 d8 40 fa 3e 9c 40 67 38 08 41
       3.3118944 6.770036 4.8826876 8.51377
000040 17 a1 a7 40 93 a2 2e 40 c3 41 f6 40 e6 68 30 40
       5.2384143 2.7286727 7.6955276 2.7564025
000050 4a 81 e3 40 4e 24 63 40 f2 1d 8b 40 3d c5 4b 40
       7.1095324 3.5490909 4.3474054 3.1839135
000060 56 92 92 40 f3 84 29 40 6b b1 f5 40 ac 34 28 40
       4.5803633 2.6487396 7.6779075 2.6282148
000070 e4 e4 d3 40 30 dc df 40 9a d8 fc 40 f8 14 ec 40
       6.6216908 6.9956284 7.9014406 7.3775597
000080 78 cd 5b 41 46 7a 04 41 9a 85 a6 40 bb 0a 9c 40
       13.737663 8.279852 5.203809 4.87631
000090 00 a4 e1 40 75 5f c2 40 df 2b ac 40 55 09 81 40
       7.0512695 6.0741525 5.3803554 4.032389
0000a0 52 c3 ac 40 5a 14 5a 40 2b bf 92 40 8c 7d d4 40
       5.398843 3.4074922 4.585836 6.6403255
0000b0 32 15 c9 40 2e 14 bc 40 f0 2b bd 40 e0 7e 51 40
       6.2838373 5.8774633 5.9116135 3.2733688
0000c0 5b 3a 90 40 b5 c7 aa 40 80 62 a1 40 01 58 bc 40
       4.5071235 5.3368783 5.043274 5.8857427
0000d0 8b ed 39 40 22 09 68 40 cd 33 85 40 c8 1f a2 40
       2.9051235 3.6255574 4.1625733 5.0663795
0000e0 8c 48 74 40 23 df b2 3f ea 72 a3 40 0f e4 67 40
       3.816928 1.3974346 5.1077776 3.6232946
0000f0 aa 53 c5 40 ae 10 bd 40 94 01 cd 3f dd 0b a5 40
       6.166463 5.908286 1.6016107 5.157698

conv3.weight f4 [64, 64, 3, 3]
000000 df ec 8e 3d 9b 48 1e 3d 92 25 98 3d 19 2c 5a bd
       0.06978773 0.03864346 0.07429041 -0.05326471
000010 bc b1 f8 3c d3 0e 0f 3d af 5b 73 bd 4d 84 59 3e
       0.030358188 0.034926247 -0.05941361 0.21241875
000020 2a 43 9f bd 1b 9b c9 3d 61 45 49 bd ce 36 e5 bd
       -0.077764824 0.09844037 -0.04913843 -0.11192094
000030 c0 91 11 3d 84 e8 8b bd 9f 52 bb bd 20 9f 57 bd
       0.03553939 -0.06831458 -0.09146618 -0.052641988
000040 0d 54 72 3d 8a 95 14 be 59 2f 0f 3e 60 7c 47 3e
       0.05916219 -0.1451017 0.13982905 0.19481039
000050 3d 69 2f bc 74 e6 1d be f0 47 10 be c4 47 6a 3d
       -0.010706243 -0.15419942 -0.14089942 0.057197347
000060 23 d7 49 3e 51 64 41 3e d7 e1 25 bd ac 9c f4 bd
       0.19710974 0.18885924 -0.04049858 -0.11943945
000070 f0 58 1a be cf 4c 8d 3d ac a4 79 bc 65 ec 4d bc
       -0.1507299 0.06899416 -0.015237015 -0.012568568
000080 68 ae f3 bd 61 d6 48 bc e1 72 82 bc a4 51 92 3c
       -0.118985 -0.012258143 -0.01592392 0.017861195
000090 83 f7 23 3d 85 75 fd 3d 07 81 35 be 3b c2 42 be
       0.040030967 0.12375931 -0.17725001 -0.19019406
0000a0 ee e0 66 bd b5 e4 c6 bb fc 61 8c 3c 79 83 0c 3d
       -0.056366853 -0.0060697445 0.017136566 0.03430507
0000b0 c2 92 c7 bd cc 95 cf bd 53 71 ad 3d 10 36 bb ba
       -0.09744789 -0.10135993 0.084688805 -0.001428308
0000c0 89 cb e5 3c ac bf 8c 3c 07 85 8b 3d 38 26 8e 3d
       0.028051155 0.01718124 0.06812482 0.069408834
0000d0 66 a0 fe bd 0e 80 be bd 71 66 0a 3d 4c 01 86 bc
       -0.12432937 -0.09301768 0.033789102 -0.01635804
0000e0 88 44 a1 bd 75 a2 85 bd e8 47 af 3c 32 c1 21 bd
       -0.078743994 -0.06525127 0.021396592 -0.039490886
0000f0 a5 18 a4 3d 05 c4 c2 3d 94 e6 d0 3c bf ab 9c 3c
       0.08012513 0.09510044 0.025500573 0.019124864
000100 31 d2 0e bc 20 b3 4b bd ff f3 71 bd 52 b0 91 bc
       -0.008717106 -0.049731374 -0.059070583 -0.017784271
000110 18 e4 7b bd 3d 96 ec 3d e6 32 13 bc 85 6a c4 3d
       -0.061496824 0.11552093 -0.008984303 0.095906295
000120 a0 b4 08 3c eb 67 91 3c 7a 09 a9 bd db aa 07 be
       0.008343846 0.017749747 -0.08253761 -0.1324877
000130 ad 73 22 bd 49 6e 2a bb 5c 23 47 bd a7 11 e2 3c
       -0.0396611 -0.0026005676 -0.048617706 0.027596308
000140 51 77 df 3c 3e 3a ca 3a a5 d6 a4 bd d4 c3 82 bc
       0.027278574 0.0015428734 -0.08048753 -0.015962519
000150 5d 74 0c be f5 d7 c5 bd 41 9f 2f bc a8 ca ad 3c
       -0.13716264 -0.09660331 -0.010719121 0.021214798
000160 e9 10 32 3d 86 da cd bd ff b6 89 bd 02 cb 58 3d
       0.043473158 -0.10051446 -0.06724357 0.05292798
000170 46 02 25 bd 9a 17 54 bd 1e a7 f2 bd be 66 86 3d
       -0.04028537 -0.05178032 -0.11848281 0.06562565
000180 7a 63 ec 3d f1 b3 df bd 27 d1 3d be b8 12 72 3e
       0.11542411 -0.10922993 -0.18536817 0.23639953
000190 7e 5c f0 bd 54 21 a4 3d 11 70 18 bd 31 7b 74 3d
       -0.117363915 0.08014169 -0.03721625 0.059687797
0001a0 5d ec 17 3e 3b 04 6e bd 60 05 94 3d bd e3 d3 bd
       0.14836259 -0.058109503 0.07227588 -0.10346172
0001b0 b8 f8 de 3c c6 5c a5 bd 2b eb a0 3c 37 8f ed 3d
       0.027218208 -0.08074336 0.019643387 0.11599582
0001c0 38 ef 80 3b 80 84 20 3c f1 1d 96 3d 30 d7 08 bd
       0.003934767 0.009797215 0.073299296 -0.033408344
0001d0 7a e0 b6 bd fd 82 6d 3d 7f 19 1b bd f1 ba 62 bd
       -0.08929534 0.05798625 -0.03786611 -0.055354062
0001e0 59 a6 dc bd 8b f6 fd bc 44 f6 b0 3d 5f dd 10 3e
       -0.10773916 -0.03100135 0.086407214 0.14146946
0001f0 ec 6f 80 bc 63 ab 82 be f9 8d 11 3e 6f 40 f2 bd
       -0.015678369 -0.25521383 0.14214315 -0.11828696
000200 8b de bd 3c 24 e9 cf 3d b4 c1 ca 3d 11 b9 dc 3d
       0.023177406 0.1015189 0.09900227 0.10777486
000210 d7 0a aa bd 45 58 f3 3b 15 dd 17 be d6 37 ca bd
       -0.08302849 0.007426294 -0.1483043 -0.09873931
000220 d8 b8 9d bd e7 dc cb bd b9 d3 f3 3d e8 de 95 bd
       -0.07701272 -0.09954243 0.11905617 -0.073179066
000230 ae 61 3d be 84 85 01 3e 82 be 0a 3d e7 08 37 be
       -0.18494293 0.12648588 0.03387309 -0.1787449
000240 ed f4 93 3d f3 2b 25 3c 69 d7 26 bd bc 76 79 be
       0.0722445 0.010081279 -0.040732775 -0.243617
000250 c2 ff ca bd 0f 62 8b bd b8 1f e8 bd 43 78 ad 3d
       -0.09912063 -0.068058126 -0.11334175 0.08470204
000260 f5 55 fa bd 9e 59 ca bd 6e 35 54 be f6 2e b7 3c
       -0.12223426 -0.09880374 -0.20723507 0.02236126
000270 0a 5c 9c bd 5b be ba 3d d8 31 4c be c6 ad 4c bc
       -0.076347426 0.09118339 -0.19940889 -0.012492603
000280 86 6e 93 3d 94 fc 76 be 0f 81 f6 3d 0a 8d 5a 3e
       0.07198815 -0.24119788 0.12036335 0.21342865
000290 33 a8 b4 bd 33 ae 21 be c5 51 ed bd a2 2f 24 3d
       -0.08821144 -0.15789108 -0.11587862 0.04008449
0002a0 73 5f 55 bd 07 5d 3b bb 95 de 4f 3c 2b 76 ff 3d
       -0.05209298 -0.0028589384 0.012687345 0.124737106
0002b0 27 8f 35 3e 48 e3 24 bd f9 b8 b8 bd f6 0b 90 be
       0.1773039 -0.040255815 -0.09019656 -0.28134125
0002c0 5a ca 66 3c 8a b3 b8 3c aa c7 0a 3e fb 67 ee 3c
       0.01408633 0.022546548 0.13552728 0.029102316
0002d0 48 15 60 bd 5c 2c 6c 3d aa df 20 bd ec e4 49 bd
       -0.054707795 0.057659492 -0.039275803 -0.049290583
0002e0 4f 6c 0f 3d dd dd 52 be a0 92 8a bd 3d 06 f9 bd
       0.0350154 -0.20592447 -0.06766248 -0.12159393
0002f0 ce fe 07 3e 45 d5 d9 3d b4 49 8c bc d9 aa 5a 3c
       0.13280794 0.10636381 -0.017124988 0.013346397
000300 5d 97 9e bc d4 15 6c 3d ed 2a ae 3c ac af 09 bd
       -0.019359285 0.057638004 0.021260703 -0.0336148
000310 68 a6 cf 3d 68 d1 58 be d9 d5 e9 bc 4b 15 31 be
       0.10139161 -0.21173632 -0.028544353 -0.17293279
000320 72 78 fd bd 08 6f 13 3d f3 b8 09 bc 6c 12 d5 bb
       -0.12376489 0.03599456 -0.008405912 -0.00650244
000330 ac a8 06 bc 68 1c 05 be eb 65 f9 3c e0 74 ff 3d
       -0.008218925 -0.12999117 0.030444106 0.12473464
000340 ed ad f8 bb 9d dc 55 3d d3 cb 81 3d 63 01 09 3e
       -0.007589093 0.052212346 0.063377045 0.13379435
000350 55 a7 ba 3c e0 12 ab bd ed d3 50 3d 2b f9 b8 bd
       0.022784868 -0.083532095 0.05098336 -0.090319
000360 55 e1 57 3e 5f cf 37 bc aa 6d 7c bd b0 a6 09 3e
       0.21082051 -0.011218875 -0.06162802 0.13442492
000370 18 8a 25 3d c7 9c 2d 3e ec 5e 87 bd 1d c9 3f 3c
       0.0404149 0.16954337 -0.06609902 0.011705664
000380 6c 4e ad 3d 71 aa cc 3d 60 d1 d5 3b b5 a3 8d bc
       0.084622234 0.099934466 0.0065252036 -0.017289976
000390 06 89 6b 3c 71 6c cf 3d 55 6e cf 3a 53 b8 b4 bd
       0.014375931 0.101281054 0.0015825728 -0.088242196
0003a0 4a 66 d1 bd cb 21 ec 3c 72 09 03 3e 8a 64 57 bc
       -0.10224588 0.028824707 0.12796572 -0.013146529
0003b0 80 36 68 3c 06 7d 97 bd 5d 7f 45 3e 59 ee 81 3c
       0.01417315 -0.07396893 0.19286866 0.015860723
0003c0 2c 15 47 3d 00 f3 fb bc a0 6f 83 bc 77 fd 89 bb
       0.048604175 -0.03075552 -0.016044438 -0.0042111236
0003d0 2c a0 7c 3c 2f de 13 bc 34 6f 0e bd 21 5f 24 bc
       0.015419047 -0.009025141 -0.03477402 -0.010032446
0003e0 6b 76 5a 3d 99 36 aa 3d 06 c4 13 3e 40 2c 4d be
       0.05333559 0.08311195 0.14430246 -0.20036411
0003f0 60 2c e0 3d 2b bc 7a 3c 94 b5 ad bd c4 bd 4b 3e
       0.10945964 0.015303652 -0.08481899 0.19896609

conv3.bias f4 [64]
000000 2a 48 2f bc 59 11 a4 bc 9b 87 7c bc 3c cb 25 bd
       -0.010698358 -0.020027803 -0.01541319 -0.040477023
000010 d2 37 d0 3c a6 1c fe 3c 1d 36 1f 3d 56 2a 1e 3d
       0.025417242 0.03101952 0.038869966 0.038614593
000020 75 d5 9f bc 30 3d 0b 3c db 47 d7 bc 44 78 6e bc
       -0.019510964 0.008498475 -0.02627938 -0.014555041
000030 0a 62 ba bc 10 b6 68 bb 8b 5b 88 bb 1b dc 1c bd
       -0.022751827 -0.0035508908 -0.0041613034 -0.038295846
000040 a9 99 01 3d d5 47 ec bc 9b db ea 3c db 58 e1 3c
       0.031640682 -0.028842846 0.02866917 0.02750819
000050 04 0a f8 bc 8b c3 30 3d 63 0a 47 3c 2d f4 04 bd
       -0.030278213 0.043155234 0.0121484725 -0.032459427
000060 27 60 bb bc 72 51 69 3c 43 e5 be 3c 40 47 a4 bc
       -0.022872997 0.0142406095 0.02330268 -0.020053506
000070 52 03 02 3d dc c2 d3 3c 4b 21 26 3d 62 72 03 bd
       0.031741448 0.025849752 0.040559094 -0.032091506
000080 a3 76 d0 bc 50 91 a1 bc a7 6f bd bc 43 44 0d 3d
       -0.025447195 -0.01972261 -0.023124529 0.034488928
000090 7b cd 0d bd 01 36 9b 3c e1 68 bb bc 90 d7 b5 bc
       -0.03461979 0.01894665 -0.022877159 -0.022197515
0000a0 4d 22 a9 3b 62 e4 14 3d 6c 10 9f 3c b2 97 e8 bc
       0.0051615597 0.036350615 0.01941701 -0.028392646
0000b0 aa a5 05 bc f0 e1 2e 3d ad ce d3 3c 97 1c 65 bc
       -0.008157173 0.04269594 0.025855387 -0.013983867
0000c0 b8 db 3f 3d 62 31 a5 39 6f 9a 07 bd cd c1 1c bd
       0.0468404 0.00031508046 -0.033106264 -0.03827076
0000d0 cb 92 d7 bc c8 47 02 bd 2c af 2f 3d fd c4 0a bd
       -0.026315114 -0.031806737 0.042891666 -0.03387927
0000e0 a1 f7 27 3d 89 b9 64 3b 2d 01 0e 3c 67 ae 11 3c
       0.04100764 0.0034900627 0.0086672725 0.008891678
0000f0 30 28 5c 3c 65 ee 28 bd d7 82 32 bc b9 7c 1d bd
       0.013437316 -0.041242976 -0.010895452 -0.038449023

bn3.weight f4 [64]
000000 13 69 70 3f e6 cd 84 3f a1 25 8e 3f d0 b4 90 3f
       0.9391033 1.0375335 1.1105233 1.130518
000010 34 b9 79 3f 3a b4 7d 3f 4e f3 73 3f d2 81 54 3f
       0.9754822 0.9910313 0.9529313 0.8301059
000020 11 e3 8b 3f 48 02 76 3f 53 1c 7f 3f b1 a2 86 3f
       1.092867 0.9609723 0.99652594 1.05184
000030 5b 0f 71 3f 8f 01 62 3f 5d c3 4f 3f 0c cf 82 3f
       0.94164056 0.8828363 0.81157476 1.0219436
000040 b7 33 73 3f 85 d5 87 3f 19 75 69 3f 5c 2b 7b 3f
       0.95000786 1.0612036 0.911943 0.98113036
000050 62 1d 66 3f d1 e7 7d 3f 37 b5 73 3f 18 b7 73 3f
       0.89888585 0.9918185 0.95198387 0.95201254
000060 17 f9 87 3f f1 ef 63 3f 05 ed 85 3f 99 b1 81 3f
       1.0622891 0.89037997 1.0462958 1.0132324
000070 dc 7e 62 3f f6 b9 5c 3f ea e6 69 3f ea d3 78 3f
       0.8847482 0.86221254 0.9136797 0.97198355
000080 83 4c 7f 3f a5 b2 81 3f 61 6d 87 3f ee 5c 70 3f
       0.9972612 1.0132643 1.0580255 0.938918
000090 91 f7 87 3f c4 3b 72 3f 62 7e 70 3f 4f 10 67 3f
       1.0622426 0.94622445 0.93942845 0.9025926
0000a0 fb d1 8a 3f 7e 7c 86 3f eb 98 71 3f 5e 31 78 3f
       1.0845331 1.0506742 0.9437396 0.9695033
0000b0 a3 e1 6b 3f 45 a1 64 3f 54 61 75 3f e6 d9 7a 3f
       0.9214117 0.8930858 0.95851636 0.97988737
0000c0 b6 ca 7a 3f ce ae 96 3f fb b1 72 3f 94 e7 56 3f
       0.9796556 1.1772096 0.94802827 0.8394711
0000d0 f3 dc 95 3f d9 b2 84 3f 69 76 8f 3f 62 1e 97 3f
       1.1708053 1.036708 1.1208011 1.1806147
0000e0 a7 c1 85 3f 97 c0 90 3f 3b 09 50 3f 3d 22 7e 3f
       1.0449723 1.1308774 0.81264085 0.99270993
0000f0 00 98 9e 3f cb 06 8c 3f f7 7d 8e 3f c0 b2 95 3f
       1.2390137 1.0939573 1.1132191 1.1695175

bn3.bias f4 [64]
000000 95 2d 53 be e1 62 dd bd eb cb a0 bd 6b f9 93 bc
       -0.20622857 -0.10809875 -0.07851394 -0.018063268
000010 be c9 03 be 87 bb 10 be 7c bb 5b be d8 6d 0a be
       -0.12869927 -0.14134036 -0.21458238 -0.13518465
000020 9c b2 08 be a1 b5 ca bd 8b 34 19 be c1 01 64 be
       -0.13349384 -0.09897924 -0.1496145 -0.22266294
000030 cd c4 2f be 5e 98 80 be 09 24 8d 3d c7 3c 9a bd
       -0.17164917 -0.25116247 0.06891639 -0.075311236
000040 61 0b 50 be ac de b8 be 3e 18 03 be ac 0e 48 be
       -0.2031684 -0.36107385 -0.12802216 -0.19536847
000050 d0 fe 15 be f3 c5 7a be 95 0d 06 3e 82 ab 63 3b
       -0.14647985 -0.24489574 0.13091119 0.0034739678
000060 d7 05 a1 bd 9d 90 8d bd 7c c4 a9 bd 37 b9 17 be
       -0.07862442 -0.069123484 -0.082894295 -0.14816748
000070 8c c9 ad bd c9 c2 95 be 0e d9 34 be 49 dc 05 be
       -0.08485708 -0.29250172 -0.17660925 -0.13072313
000080 7b f4 ae be cb 4d 3a be da 6e b3 be 01 16 06 be
       -0.341709 -0.18193738 -0.3504551 -0.13094331
000090 2e 5c c9 be 4f e6 72 be 6e 9e 18 be 26 a5 d4 bd
       -0.3932814 -0.23720668 -0.14904186 -0.10383062
0000a0 f9 cc e1 bd c0 1f 17 be 20 e9 b3 bd f3 12 df bc
       -0.110254236 -0.14758205 -0.087846994 -0.027230715
0000b0 8d 02 59 bc 9e 7c b3 bd 0a 60 91 be 2f 18 2f bd
       -0.013245237 -0.08764003 -0.28393584 -0.042747673
0000c0 ac cf 81 be 29 af e3 3c 8b 4c 61 be 75 0e eb bd
       -0.25353754 0.027793484 -0.22001855 -0.11477367
0000d0 07 5d a2 be c7 dd 54 bd e3 31 ae be fc 05 81 bc
       -0.317116 -0.051969316 -0.34022436 -0.015749924
0000e0 6e 04 04 be f0 e7 8e be 1f db 81 be d6 64 65 bd
       -0.12892315 -0.2791133 -0.2536249 -0.056004368
0000f0 9f de 84 be 9c 89 43 be e6 97 36 bd f4 64 6d be
       -0.25951096 -0.19095463 -0.044578455 -0.23183042

bn3.running_mean f4 [64]
000000 ee 82 27 bf d9 41 5d c0 ed 63 c0 c0 91 4e 7d c0
       -0.6543416 -3.457144 -6.012198 -3.9579203
000010 38 3b ff 3e a0 8c 98 bf a8 20 04 c0 18 8c 2f c0
       0.49849868 -1.1917915 -2.0644932 -2.7429256
000020 5e 9e af bf 26 94 62 c0 c8 68 34 c0 3b 78 4a c0
       -1.3720205 -3.5402923 -2.8188953 -3.1635883
000030 ea 46 a3 3e fd d5 e5 bf cd 19 1f 40 0d b3 03 c0
       0.3189004 -1.7955929 2.4859498 -2.0578034
000040 e0 37 86 c0 ab df a4 c0 69 fc a2 bf c5 65 39 c0
       -4.1943207 -5.152303 -1.273328 -2.8968365
000050 08 3f ca bf cc 34 45 c0 fa eb 9c 40 7a 62 70 c0
       -1.5800486 -3.0813475 4.9038057 -3.7560105
000060 03 6a 94 c0 21 5c 15 3f 0c 1e 91 c0 c2 63 0b 3d
       -4.637941 0.583437 -4.534918 0.034030683
000070 a4 8a 59 40 c7 d5 30 3d 95 65 41 be c6 e2 99 bf
       3.399087 0.043172624 -0.18886407 -1.2022331
000080 22 25 41 c0 91 58 9d 3e 6b d7 a7 bf d8 c2 bb bf
       -3.0178914 0.30731633 -1.3112615 -1.4668837
000090 65 05 43 c0 c2 88 86 3f 09 09 e3 3e cf ea 03 40
       -3.0472043 1.0510485 0.4434283 2.0612066
0000a0 33 54 a4 c0 5a d1 4e c0 dc 05 0f 40 63 08 9f 3f
       -5.135278 -3.2315278 2.2347326 1.2424434
0000b0 02 e2 7f c0 b0 b6 51 3d 42 dc b5 3f 21 6e fa bf
       -3.9981694 0.051199615 1.4207842 -1.9564859
0000c0 31 69 b2 3e 26 e9 ea c0 da 8a b7 bf 1f ea c4 3f
       0.3484588 -7.3409605 -1.4339249 1.5383948
0000d0 89 be 28 c0 69 eb 10 bf 20 14 25 bc 70 9b de bf
       -2.6366293 -0.5660921 -0.010075599 -1.7391186
0000e0 d4 8d 9c be 9e 90 d1 bd f9 db 8d bf 94 cd ed c0
       -0.30576956 -0.10232662 -1.1082755 -7.431345
0000f0 1a 1a 55 c0 72 fe 1d bc 28 79 48 3d 59 2b 9c 3c
       -3.329718 -0.009643184 0.04894367 0.019063639

bn3.running_var f4 [64]
000000 98 00 14 41 a8 19 99 41 98 f4 d8 41 39 e0 8c 41
       9.250145 19.137527 27.11943 17.609484
000010 38 33 1b 41 13 48 78 41 da 06 96 41 c6 6c 4d 41
       9.700005 15.517596 18.753345 12.839056
000020 f4 14 54 41 95 30 8d 41 d8 3d 44 41 a7 2c 5f 41
       13.2551155 17.648722 12.265099 13.948401
000030 f4 c3 43 41 e1 b9 69 41 dd 26 fd 40 9c fa 67 41
       12.23534 14.607881 7.910994 14.498684
000040 da 20 65 41 98 7c 34 41 92 97 7a 41 bd 2a 1e 41
       14.32052 11.280418 15.662004 9.885434
000050 d4 d0 c7 40 30 c0 5b 41 4f 44 34 41 bc cf 31 41
       6.2442417 13.734421 11.266677 11.113216
000060 40 f1 1e 41 ec 4b 14 41 45 cf a4 41 d5 38 52 41
       9.933899 9.268536 20.601206 13.138875
000070 68 48 85 41 86 aa 10 41 d2 1c 1d 41 99 bc 43 41
       16.660355 9.041632 9.819536 12.233544
000080 7a ee 3a 41 29 3d 27 41 6d 33 59 41 53 ea 51 41
       11.683222 10.452432 13.575055 13.119708
000090 0d 0d 28 41 7d c3 20 41 b7 4c 60 41 e0 b1 20 41
       10.503186 10.047727 14.018729 10.0434265
0000a0 eb 7f bd 41 25 65 4c 41 47 91 33 41 1d 32 54 41
       23.68746 12.7746935 11.222968 13.262235
0000b0 36 70 77 41 af 1a 37 41 26 5d 1a 41 67 c8 46 41
       15.464895 11.444015 9.647741 12.423926
0000c0 e4 2c 5d 41 e0 e4 c8 41 f9 bc 0b 41 eb 26 84 41
       13.82346 25.111755 8.733636 16.519003
0000d0 ca 4a 31 41 41 27 46 41 a5 e3 56 41 4b 53 4d 41
       11.080759 12.384583 13.430577 12.832835
0000e0 b2 75 5f 41 b0 69 65 41 d2 df 3b 41 7b ad de 41
       13.966234 14.338303 11.742144 27.834707
0000f0 82 07 1f 41 fb 94 84 41 3c e0 73 41 e8 60 3f 41
       9.939333 16.572744 15.242245 11.961159

fc1.weight f4 [128, 576]
000000 a5 ae 1d 3d c7 67 e2 bd 1e 81 69 bd 2c 6d 2b 3d
       0.038496632 -0.1105495 -0.0570079 0.04185216
000010 32 8f 8c 3d 0e ab 80 3d ce 4b 38 3c 1c 9a 87 3c
       0.0686325 0.06282626 0.011248542 0.016552977
000020 bb 67 15 3d 18 9a d1 3d 7c f2 4e 3d 26 bc 28 be
       0.03647588 0.10234469 0.05052422 -0.16478023
000030 38 5e 02 3e ac 00 34 3c e2 c9 04 3e 4f 5c 6f 3d
       0.12731254 0.010986488 0.12967637 0.05843764
000040 38 b8 fe bc 46 6e 07 3d d5 61 64 3d 48 8a 51 bd
       -0.031093702 0.03306415 0.055757362 -0.051157266
000050 a5 54 99 3d c5 a9 97 3d 81 88 08 bb 21 fe 09 3d
       0.07486848 0.07405428 -0.0020833316 0.03368962
000060 c2 bb ca 3d 24 78 41 3e fb 4e fe bc fe 2f 94 bd
       0.09899093 0.18893486 -0.03104352 -0.07235716
000070 bf 8c e9 3d 5f ef be 3d 99 57 c1 bc 46 91 c2 3d
       0.11403798 0.09323 -0.02360134 0.09500365
000080 23 d3 ea bc 98 66 f3 bc b3 39 eb bd 52 50 55 3d
       -0.028665131 -0.029712006 -0.11485615 0.052078553
000090 97 a2 26 3e bb e5 17 bd f9 36 1b be 01 e1 9b bb
       0.1627296 -0.037084322 -0.15157689 -0.004757047
0000a0 3b 28 d1 bd cf 1f 39 3d 32 82 b5 3d 36 11 44 be
       -0.102127515 0.04519635 0.088627234 -0.1914719
0000b0 12 1d 95 bd b8 5a 9a bd 43 4a 01 3e a6 22 89 3c
       -0.07280935 -0.075368345 0.12625985 0.016740154
0000c0 70 1b b5 bd ba a3 3d be 52 d4 75 3d c2 f7 23 bc
       -0.08843124 -0.18519488 0.060016938 -0.010007801
0000d0 84 ec 26 3d b5 c9 6b bd 94 75 5e bb 8e a0 9f bd
       0.040752903 -0.05756541 -0.0033944594 -0.07794295
0000e0 2b 5b b5 bd b5 9d 4f bd fe 67 b9 bd ee 42 d9 bb
       -0.088552795 -0.05068751 -0.09053038 -0.006630293
0000f0 c4 cd 96 bc c9 9c 01 be 72 45 78 bd a9 1c a0 bc
       -0.018408664 -0.12657465 -0.060613103 -0.019544916
000100 b1 cc c2 bd cc a4 83 3d c4 bc 9c bd 02 70 d7 3d
       -0.09511698 0.06427917 -0.07653192 0.10519411
000110 2d 03 87 3e 3c c3 17 be 8a a6 2a be 82 aa dc 3c
       0.2636961 -0.1482057 -0.16665092 0.026936773
000120 83 c9 fd bc 3b 1d 9a bd cf db 8b bd be 28 09 be
       -0.030979877 -0.075251065 -0.068290345 -0.13394448
000130 65 d8 09 be 2d a1 12 bd 31 f5 94 bd e2 30 43 bd
       -0.13461454 -0.03579824 -0.07273329 -0.04765404
000140 33 8d 11 be 21 5f 4c 3d 41 da a4 3c af 57 12 3d
       -0.1421402 0.04989541 0.020123603 0.035728153
000150 8f 13 66 3d 14 df ce 3c 9d 94 b8 3d 41 91 b7 3d
       0.056170996 0.025252856 0.09012721 0.08963252
000160 de bf 4d 3e f1 d4 ca 3d 46 22 fc 3b f4 39 ba bd
       0.20092723 0.099038966 0.0076945154 -0.09093085
000170 a5 16 7e bd be e6 cb 3d a3 3b fe 3d a0 cb 02 3c
       -0.062033314 0.0995612 0.124137186 0.007983118
000180 8f c4 79 bd 88 59 a1 3c 54 51 1a 3e 9a 38 03 be
       -0.06097847 0.019696012 0.15070087 -0.1281456
000190 da 99 32 be 4e 45 09 be bb fc 01 be ec d6 8e bb
       -0.17441502 -0.13405344 -0.12694065 -0.004359117
0001a0 86 c1 56 3e e8 81 37 be cf 64 c8 3d ed b0 f5 3d
       0.20972261 -0.17920649 0.09784853 0.119966365
0001b0 81 18 a8 bd 7b 4a 13 3d 30 b5 55 3d 0e c5 ce bd
       -0.08207799 0.035959702 0.052174747 -0.10096179
0001c0 6e f8 1c be 74 3c 0f bd 01 d5 39 bd 7f 5b a6 bc
       -0.15329143 -0.034969762 -0.045369152 -0.0203073
0001d0 ae 0a 62 3d e7 db 1e 3d 4a 96 93 3d d3 23 b7 3d
       0.055185966 0.038783934 0.072064 0.0894238
0001e0 06 aa 0b 3d f4 c3 a5 3d de b0 0c 3d 4c 62 4e bd
       0.034097694 0.08094016 0.03434836 -0.050386712
0001f0 f5 3a b3 3d ba e5 6a 3d 3f 00 68 bc ee 71 e3 bd
       0.087514795 0.05734799 -0.014160215 -0.11105715
000200 23 e2 5d be 09 61 e0 bd f6 41 ec 3d 4e cc 7f 3d
       -0.21668296 -0.10956008 0.115360186 0.0624507
000210 69 4b f4 bc 2b 38 37 3d 44 36 32 bd c5 c5 31 3d
       -0.029821115 0.0447313 -0.043508783 0.0434015
000220 b1 ac c5 3c 81 ce 17 3c 72 62 23 be a8 6f eb bd
       0.024130197 0.009265543 -0.15955523 -0.11495906
000230 f5 f4 80 3d 73 df d0 3c 09 1e 39 be ed 90 f0 3d
       0.06296722 0.025497174 -0.18077864 0.117463924
000240 03 f0 96 3b 31 e9 07 3c c5 09 24 3e b4 fc 1f 3d
       0.0046062483 0.008295343 0.16019352 0.039059356
000250 5c 75 45 3d da cb 07 3e 07 82 94 3d f4 db ad 3d
       0.048207626 0.13261357 0.07251363 0.08489218
000260 96 02 74 bd 94 da d6 bd 49 bf aa bd 8c d2 32 be
       -0.05957278 -0.10490909 -0.08337266 -0.1746313
000270 46 67 cb 3d 43 f4 8d 3d 6c 0b 72 bc d7 97 22 3d
       0.09931807 0.06931355 -0.014773231 0.039695587
000280 89 ba 4a 3e 59 88 fe bd c5 32 fb 3c 5f 9c 0a 3e
       0.1979772 -0.1242835 0.030663857 0.13536213
000290 10 05 e4 3d 26 8b e1 bc 76 b6 2f bc 4d 5f ba 3d
       0.11133778 -0.027532171 -0.010724654 0.091002084
0002a0 54 69 03 be fb 4a 3e bd 82 3f a1 3c 9e 5d 02 bd
       -0.12833148 -0.046458226 0.019683603 -0.03182756
0002b0 96 35 8f bc b5 ed 38 bd 8f a9 26 bc 31 07 6c 3a
       -0.017481606 -0.04514857 -0.010172262 0.0009003757
0002c0 41 7e 4e 3d 9b b1 09 3d f9 d9 fa 3d 97 78 b9 3c
       0.050413374 0.033616643 0.12248606 0.02264051
0002d0 79 33 86 bd 84 eb 7f 3c 49 70 df 3c f1 38 25 bc
       -0.065527864 0.015620116 0.027275221 -0.010084377
0002e0 87 63 65 bb a9 b2 45 3e 62 db 87 bd 8d 00 02 be
       -0.003500195 0.19306435 -0.06633641 -0.12695523
0002f0 29 bd f8 3d 1a a1 a6 3d a4 fa bd bd 3e a3 b6 3d
       0.121454544 0.081361964 -0.092763215 0.08917855
000300 6f 61 46 3c 4d 32 ff 3d 50 f5 e3 bb fc a5 3b bc
       0.012108191 0.12460766 -0.0069567338 -0.011453148
000310 66 8f 53 3c 1e 54 ca b9 6f ac a3 3a 02 07 53 bd
       0.012912607 -0.00038591115 0.0012487302 -0.051520355
000320 55 bc 46 be 90 2a d8 bb 73 ec 63 bd 93 90 7b 3d
       -0.1940778 -0.0065968707 -0.055645417 0.061417174
000330 5b 2e e0 bc 85 69 e6 bd bf 79 14 3e a9 26 1f bc
       -0.027365854 -0.11250595 0.14499567 -0.009713807
000340 29 39 65 3d 21 1e c0 3c ee 71 2e 3d fe d6 1b 3b
       0.055962715 0.023451867 0.04258912 0.0023779268
000350 03 9a 56 3d f7 d3 ac bc 54 e2 e4 ba 3a cf 1b 3e
       0.05239297 -0.021097166 -0.001746247 0.1521577
000360 8a d4 f5 bd 04 e3 b0 bd ef be 01 3b 93 65 5b bd
       -0.12003429 -0.0863705 0.0019797643 -0.053563666
000370 c7 b0 2b 3e ac 54 07 bb 57 19 82 3d 0e 00 5b 3e
       0.16766654 -0.0020649834 0.063524894 0.2138674
000380 70 70 1c 3e 9a 9a fc bb e2 01 c7 bd fb 21 b7 bd
       0.15277267 -0.0077088596 -0.09717156 -0.08942028
000390 7d ca da 3d 13 9d dc 3d 61 0c 0b 3d d9 b4 05 3c
       0.10683153 0.10772147 0.033947352 0.008160793
0003a0 22 aa e0 3d 0c 03 26 3d 77 28 1d bc 2f 98 ef 3c
       0.1096995 0.04053025 -0.009592167 0.029247371
0003b0 76 f0 8d 3d 82 5c 00 be f7 e3 6c bd c6 20 2d 3e
       0.0693063 -0.12535289 -0.05783459 0.16907033
0003c0 5f a4 88 bd 1c 5d 33 be fc 9b b2 3d b0 05 71 3d
       -0.06671976 -0.17515987 0.08721158 0.058843315
0003d0 c1 f9 97 bd be 70 fb bc 2e c7 72 3d a1 79 2e 3d
       -0.07420684 -0.030693408 0.059271984 0.042596463
0003e0 4b cf 4b 3c ca 56 fe 3d f1 0c 20 3b 93 fc 3d be
       0.012439559 0.124188974 0.0024421776 -0.1855338
0003f0 33 3a c7 3d f5 e6 ef 3d 4e 0d a1 3d 41 1b 28 3d
       0.097278975 0.117139734 0.07863866 0.041041616
