backup/rotate+gan+5samples.pth (torch, 538004 bytes, 26 tensors)

conv1.weight f4 [32, 1, 3, 3]
000000 f4 59 29 3e 88 69 af 3d 6c cb 81 3e 1b 1b 89 3e
       0.1653822 0.0856505 0.2535051 0.26778492
000010 d4 91 e1 be 41 38 7a be f2 e9 43 3d 05 c5 93 be
       -0.4405657 -0.24435522 0.04783053 -0.2886125
000020 36 5e 72 3e 93 8b 54 bd c8 89 5e 3e 22 5b 1a 3e
       0.23668751 -0.05189092 0.21732247 0.15073827
000030 db 55 be be a4 45 6d be 29 b5 b4 be 20 7d fa 3d
       -0.37174878 -0.23171097 -0.35294464 0.12230897
000040 7d 70 87 bd cc b7 03 3e 67 f6 97 3e dc e8 ff 3c
       -0.06613252 0.12863082 0.29680178 0.031238966
000050 be 41 15 be 84 28 93 3e 4b 6d bd bd 7f 7e 01 be
       -0.1457586 0.28741848 -0.092493616 -0.1264591
000060 08 89 53 3e 43 b4 5c be 9c 14 b8 be b5 c2 c7 bc
       0.20657742 -0.2155314 -0.35953224 -0.024384836
000070 c8 91 6c be 9e ec bf be 5f 3e d7 3d d3 8d a6 3d
       -0.23102486 -0.37485212 0.10509943 0.081325196
000080 65 fd 9f bc f7 3a 11 3e 0f 7f 6b 3e 74 1d 42 3d
       -0.019530008 0.1418265 0.22997688 0.04739137
000090 38 3a 67 3e e7 40 90 be 19 3e b4 3d b8 ee 31 be
       0.22580802 -0.28174517 0.08800907 -0.1737622
0000a0 5f 04 a2 3c b5 45 de bb e7 a3 0d 3e 4e d9 5b be
       0.019777475 -0.006783212 0.13832055 -0.21469614
0000b0 46 1f 63 3e 91 9a ab be 07 2d e0 bd 8a 63 19 be
       0.22179899 -0.33516362 -0.10946088 -0.14979377
0000c0 7c 3a 24 bd 96 46 79 3d 70 d4 0e 3d 52 a4 6e bc
       -0.040094838 0.06085833 0.034870565 -0.014565544
0000d0 74 e3 a4 3e 7a 98 ab bd 7e d0 b7 be 3a 88 09 be
       0.32204783 -0.08378692 -0.35901254 -0.13430873
0000e0 82 fc 84 3e 14 54 b8 be 78 db 0a bd f1 3b a7 3e
       0.25973898 -0.36001647 -0.033900708 0.3266292
0000f0 69 d5 1b bd 37 0e 86 bc 01 39 b7 3c 5b 9c 8a 3e
       -0.03804532 -0.0163642 0.022366049 0.27072415
000100 b2 41 1b bd 15 29 70 bd 33 96 9f bd 38 a2 17 3c
       -0.03790445 -0.05863293 -0.0779232 0.009254985
000110 44 2d ea be 57 8e 21 3e b2 eb 5b bd 20 db 80 3e
       -0.4573766 0.15776955 -0.053691573 0.2516718
000120 4d 78 56 bd f5 9e 6e 3e 9e ae 49 3e 0a b5 a7 be
       -0.05236082 0.23302825 0.19695517 -0.3275531
000130 16 92 18 3d c6 2a 97 3e bb 04 c2 be a7 83 dd bd
       0.037248693 0.2952482 -0.37894234 -0.10816126
000140 d7 aa 05 bd c6 d1 9e be a7 a1 7c 3e 0d 3b 8d be
       -0.03263363 -0.3101942 0.2467104 -0.27584115
000150 47 10 67 3e 35 ea a1 3e 83 01 8c ba 7c 3e 6a bd
       0.22564803 0.31623998 -0.0010681603 -0.057188496
000160 44 5a 5e be 4d 1b ba bc 61 16 31 be 08 d9 d4 3a
       -0.21714121 -0.022718096 -0.17293693 0.0016238997
000170 e1 b7 55 3e 5a 58 6c be f8 bb 33 bd a9 5c 8d 3e
       0.20870925 -0.23080578 -0.043880433 0.27609757
000180 a0 95 c9 3e 5d d1 7b 3e 94 18 94 be 64 80 14 3e
       0.39371967 0.24591585 -0.28925002 0.14502102
000190 39 a3 3b 3e 4f 74 82 3e 77 92 52 3e 74 eb 63 3d
       0.18323983 0.2547936 0.20563684 0.055644467
0001a0 14 26 51 3e 4b ef 92 bc 51 e0 77 3e 97 42 54 3e
       0.20424682 -0.01793637 0.24206664 0.20728527
0001b0 c5 4f 1b 3e e7 cd 54 be a4 cf e3 be 66 0a bd 3d
       0.15167148 -0.2078167 -0.44494355 0.09230499
0001c0 f2 b6 91 3e 1c 6d 7e 3e 46 60 11 bd c8 90 06 3d
       0.2845989 0.2484631 -0.035492204 0.032852918
0001d0 7f be 4a 3e 6e 48 b2 bd 64 32 e1 3e 5b 4d 65 bd
       0.19799231 -0.08705221 0.43983757 -0.055981975
0001e0 74 3f 4d be f7 57 3a 3e 35 9e 1f 3e 80 05 ea 3d
       -0.20043737 0.18197618 0.15587695 0.1142683
0001f0 3e 05 06 3e 69 b4 75 3d 45 6f 42 be 71 d3 07 be
       0.13087937 0.059986506 -0.18987758 -0.13264252
000200 d6 c2 c0 3d 6b 01 ab 3c 33 f9 aa 3e 6f 9a 36 3e
       0.09412162 0.0208747 0.3339325 0.17832349
000210 55 2a b6 be e8 b9 fb bc 64 89 a7 be 2d 31 f1 3c
       -0.35579172 -0.030728295 -0.32722008 0.029442394
000220 2e a5 0f be 7d 42 4f be fe df a2 be 1a cc 29 be
       -0.14027855 -0.20240207 -0.31811517 -0.16581765
000230 42 0c da bd 0a 87 4e be 75 ad 02 3d b9 02 84 3e
       -0.10646869 -0.20168701 0.031903703 0.25783327
000240 2c 40 d5 bd fe 2a 1a be d3 b3 ae 3c 3e af 3b 3d
       -0.104126304 -0.15055463 0.021325981 0.04582142
000250 3b 74 c6 3e 9b 39 6e be 1c da c1 be 86 cc 37 3e
       0.38760552 -0.23264162 -0.37861717 0.17949113
000260 11 4d 13 be b9 56 0f 3e b5 60 5e 3e 94 13 90 be
       -0.14384867 0.13997926 0.21716578 -0.28139937
000270 a1 97 7c bd fb da 25 bd 19 0c 62 be d2 71 74 be
       -0.061668042 -0.04049204 -0.22074927 -0.23871544
000280 c2 57 af be 61 ed 75 3e 5b 04 b5 3d 5b 47 a2 3e
       -0.3424664 0.24016334 0.08838721 0.31695065
000290 c8 c7 2f be 8b b1 96 be 10 72 a6 be e6 76 4d 3e
       -0.17166054 -0.2943233 -0.32508898 0.20064887
0002a0 82 42 36 be e7 5f 98 3e 78 ed a1 be 17 e5 83 3d
       -0.17798808 0.29760668 -0.31626487 0.0644018
0002b0 3e 4c 2c 3e e5 15 83 be c1 c3 1d 3e c2 0d 93 be
       0.16825959 -0.25602642 0.15406705 -0.28721434
0002c0 da 77 7e be 41 35 f9 bd 11 fb aa be 60 30 f5 3d
       -0.24850407 -0.121683605 -0.33394673 0.119721174
0002d0 ea ee 7e bd cb ce d3 be 2e f0 2d 3e 16 34 a7 3e
       -0.062239565 -0.41368708 0.16986153 0.32656926
0002e0 d8 77 55 be b4 86 17 be 6f 5c 2e be 11 6a 38 bd
       -0.20846498 -0.14797479 -0.17027448 -0.045023028
0002f0 01 41 b9 3d 87 43 c9 be 21 07 84 be 5d db 09 3e
       0.09045602 -0.39309332 -0.2578669 0.13462587
000300 f8 44 46 3c e4 7a 72 3e e8 ae 96 3e 4d 67 86 bd
       0.012101404 0.23679692 0.29430318 -0.06562672
000310 ee c2 66 3e 5e f9 d6 bd 73 ee e5 3d 53 c2 89 3d
       0.22535297 -0.10496782 0.11227121 0.067265175
000320 17 ee 5e 3e 7b 55 08 be e4 03 3b be 37 77 48 3e
       0.21770512 -0.13313858 -0.18263203 0.19576727
000330 0d ec 30 3e df cd a4 be c1 08 86 be 18 62 4f bd
       0.17277546 -0.32188317 -0.26178554 -0.05063066
000340 ac 8c bc 3e e4 42 30 be 1c ae b7 3d 58 78 5c bd
       0.36826074 -0.17213017 0.089687556 -0.053825706
000350 3b b1 f1 3d e2 9e cc be 28 38 4a 3d ba f7 56 3d
       0.11801382 -0.39964968 0.04936996 0.052482344
000360 ba 13 1a be 0f 5f b9 3d 55 42 8f be 50 ee 87 3d
       -0.15046588 0.09051334 -0.27980295 0.066372514
000370 d6 e5 9e be b2 b6 50 be 31 7e b7 3e 9e 90 4f 3e
       -0.31034726 -0.20382193 0.35838464 0.20270011
000380 25 03 bd be 6e 74 4d be 5d bb 82 be 3a b9 c5 3c
       -0.36916462 -0.20063946 -0.25533572 0.024136174
000390 b2 93 e6 bc 55 14 06 be 75 bb 82 be 7e d3 a4 3e
       -0.028146598 -0.13093694 -0.25533643 0.32192606
0003a0 e4 25 a6 3e 9e 40 88 3e bb 43 4b bb 6a f4 43 3d
       0.32450783 0.266118 -0.0031015712 0.047840513
0003b0 27 38 c7 be 86 f8 6b 3e ff 10 20 3e 8e a6 9f be
       -0.38910028 0.23044023 0.15631483 -0.3118176
0003c0 2f a1 ec 3d 7f e6 98 3e 2f d9 71 be 9f 03 88 be
       0.11554181 0.29863355 -0.23618005 -0.26565263
0003d0 32 34 3a bc e1 4e fe bc 88 b0 7d be b9 55 0c be
       -0.011364983 -0.031043472 -0.24774373 -0.13704576
0003e0 a5 0b 3e 3e 29 c0 2c be 34 2a 74 3e 3c ca 77 3e
       0.1855913 -0.16870178 0.23844224 0.2419824
0003f0 52 63 c5 be 15 f8 88 3e 61 27 23 3e fa 40 b2 be
       -0.38552338 0.26751772 0.1593299 -0.34815198

conv1.bias f4 [32]
000000 17 a7 a6 3e 0e c7 47 be b4 b8 8d be 3d fd 20 3e
       0.32549354 -0.19509527 -0.2767998 0.15721603
000010 1a 18 bc bd ee cc 3b bd 9d 3a 6c 3e e7 28 6a be
       -0.091842845 -0.045849733 0.23069234 -0.22867166
000020 62 f4 21 3e b2 41 74 be 3b 2d 67 bb 3b 6d d7 bc
       0.15815881 -0.23853186 -0.0035274762 -0.026297202
000030 73 f3 79 3e 6c 4b c0 3c 2e ec d5 3d 23 8e 1f 3e
       0.24409275 0.023473464 0.10445438 0.15581565
000040 9a 60 7b 3e 60 3f a7 3c 4a 38 a9 be 24 d7 69 3e
       0.2454857 0.020415962 -0.33050758 0.22835976
000050 95 9b cd bd b2 65 ee 3d 2a 5d f9 3d fb cf 14 3e
       -0.100394405 0.116404906 0.12175973 0.14532463
000060 83 3f 5b bd 0c 36 9a 3d 32 8b c6 bc cb e5 32 3e
       -0.053527366 0.0752984 -0.024236295 0.17470472
000070 27 85 13 be e4 df a3 3e cb da 4e 3d e5 dc 96 3e
       -0.14406262 0.32006752 0.050501626 0.29465404

bn1.weight f4 [32]
000000 89 48 2d 3f 23 bd af 3f 4d 3b 9b 3f 81 28 8b 3f
       0.67688805 1.3729595 1.2127472 1.0871736
000010 3b 69 38 3f f1 24 8e 3f 52 4b 7f 3f de d6 4d 3f
       0.7203557 1.1105024 0.99724305 0.80405986
000020 3e 53 8a 3f 98 ef 86 3f 88 69 37 3f 6a 99 19 3f
       1.0806653 1.0541868 0.716454 0.59999716
000030 f7 94 2d 3f 75 f9 c1 3e 22 d5 7b 3f bc 0a b7 3f
       0.6780543 0.37885633 0.9837209 1.4300151
000040 c8 80 18 3f 34 66 90 3f 07 7d 73 3f cc 9b bb 3f
       0.59571505 1.128119 0.9511265 1.465692
000050 8f 64 9e 3f 96 62 7f 3f 3f 29 7c 3f ca 36 61 3f
       1.2374438 0.99759805 0.98500437 0.87974226
000060 90 a3 ab 3f 27 85 84 3f bc f7 6c 3f 9d 5e 4f 3f
       1.340929 1.0353135 0.9256551 0.81003743
000070 20 e7 99 3f d7 52 95 3f 70 ba 09 3f 0e ec c5 3f
       1.2023659 1.1665906 0.53800106 1.5462663

bn1.bias f4 [32]
000000 b2 7c 94 be e7 7c 6a bc 95 9f 33 be 7f d8 84 bd
       -0.29001385 -0.014312006 -0.17541344 -0.06486606
000010 8c ce b5 be 18 96 bd 3d 95 b2 15 be 14 07 cd 3d
       -0.35509145 0.09257144 -0.14618905 0.10011116
000020 79 41 4e 3e 58 81 2e be 64 f2 83 be 7c 33 e8 be
       0.20142163 -0.17041528 -0.25770867 -0.4535178
000030 bc e6 ac be 71 67 ea be 7b 04 1a be ba 9b 15 3e
       -0.33769786 -0.45782045 -0.15040772 0.14610186
000040 45 4c c8 be a7 2e cb bd be 90 24 be 21 df 81 bd
       -0.3912069 -0.099210076 -0.1607084 -0.063413866
000050 c1 ca cc bd 65 e8 43 be 14 97 ad 3d 55 dd c1 3c
       -0.0999961 -0.1913162 0.084760815 0.02366511
000060 a9 bf a2 bd 1e ad 07 be e9 c0 d8 3d b4 a9 67 be
       -0.079467125 -0.13249633 0.1058367 -0.2262333
000070 09 eb cc bb 70 cd ce bd 2d dd e6 be 20 ca 3a 3d
       -0.0062536043 -0.10097778 -0.4509062 0.045602918

bn1.running_mean f4 [32]
000000 79 91 af 3e b4 30 45 be bf d9 8d be 94 2c 1c 3e
       0.34290674 -0.1925686 -0.2770519 0.1525138
000010 f0 c3 a6 bd b3 f5 6f bd 29 b9 65 3e f5 4a 60 be
       -0.08142841 -0.058583926 0.22433914 -0.21903594
000020 54 eb 1a 3e 54 47 82 be d5 7b 97 3b a1 d9 2c 3b
       0.15128833 -0.25445044 0.004622916 0.0026374834
000030 6f e6 77 3e b2 44 02 3d 33 c6 a9 3d 75 16 16 3e
       0.24208997 0.031803794 0.082897566 0.14657004
000040 7f 45 67 3e b2 d2 30 3c 0a 83 ad be 8a 10 60 3e
       0.22585104 0.010792421 -0.33889037 0.21881309
000050 9d 23 d3 bd 65 7b db 3d f9 af 00 3e 56 de 0e 3e
       -0.10309527 0.10716895 0.12567128 0.13952002
000060 f1 25 84 bd de 26 ae 3d 06 0c 12 bd c1 c9 2e 3e
       -0.06452549 0.08503507 -0.035655998 0.1706915
000070 09 16 1a be c0 14 a1 3e fd 31 a3 3d 44 c5 88 3e
       -0.15047468 0.31461143 0.07968519 0.26713002

bn1.running_var f4 [32]
000000 4f 8e 25 3e 8c c2 88 3e 86 3e e8 3e 38 3d 68 3e
       0.16167568 0.26710927 0.45360202 0.22679603
000010 c8 7a 30 3d 2c a7 49 3e ac 45 ec 3e 30 45 fe 3d
       0.043085843 0.19692677 0.46146905 0.1241554
000020 af 68 bb 3e 65 c0 97 3d 5f 53 7f 3e b7 21 b7 3f
       0.36603305 0.07409743 0.24934147 1.4307164
000030 8e 2b 68 3e e5 5e ee 3e 89 8d 45 3e 10 5b 1e 3f
       0.22672865 0.46556774 0.19292273 0.618577
000040 aa e9 d9 3d 94 e5 c6 3e 40 46 3e 3e 19 20 0c 3f
       0.10640271 0.3884703 0.18581486 0.5473648
000050 d8 5b 61 3e dd 5f 8b 3e 4a 1f 2c 3e 41 ee c0 3d
       0.22007692 0.27221575 0.16808811 0.09420443
000060 0b c0 01 3f 25 7e a9 3e 03 f8 a9 3e 70 4b ad 3e
       0.5068366 0.33104053 0.3319703 0.33846617
000070 ae 06 12 3f aa 6c 9e 3e 9a 7d 97 3f b7 ac 62 3f
       0.5704144 0.3094228 1.1835206 0.8854479

conv2.weight f4 [64, 32, 3, 3]
000000 44 aa fd 3c 13 63 8f 3d 09 f1 15 3e 5a a7 c7 bd
       0.030964978 0.07001319 0.14642729 -0.09748717
000010 dd eb 27 be 76 ec 4f be 34 47 5e 3d e3 9f 65 3d
       -0.16398568 -0.20305046 0.054267123 0.056060683
000020 25 28 ed 3c 58 c6 2e 3d e3 95 32 3d ce 29 27 3e
       0.028949806 0.042669624 0.043599974 0.16324541
000030 27 46 6e 39 ef 25 c9 3d 27 cc 98 bc f4 f9 c7 bd
       0.00022723583 0.098216884 -0.018652035 -0.09764472
000040 35 ca 91 3d ad 18 09 be 95 79 a7 bd 44 d8 e6 3c
       0.07118646 -0.1338832 -0.08177487 0.028179295
000050 7b 33 88 3d eb 4f 9c bd 84 f2 85 bd 0a 39 e5 bd
       0.06650444 -0.07632431 -0.06540397 -0.1119252
000060 b3 a8 03 3d a4 0f 3f 3d 4a fc bf bd b4 d2 ac bd
       0.032143306 0.046645775 -0.09374292 -0.08438626
000070 50 74 3d bd 5a f9 91 be 82 6d c6 bc a6 d4 97 bb
       -0.046253502 -0.28510553 -0.02422214 -0.004633504
000080 2b ff 01 3e ed 0c 11 3d 71 bb 7d bd 76 44 3b bd
       0.12694995 0.035412718 -0.061946336 -0.045719586
000090 98 dc b2 bd b1 18 18 be 8c 29 92 bd c1 6e d2 3d
       -0.08733481 -0.14853169 -0.07136831 0.10275031
0000a0 b1 95 eb bd 15 f1 b6 3d 07 4c d4 3d 99 46 22 3d
       -0.11503161 0.089327015 0.103660636 0.03961811
0000b0 f1 3d f3 3c 96 fb 9e be e8 44 34 bd a4 42 02 be
       0.029692622 -0.3105132 -0.044011027 -0.12720734
0000c0 bf 7c a3 3d a3 c8 77 3d c3 ad 17 3e 91 2f 85 bc
       0.07982778 0.060494076 0.14812379 -0.016258033
0000d0 6f 40 2a 3d 00 50 9b 3d e9 d4 bc 3c 38 6f cc bc
       0.041565355 0.07583618 0.023050742 -0.024955377
0000e0 5c 67 33 be 7b 77 6b be 51 48 80 bd d4 89 84 bb
       -0.17519897 -0.22994797 -0.06263793 -0.0040447507
0000f0 57 57 99 bc a3 f9 fa 3c b3 98 02 3d 36 e5 b6 bd
       -0.018718405 0.030636614 0.031883907 -0.08930437
000100 42 43 07 bd a0 e2 45 bd 4d a6 a9 bd b2 fb 81 bb
       -0.033023126 -0.04831183 -0.082836725 -0.003966772
000110 47 ef f1 3d 2a 7d 65 bd a8 4a ab 3d 1a ff ee bd
       0.11813217 -0.05602757 0.08363849 -0.116697505
000120 3e 14 80 3d 96 62 29 3d e2 2a 33 bd 40 54 36 be
       0.06253861 0.041353785 -0.043742068 -0.17805576
000130 df 77 6c be ce bc b8 bd 93 51 fb bd 11 13 92 3d
       -0.23092602 -0.09020387 -0.122714184 0.07132543
000140 5a fb 00 3d c4 14 6e 3d 62 b2 58 bd e4 bb 41 bd
       0.031489708 0.058125272 -0.052904494 -0.047298327
000150 e7 f8 91 be 95 2a 90 be b5 d6 10 be d2 24 d4 bb
       -0.2851021 -0.28157488 -0.14144404 -0.006474116
000160 95 69 0e be c2 ef 97 3c 81 d8 08 be 07 9d d0 bc
       -0.13907464 0.018546943 -0.1336384 -0.025465501
000170 4d 4d bb bd 3d 90 34 bd 3b 0a 52 bd f0 c3 e2 bb
       -0.09145603 -0.04408287 -0.051279288 -0.00692033
000180 46 e3 4e bd 53 47 46 bd ec 97 03 3e 88 91 9f 3c
       -0.050509714 -0.048407864 0.12850922 0.019478574
000190 2c eb e4 3b b4 d1 62 bd 28 50 6c bd ec 72 82 bd
       0.0069860425 -0.05537577 -0.05769363 -0.06369576
0001a0 e9 a8 1f 3d 38 2b 2b 3d 84 62 a5 3b ab 9e 87 3d
       0.038979445 0.041789263 0.0050471444 0.066220604
0001b0 4d 84 82 3d ee 3b 79 bd ef c5 68 be bc b7 9f bd
       0.063728906 -0.06084817 -0.22731756 -0.077987164
0001c0 7a 69 c9 3b d6 85 2a 3e 28 a2 0e 3d 17 5f fc 3d
       0.006146607 0.16652617 0.034822613 0.123228244
0001d0 35 cb 79 bd 28 85 51 bd 82 d1 c0 bb 0d a4 22 be
       -0.06098481 -0.05115238 -0.0058843503 -0.15882893
0001e0 c3 ce bd bd 73 3a 9a bd a8 96 1a bc d1 6c 26 bd
       -0.09267952 -0.075306796 -0.009435333 -0.04063112
0001f0 c5 aa 5d 3c fc c2 ad 3d d3 b3 ba 3b c9 74 1c 3d
       0.013529484 0.08484456 0.0056977062 0.038197313
000200 20 3c b8 bd 9d 44 71 be b0 e6 11 be d1 7d 00 bd
       -0.08995843 -0.2356133 -0.14248157 -0.031369988
000210 88 28 8b bd 7f b6 d3 bd 75 df 64 3d 64 b2 db bd
       -0.0679484 -0.10337543 0.055877168 -0.10727385
000220 88 44 00 3d f2 8d 26 3d b8 b5 1d bd 16 5d 53 3e
       0.031315356 0.040662713 -0.03850338 0.20640978
000230 e4 61 5d 3e 4c 70 6e bd c1 c0 fd 3d 1f 59 9e 3d
       0.21619374 -0.058212563 0.123902805 0.07731842
000240 9a 04 24 3d 95 bd 9b bd 91 6f de bb 91 94 11 be
       0.04004345 -0.07604519 -0.006788202 -0.1421683
000250 82 1e 03 be cb 57 a5 bd 8c 7e 38 bb 2d 13 3b bd
       -0.12804607 -0.08073386 -0.00281516 -0.045672584
000260 b2 ce 06 3e b4 fb 5d bc 4e 01 9e 3d f9 83 19 3e
       0.13164786 -0.01354878 0.077150926 0.1499175
000270 15 89 63 bd d5 76 a4 3a 1a e1 b8 3d c4 5f 86 bd
       -0.055550653 0.0012547622 0.0902731 -0.065612346
000280 1b a0 19 3e 30 3c 5b be 42 19 92 bb 10 3a 28 3d
       0.15002482 -0.21409678 -0.0044585774 0.041070998
000290 05 df 46 3c a6 63 18 3c 0f c6 ab 3b eb d7 6e 3c
       0.012138133 0.009301102 0.0052421163 0.014577846
0002a0 3c a1 4e be f2 e8 a0 bd 19 cc c1 3d 97 b1 9d bc
       -0.20178694 -0.07856931 0.09462757 -0.01924972
0002b0 e9 9b 11 3d c7 c5 98 3d ef 99 7e bd a0 ca 12 3e
       0.035549078 0.07459598 -0.06215852 0.14335108
0002c0 82 f3 86 3d f5 27 0e 3c bb 2a 18 3e c6 0f 91 bd
       0.06589414 0.008676519 0.1486005 -0.07083087
0002d0 82 5f d3 bd b4 26 1b bd 3b 2b 71 bd 4d f0 00 be
       -0.10320951 -0.037878707 -0.05887912 -0.12591667
0002e0 93 e0 b1 bd 83 64 2e be 07 dc 19 bc d5 00 ae bb
       -0.08685412 -0.1703053 -0.0093908375 -0.005310158
0002f0 5b 4d 86 3d 0c 2b ab bd 04 f9 c4 bc 46 ea 0b be
       0.06557723 -0.0835782 -0.024044521 -0.13663587
000300 3c f1 d9 bd fd 15 af 3d b6 cc b8 3d bb 54 ad bc
       -0.10641715 0.08549116 0.090234205 -0.021158567
000310 76 ef 73 3b 3e df ae 3d d4 60 8c 3d ef c8 9d 3d
       0.0037221587 0.08538674 0.06854406 0.07704341
000320 04 79 ee 3c 3a b2 d7 bd 3f af 08 be 25 e1 50 be
       0.02911044 -0.10532041 -0.13348101 -0.20398386
000330 f2 4a 40 bd df 09 d9 bc 92 e4 2d bc 96 3b 1b 3c
       -0.046946473 -0.026493965 -0.010613577 0.009474656
000340 b4 b4 f0 bc a2 b1 d0 bd fb 57 6a be ae fb 4f be
       -0.029383041 -0.10190131 -0.22885124 -0.20310852
000350 17 35 0f bd 67 62 ed bd 2c 6d 9b 3d 5e af 4a bd
       -0.03496274 -0.115910344 0.07589182 -0.04948365
000360 a3 ce b0 bd 05 db 6d bd 5e 27 97 bd 0f 59 1c bd
       -0.08633163 -0.0580702 -0.073805556 -0.03817087
000370 50 12 0b be 1f 7a 8b 3c fe 55 d4 3d 70 91 12 be
       -0.13581204 0.017026005 0.10367964 -0.14313293
000380 a3 75 34 bc 05 8d 03 be fd 86 34 bd f9 0f 9a bd
       -0.011014375 -0.12846763 -0.044074047 -0.07522578
000390 1e cb 03 bd 1d f9 80 3c 43 2d f8 3d 86 a4 12 bd
       -0.03217613 0.015743786 0.12118008 -0.035801433
0003a0 2c f7 20 bd 4f 44 8a 3d fd c4 d1 bd 77 a5 ba bd
       -0.03929822 0.0675131 -0.10242651 -0.09113591
0003b0 c2 cd 42 be 6a 32 06 bc 9c 87 24 be 79 01 38 bc
       -0.19023803 -0.008190731 -0.16067356 -0.01123082
0003c0 f0 34 49 bb 8b 05 ba bd 69 ae f4 3c 14 a6 11 be
       -0.003070172 -0.090830885 0.029868321 -0.1422351
0003d0 20 b5 1c bc 37 47 31 bd 5c 9f c5 bd ee 0c 29 bd
       -0.009564668 -0.043280806 -0.09649536 -0.041272096
0003e0 89 99 1f 3e 00 04 4a bd 1f cf c1 3d 19 9d b2 3d
       0.15585913 -0.04932022 0.09463333 0.0872137
0003f0 5d 1d 0a bd 3d 2a 4d 3d f7 b9 16 be 65 04 f5 bd
       -0.03371941 0.05008911 -0.14719377 -0.11963729

conv2.bias f4 [64]
000000 e1 e0 0d 3d 9a b0 1d 3d f3 5f b1 3c 7b 13 80 3d
       0.03463829 0.0384985 0.021652197 0.062537156
000010 0e 06 52 bd 0a 78 8a bc 93 44 c5 3c 99 7e 90 bb
       -0.051275305 -0.016902942 0.02408055 -0.004409623
000020 81 1c 1f 3d 7a df 24 3d f1 0b 50 bd 11 59 a5 ba
       0.038845543 0.040252186 -0.05079264 -0.0012615045
000030 dd 6d f7 3c 4c 6f 64 3c bb ca 39 bd af 3c 26 3d
       0.030203754 0.013942551 -0.045359354 0.040585216
000040 d4 1a 46 bc 39 56 40 bd 8e cd 69 3d f5 e3 a0 bc
       -0.012091357 -0.04695723 0.057080798 -0.019639948
000050 db ce 2d 3c 27 0f a5 ba 09 b5 6d 3c e5 e7 1b bc
       0.0106084 -0.0012593017 0.014508494 -0.009515737
000060 de 96 38 3d ed 0b 13 3d f9 1c 46 3d 72 47 41 bd
       0.045065753 0.035900045 0.048367474 -0.047187276
000070 0d 67 44 3d f4 b5 3d 3c f1 28 36 3d 36 76 d2 bc
       0.04794984 0.011579026 0.04447264 -0.025691133
000080 5e 82 9c 3b 03 d0 13 bd 34 03 1c ba b8 9d 6b bd
       0.004776283 -0.036087047 -0.0005951405 -0.05752346
000090 90 b8 03 3c 9a d4 81 bc e6 ae d1 bc e0 e4 7f 3d
       0.008039609 -0.015848447 -0.025596093 0.06247413
0000a0 e2 92 50 bd b8 ac 04 3d 5c b9 3d bd 05 75 83 bb
       -0.05092133 0.03239128 -0.04631935 -0.0040117525
0000b0 e2 f6 c2 3c 10 2d a5 bc 27 ba 0e bc b7 a8 87 bc
       0.023799364 -0.020163089 -0.008711374 -0.016559942
0000c0 4d 3e a7 bc 9f 2d 20 bd 8e ff d6 3b 32 7e 81 3d
       -0.02041545 -0.039106008 0.006561226 0.06322898
0000d0 d8 ee 14 3d 85 66 b5 bc e1 4a df bc ee 33 18 bd
       0.03636059 -0.022143612 -0.027257385 -0.0371589
0000e0 fb ec 1c bc 18 e6 11 bd 7b 8d 58 bd d4 23 4e bd
       -0.009577985 -0.035619825 -0.0528693 -0.050327137
0000f0 60 08 4d bd fd 59 62 3c d9 c8 90 3c b1 04 b1 3c
       -0.050056815 0.0138154 0.017673897 0.021608682

bn2.weight f4 [64]
000000 38 3d 86 3f e0 7b 6d 3f f3 f8 2d 3f 46 6c 8a 3f
       1.0487432 0.92767143 0.6795799 1.0814292
000010 e7 ed 82 3f fe 7f 6d 3f b3 6f 94 3f 73 b3 9b 3f
       1.0228852 0.92773426 1.1596588 1.2164139
000020 53 fc 87 3f c2 99 64 3f 75 bd 6b 3f 51 39 5b 3f
       1.0623878 0.89297116 0.92085963 0.8563433
000030 69 d9 8e 3f 1d 07 8e 3f c9 24 8c 3f 1f d8 7f 3f
       1.1160098 1.1095921 1.0948726 0.9993915
000040 1c e9 3f 3f 97 60 75 3f fb 02 4a 3f ea ee 85 3f
       0.7496507 0.9585051 0.789108 1.0463536
000050 3a 31 8e 3f 05 f5 07 3f c1 1a 9d 3f 0b 2a 7b 3f
       1.1108773 0.53108245 1.227379 0.9811103
000060 76 b1 85 3f eb 5b 83 3f 77 cc 63 3f 78 b3 84 3f
       1.0444782 1.0262426 0.88983864 1.036727
000070 57 83 6d 3f 0f f4 0a 3f 88 71 7c 3f 0f 2a 61 3f
       0.92778534 0.54278654 0.98610735 0.879548
000080 4e e3 20 3f 63 a9 5e 3f 72 d1 97 3f fa 12 68 3f
       0.6284684 0.86977214 1.1860793 0.90653956
000090 5f a3 94 3f ac ab 7c 3f 76 22 85 3f 53 95 76 3f
       1.1612357 0.9869945 1.0401142 0.963216
0000a0 01 7c 8b 3f 01 9d 82 3f 17 c9 93 3f 3c 2f 70 3f
       1.0897218 1.0204164 1.1545743 0.93822074
0000b0 33 b1 99 3f e9 9d 5f 3f 18 be 65 3f ed 3d 5c 3f
       1.2007202 0.87350327 0.89743185 0.8603199
0000c0 2f e1 5c 3f 81 63 6c 3f 2f 66 87 3f 97 09 82 3f
       0.862811 0.9233933 1.0578059 1.0159177
0000d0 f1 96 76 3f 52 b3 94 3f c0 55 88 3f 07 85 a0 3f
       0.9632407 1.1617224 1.0651169 1.2540597
0000e0 21 05 5d 3f cd 82 80 3f 51 53 88 3f 9c 6b 83 3f
       0.8633595 1.0039917 1.0650426 1.0267215
0000f0 2c 9a 8b 3f b6 f0 86 3f 58 c5 8e 3f 24 3a 94 3f
       1.0906425 1.0542209 1.1153975 1.1580243

bn2.bias f4 [64]
000000 10 1f 03 be a5 88 48 bd 65 30 1d bf db 99 d8 bd
       -0.12804818 -0.04895844 -0.6140197 -0.105762206
000010 5e da 2a bd df 82 c3 be a4 1f 58 bd 1b d2 f4 bd
       -0.041712157 -0.38185784 -0.05276455 -0.11954137
000020 94 7e 2a be 5b 11 b2 be 77 73 62 be 1f 32 50 be
       -0.16649848 -0.34778866 -0.22114359 -0.2033162
000030 1a dc 59 bd a6 b2 c6 3a 9d 10 42 be 62 af de be
       -0.05318842 0.0015159443 -0.1895165 -0.4349318
000040 cc 74 ae be 8a 7b c4 bd 2d f8 2e be ed 5e 9b be
       -0.34073484 -0.09593876 -0.17086859 -0.3034586
000050 78 24 81 be 01 ed e8 be b2 3f 0f be 59 bb 19 be
       -0.25223136 -0.4549332 -0.13989142 -0.15012874
000060 98 af 9f 3c 2a 52 81 be cb bd bf be 95 fa 61 be
       0.01949291 -0.25258 -0.37449488 -0.22068246
000070 95 81 8e be 7b 82 fb be bb c0 45 be c5 41 0e bf
       -0.27833238 -0.49122986 -0.19311802 -0.55569106
000080 49 16 29 be 5d fa 9b be d1 f8 3c be 83 9b 93 be
       -0.16512407 -0.3046445 -0.18454291 -0.28829584
000090 58 30 2b be 3b 64 c5 bd 67 b3 19 be e1 f5 6e be
       -0.1671766 -0.09638258 -0.15009843 -0.23335983
0000a0 52 99 3f be 18 74 8a be 89 c0 fa bc 7c ef 46 be
       -0.18710831 -0.27041698 -0.030609386 -0.19427294
0000b0 32 85 38 be 4f 80 0e be dc 5b 89 be ab 20 9c be
       -0.1801956 -0.13916133 -0.26827896 -0.30493674
0000c0 62 3e d6 be 47 86 bb be ca c5 0c be b4 7f 3a be
       -0.4184447 -0.36625883 -0.13747326 -0.18212777
0000d0 c2 da 39 be cd 2d d8 3c f6 81 a9 be e1 1b a7 bd
       -0.18149856 0.026389027 -0.33106965 -0.08159614
0000e0 7d 6e ac be 56 38 99 be 4f 65 8f be ff a6 b9 bc
       -0.33678046 -0.29925793 -0.2800698 -0.022662638
0000f0 4b 13 18 be 49 d7 61 bd 93 a3 c2 bd 1c c4 0d ba
       -0.1485111 -0.055136953 -0.095038556 -0.0005407946

bn2.running_mean f4 [64]
000000 00 c7 02 c0 4e 58 00 c0 2c a3 f6 3e 9b 6d 11 bf
       -2.043396 -2.0053897 0.48171365 -0.5680787
000010 ef d9 c3 bf 9e 49 e4 bf 55 9e 97 bf 5f 32 20 bf
       -1.5300883 -1.7834966 -1.1845194 -0.6257686
000020 3f 5b 71 be 85 0d 2f bf e2 f3 f5 bf dc a9 d1 bf
       -0.23569964 -0.68380004 -1.9215052 -1.6379962
000030 ba fe 0c c0 c4 77 50 bf 79 7a 67 c0 40 1f d2 be
       -2.2030473 -0.8143275 -3.6168501 -0.41039467
000040 d0 fe d1 bf 9e c3 51 c0 f4 54 28 c0 1b 1f 78 bf
       -1.6405888 -3.2775645 -2.6301851 -0.96922463
000050 d3 42 ea 3f 49 17 69 bf aa 5b b2 be 79 f7 34 40
       1.8301643 -0.91051155 -0.3483556 2.8276045
000060 9d 36 c4 bf 5a ab ad bf f1 ff 68 bf e2 5d c0 bf
       -1.5329167 -1.3567917 -0.91015536 -1.5028651
000070 ac f1 b4 bf a9 d8 00 40 f2 d1 12 c0 e7 c7 36 c0
       -1.4136252 2.013224 -2.294064 -2.855951
000080 51 10 06 bf 21 32 86 bf c8 41 b4 3f dc f4 e0 3f
       -0.52368647 -1.0484048 1.4082575 1.7574725
000090 1b 1e 2c be 82 5c 8b bf 7b 3b 08 40 c2 5f 5e c0
       -0.1680836 -1.0887606 2.1286304 -3.4745946
0000a0 25 c5 96 bf 86 ca 18 3f 91 87 dc be a9 61 55 c0
       -1.1778914 0.59684026 -0.4307218 -3.3340857
0000b0 7b ff 1e bf ac 05 2b c0 a3 f2 99 bf 78 92 2b c0
       -0.6210858 -2.6722212 -1.2027172 -2.6808147
0000c0 aa e2 50 be 34 e5 9f be 55 89 0f c0 9b 9d 95 bf
       -0.20398965 -0.31229556 -2.242757 -1.1688722
0000d0 15 07 85 bf 24 42 83 bf 56 d1 19 bf 50 99 78 bf
       -1.0392786 -1.025456 -0.60085046 -0.97108936
0000e0 9a b2 75 c0 f3 4d d9 bf b2 37 52 bf 3f 0c b3 bf
       -3.839026 -1.6976913 -0.82116234 -1.3988112
0000f0 2b c4 e1 bf b2 06 18 c0 0b b7 ae be 1a 12 f8 bf
       -1.7637991 -2.3754086 -0.34124026 -1.9380524

bn2.running_var f4 [64]
000000 43 a4 84 41 f4 ed 92 40 fa 2e c0 40 48 1d 35 41
       16.580206 4.591547 6.0057344 11.319649
000010 a9 5b fb 40 9c 99 c3 40 3c 63 e1 40 65 3a f1 40
       7.854939 6.112501 7.0433636 7.5383782
000020 a3 56 e1 40 72 30 9a 40 c6 77 f0 40 8b 9e 93 40
       7.041826 4.8184137 7.514621 4.6131034
000030 1c ca 1b 41 54 91 e7 40 dd 47 89 41 66 eb 91 40
       9.736843 7.2364902 17.16009 4.559985
000040 3f 20 47 40 74 60 c6 40 55 66 92 40 bc d9 7f 40
       3.1113431 6.199274 4.5749917 3.9976645
000050 f8 e2 87 40 be 52 83 40 0b 7a 95 40 34 f8 82 40
       4.246456 4.1038504 4.671148 4.092798
000060 23 6f 1e 41 c0 09 30 41 4a b4 2e 40 d8 36 9b 40
       9.902133 11.00238 2.729754 4.850445
000070 47 48 88 40 7a 26 08 41 f1 c2 33 41 4f ce 21 40
       4.258823 8.509394 11.235093 2.528217
000080 4d bb 44 40 2f 13 ea 40 45 93 01 41 27 f9 62 40
       3.073932 7.3148417 8.098454 3.546457
000090 44 f9 f6 40 70 1f a7 40 7f a9 87 40 39 93 9e 40
       7.717928 5.2225876 4.2394404 4.9554715
0000a0 78 04 04 41 db 4c b1 40 c1 8d fc 40 17 db 56 40
       8.251091 5.540632 7.892304 3.3571222
0000b0 44 1b 2d 41 b3 f2 d8 40 16 ed e7 40 49 76 7d 40
       10.819157 6.7796264 7.247691 3.9603446
0000c0 ef 81 61 40 84 e3 56 40 22 51 44 40 6f 20 7d 40
       3.5235555 3.3576365 3.067452 3.9551046
0000d0 1e 0f c7 40 d2 51 bf 40 c5 ec 07 41 0a b7 03 41
       6.2205954 5.978738 8.495305 8.232187
0000e0 1b 41 8a 40 55 0f 52 40 47 f7 04 41 77 d0 05 41
       4.3204474 3.2821858 8.31037 8.363395
0000f0 27 c9 c7 40 f7 d1 08 41 76 c9 b8 40 5b 4b e7 40
       6.2433047 8.551261 5.7745924 7.2279487

conv3.weight f4 [64, 64, 3, 3]
000000 b2 02 ba bd a2 7f b5 3d 1f 83 ae 3d 91 51 5d ba
       -0.09082545 0.08862235 0.08521103 -0.00084426353
000010 e7 76 38 3d 13 22 5a be b8 74 cb bd 90 cc a2 3d
       0.04503527 -0.21302061 -0.09934372 0.079491735
000020 2d 8b d3 3d b2 5b 04 bc da c4 21 be c4 f1 53 be
       0.1032928 -0.0080785025 -0.15797749 -0.20697695
000030 d9 f4 c3 3d 29 7c fe 3d 29 60 03 3e 2d 4d f6 3c
       0.09568185 0.124260254 0.12829651 0.030066097
000040 3e ac d2 bb fe 61 18 bd 99 4b 77 3c 78 e3 4e bd
       -0.0064292243 -0.037202828 0.0150937075 -0.0505099
000050 f2 a5 7c bd 45 d4 2e 3d 72 fe 43 be d9 d4 4a be
       -0.061681695 0.042682905 -0.19140032 -0.19807757
000060 3f 54 4f be 81 48 2d be f7 38 18 be a1 e8 bc 3d
       -0.20246981 -0.1692219 -0.1486548 0.09224058
000070 8c 04 76 ba 31 2d f7 bd cb 85 3c bd 20 ea 59 bc
       -0.0009384833 -0.120691665 -0.046026032 -0.013300449
000080 c8 a3 ac bd 46 58 a2 3c 8d 88 bd 3d 28 c4 36 3e
       -0.08429676 0.019817483 0.092545606 0.17848265
000090 47 d9 cf bd 1b 7e 9e bd 87 ae 81 bd b3 f9 cd 3d
       -0.10148864 -0.077388965 -0.063321166 0.10057392
0000a0 2d 94 96 3d 55 72 b6 3d f4 f1 45 3d 63 1b 73 3d
       0.07352481 0.08908526 0.048326448 0.05935229
0000b0 0d d4 4b bd 9c 11 8b 3c 31 6b 0e be cc 45 0a be
       -0.049762774 0.01697617 -0.13908078 -0.13503188
0000c0 2b fb e0 39 2b d9 b9 3c b4 70 19 bd 34 71 ac 3c
       0.00042911744 0.022686562 -0.037460998 0.021050073
0000d0 4b 80 e6 bd 8b 40 bb bd 02 7e a2 bd c3 57 e7 bd
       -0.11254939 -0.0914317 -0.0793419 -0.11296036
0000e0 1f 73 01 be 93 4c 35 b9 b9 af bb 3d 89 fd ce bd
       -0.12641571 -0.00017290031 0.09164376 -0.10106952
0000f0 ed 3a f6 3c c6 7e a5 3b 84 7a 52 be e2 e4 06 3d
       0.030057395 0.005050513 -0.20554549 0.032933123
000100 5c 84 1d 3e cb e5 b3 bd 72 af ce 3c 0f 04 f8 3c
       0.15382522 -0.08784064 0.025230143 0.030275373
000110 8d 9f 0f be 9c 8d d1 bd f9 c8 a5 3c 27 ab 8f bd
       -0.14025708 -0.10232088 0.020237433 -0.070150666
000120 38 11 12 3d 0d ad 06 3e ea 2d bb bd 22 a0 2d 3d
       0.035660952 0.13151951 -0.09139617 0.042389043
000130 00 aa 54 bd 71 2e d7 3c 3d 20 53 3d f9 8e 12 3e
       -0.051919937 0.026267262 0.051544417 0.14312352
000140 69 f6 55 3d c4 01 66 bd fc 40 35 bd b4 75 03 3d
       0.05223695 -0.056154028 -0.044251427 0.032094672
000150 fd 84 85 3c 6c 48 c3 bd c0 4a 6a be 9c dd 7e bc
       0.016298765 -0.09535298 -0.22880077 -0.0155557655
000160 20 99 f9 bd 44 83 cf bd d9 93 40 bb 7b 6c 78 3d
       -0.121874094 -0.10132459 -0.0029385 0.06065033
000170 49 01 7c bd 4d 31 1d bc 97 94 b8 3c 2a e7 16 be
       -0.061524663 -0.009594274 0.02253179 -0.1473662
000180 32 4e 7b 3d 27 78 89 bd 09 80 37 be 3a 77 90 3d
       0.06135387 -0.0671237 -0.17919935 0.07053991
000190 91 56 36 bd 2f 6d b6 3d 7d 04 79 3d 44 44 6c 3d
       -0.04451615 0.08907544 0.060795296 0.05768229
0001a0 9a 41 97 bd fa c3 12 3d 9b af 9d bd 69 f1 18 be
       -0.073855594 0.03583143 -0.0769951 -0.1493584
0001b0 c2 6c a7 bc 83 96 03 be 2a ee f9 bd 23 f1 a6 3d
       -0.020437602 -0.12850384 -0.12203629 0.08151462
0001c0 51 3c 83 3d ac f2 bb 3d 10 60 9a 3c 9d 22 94 3c
       0.06407989 0.09177145 0.018844634 0.018082911
0001d0 dd 39 b0 3c 75 f4 f8 bb 98 39 70 3d 63 66 ce 3b
       0.021511966 -0.007597501 0.058648676 0.0062988265
0001e0 d7 51 3c 3c 7e d8 6b 3d 8d 04 fc 3c 4d ab 93 bc
       0.0114941215 0.05757951 0.030763889 -0.018026019
0001f0 59 9a 05 3e 10 d1 72 3c 42 9f 52 bd c5 70 57 3d
       0.1304716 0.014820352 -0.05142141 0.05259778
000200 32 3b 7b 3d d4 a5 f3 bd 64 df 33 bd 1d ba d5 3d
       0.06133575 -0.118968636 -0.043914214 0.10435889
000210 93 b5 81 3d 06 60 25 bd a8 4d 34 bd d9 13 ca bc
       0.06333461 -0.04037478 -0.04401937 -0.024667667
000220 aa 6d bc bd 8e ac b2 bd 52 50 60 bd 3d 5a b9 bd
       -0.09200604 -0.087243184 -0.0547641 -0.09050415
000230 a8 bd 98 bd d0 c4 98 bd ac 34 81 bc 69 0b 9b bb
       -0.07458049 -0.07459414 -0.015772186 -0.004731585
000240 b3 b9 fe bd fc e7 8d 3d c0 29 74 3d 1a a2 3c bd
       -0.12437763 0.06929013 0.05961013 -0.04605303
000250 f4 68 1d bd 1e 62 99 bc 79 92 02 3c bd 4a ee bd
       -0.03843017 -0.018723544 0.007969492 -0.11635349
000260 13 67 e2 bd 9d 69 a5 bc 15 28 b9 bb 17 25 23 3d
       -0.11054816 -0.020191962 -0.00565053 0.039830294
000270 54 eb aa 3d c1 a4 e3 3d 41 31 20 bd 54 33 70 3d
       0.083456665 0.11115409 -0.039109472 0.0586427
000280 4b 24 c5 bc b7 dc 85 be 32 fe ba 3c 29 88 ce bc
       -0.024065157 -0.26144955 0.022826288 -0.02521141
000290 40 2b ef bc 97 3f 7b ba 39 99 0c 3e ec a7 85 3d
       -0.029195428 -0.0009584366 0.13730325 0.06526169
0002a0 e1 b0 92 3d b9 c5 34 bd 4b ad 49 be 80 7a 93 bd
       0.07162643 -0.044133876 -0.19695012 -0.072010994
0002b0 aa 64 b0 bd 4a 32 c6 3d 07 91 71 ba 51 62 23 3d
       -0.0861295 0.096775606 -0.0009215031 0.039888684
0002c0 ee 0d 48 bd 1a 57 70 3b 64 66 8b bd eb 1c 7b be
       -0.04884141 0.003667301 -0.06806639 -0.2452275
0002d0 87 c9 3f bd f2 89 51 3c 5d c0 f9 bd 29 56 c9 bb
       -0.04682305 0.012789236 -0.121948935 -0.0061443043
0002e0 74 8d b3 bd 36 62 39 bd a0 d5 c2 bc d7 e6 14 3e
       -0.087672144 -0.045259677 -0.023783505 0.14541183
0002f0 c7 ea df 3c ee 70 d9 3d 4d df ad bd 21 b5 32 be
       0.02733363 0.10617243 -0.08489857 -0.17451908
000300 90 e2 3d bc b9 23 c2 3c a9 a6 02 3e a0 9a d6 3c
       -0.011589661 0.023698675 0.12758888 0.026196778
000310 69 00 bc bd a1 a0 f7 bd 59 2d 66 bd c7 b5 0b be
       -0.09179766 -0.120911844 -0.05619559 -0.13643561
000320 bd 49 30 be e8 fc 6d 3d 7d 39 de 3d dd 92 e0 ba
       -0.17215629 0.05810252 0.10850809 -0.0017133612
000330 d6 f9 ea bc a0 6f 82 3d 9b cf d9 bb ea 35 98 bd
       -0.028683584 0.06368947 -0.006647063 -0.07432158
000340 e4 f9 3c be dd 18 82 bd 90 e9 b0 bc 59 e4 a7 3d
       -0.184547 -0.063523985 -0.021595746 0.08197851
000350 b7 b4 93 3d f5 66 23 3c 85 38 ed 3d 9e 97 37 3e
       0.07212203 0.009973277 0.11583046 0.17928931
000360 74 29 2c bd fc 56 b1 3d 7c df 23 3c 72 76 81 bd
       -0.04203172 0.08659169 0.010002013 -0.0632142
000370 03 16 56 bc f2 c8 de bc 03 9f cb 3d 30 4d a5 3d
       -0.013066771 -0.027195428 0.099424385 0.08071363
000380 34 91 66 3a 33 cf 7a bd 3a bb 3b bc 2f 65 21 bd
       0.00087954407 -0.061232757 -0.0114582125 -0.039403137
000390 81 ac 9f 3d 51 e1 cf 3d 48 9a 96 bd 95 f2 70 bd
       0.077965744 0.101503976 -0.073536456 -0.058825094
0003a0 13 81 d3 bc 37 76 f3 bc 32 92 65 bd 83 26 10 bc
       -0.025818383 -0.029719455 -0.056047626 -0.008798244
0003b0 1f 79 c3 3d ce b0 bc bd e2 74 b9 bd 95 d2 0f 3d
       0.095445864 -0.0921341 -0.09055497 0.035112936
0003c0 a3 be 36 3e e3 bd 8d bd 62 2a 2a bd 53 2f d5 bc
       0.1784616 -0.06920984 -0.041544326 -0.026023543
0003d0 35 60 3c be a2 83 b5 3c e1 f3 95 3d 06 b0 c2 3a
       -0.18396075 0.022157494 0.07321907 0.0014853484
0003e0 ff 84 42 bc 64 b6 b7 3d 13 e1 5b 3d 47 ee c1 3d
       -0.011872529 0.08970335 0.053681444 0.09469276
0003f0 a6 b0 d8 bc 7c c1 1c bc a8 52 3a 3d 92 f3 49 3d
       -0.02645142 -0.009567615 0.045488983 0.049304552

conv3.bias f4 [64]
000000 08 94 ba bc 5d 2e 66 3c 50 bd 0b 3d 71 5c 33 3d
       -0.022775665 0.01404914 0.03411609 0.04378933
000010 b6 21 b8 3c 4d 1b be 3c e7 b1 f0 3c 9f 4d b6 bb
       0.022477012 0.023206377 0.029381705 -0.0055634524
000020 54 32 22 bd fd fa 03 3d 5a 90 ed 3c 9e eb de 3c
       -0.039598778 0.032221783 0.028999496 0.02721196
000030 67 9a 90 3c 86 a4 d9 bc 14 51 f7 bc fe 5d 39 b9
       0.01765175 -0.026567709 -0.030190028 -0.0001767799
000040 4c a6 0a 3c cb 51 a0 3b c2 af 0d bc 57 f9 d5 bc
       0.0084625 0.004892563 -0.008647861 -0.026119871
000050 1f 89 59 3c 43 4d 17 3c 5c a4 40 bd 10 a7 4e 3c
       0.013277321 0.009234729 -0.047031745 0.012613073
000060 45 f9 cc 3c 18 f9 f5 bc d5 94 a4 bb 7d ed 11 bd
       0.025021205 -0.030026004 -0.005022625 -0.035626877
000070 38 64 aa 3b 7a 19 27 3d 35 92 ea bc e9 72 17 3d
       0.0051999353 0.04079578 -0.02863417 0.03697482
000080 97 ee dc 3c 0f c7 13 bd 08 19 e8 bc dc 21 0e bd
       0.026969237 -0.03607851 -0.028332248 -0.03470026
000090 00 ba 9f bc 9a d0 26 3a e7 c2 bb bc f0 d6 0c bc
       -0.019497871 0.00063634815 -0.022920085 -0.008596167
0000a0 ce b7 41 bd 72 c5 41 3c 10 57 c1 bc 4b 91 fe bb
       -0.04729443 0.01182686 -0.023601085 -0.007768785
0000b0 98 8b 62 38 b3 e5 8e 3c 4c 29 b5 3c bf 29 85 bc
       5.4012606e-05 0.017443513 0.022114418 -0.016255258
0000c0 97 ac c1 bb 80 61 8a bc eb 97 4b bc 3a b0 72 bc
       -0.005910467 -0.016892195 -0.012426357 -0.0148125235
0000d0 6c 51 0d 3d a6 c1 ff bc d0 a0 81 ba 09 88 28 3d
       0.034501478 -0.031220268 -0.0009889845 0.04114536
0000e0 34 35 69 3c 9c 82 65 bc 7a b4 06 bd 38 b8 55 3c
       0.014233876 -0.0140081905 -0.03288696 0.013044409
0000f0 de 5e 1c bd ed 80 06 3d 8e 23 1a bd 9b ec 3b bb
       -0.03817641 0.032837797 -0.037631564 -0.0028674963

bn3.weight f4 [64]
000000 f4 98 75 3f 9d 6d 6f 3f 88 8a 97 3f 14 25 a0 3f
       0.9593651 0.9352663 1.1839151 1.2511315
000010 11 95 67 3f f1 63 7f 3f 0f f6 92 3f 5b 58 92 3f
       0.9046183 0.99761873 1.1481341 1.1433214
000020 5e 8c 7b 3f 3b 86 6a 3f a0 f5 64 3f 6c 40 92 3f
       0.9826106 0.9161107 0.89437294 1.142591
000030 01 5b 36 3f 6f 66 80 3f e1 60 83 3f 01 ac 7b 3f
       0.7123261 1.003126 1.026394 0.9830933
000040 60 ce 93 3f d5 5a 88 3f 0d 15 55 3f d5 e7 4c 3f
       1.1547356 1.065272 0.83235246 0.8004125
000050 16 a8 88 3f 31 4c 92 3f b4 7d 75 3f 4d 1b 8d 3f
       1.0676296 1.1429502 0.9589493 1.1023957
000060 08 90 58 3f 6e b0 71 3f 9d 2c 58 3f 6b e7 7e 3f
       0.84594774 0.94409835 0.84443074 0.99571866
000070 6a 11 7c 3f e4 27 8a 3f 15 8a 6c 3f 62 9c 87 3f
       0.9846407 1.0793424 0.92398196 1.0594599
000080 89 a2 7b 3f fb 46 74 3f 24 18 8a 3f be ef 7b 3f
       0.98294884 0.9542081 1.0788617 0.9841269
000090 fc de 51 3f 2b 33 98 3f 1a c3 8e 3f 44 d3 4f 3f
       0.8198087 1.1890615 1.115329 0.8118174
0000a0 8f 74 7b 3f 9d d2 55 3f 17 f9 42 3f da 36 82 3f
       0.9822473 0.83524495 0.7616133 1.0172989
0000b0 fe a1 7c 3f 5c 37 85 3f 78 e1 95 3f 4b d1 89 3f
       0.9868468 1.0407519 1.1709433 1.0766996
0000c0 b6 99 4d 3f b7 31 4f 3f d1 78 89 3f 6d c9 89 3f
       0.8031267 0.80935234 1.0739995 1.0764595
0000d0 96 0a 8d 3f 06 b6 80 3f 74 60 51 3f 5f 5f 73 3f
       1.1018856 1.0055549 0.817878 0.950674
0000e0 2e 66 88 3f d5 4b 66 3f ae 6c 81 3f ce cb 75 3f
       1.0656183 0.8995946 1.0111291 0.96014106
0000f0 1a 08 67 3f be 4a 94 3f f4 f5 68 3f 30 c4 68 3f
       0.90246737 1.158531 0.91000295 0.9092436

bn3.bias f4 [64]
000000 f8 40 80 be 16 52 e3 bd cc 4d 85 be f8 7f ad be
       -0.25049567 -0.11099641 -0.26035917 -0.33886695
000010 8c bc 6b be b4 4d 93 be 79 c2 26 be 14 f8 0b be
       -0.23021144 -0.2877022 -0.16285123 -0.13668853
000020 1e 88 86 be 16 5f 4c be b4 0b 07 be d8 bc 8e be
       -0.26275724 -0.19958147 -0.13188058 -0.2787845
000030 1b 9d 12 be 89 8d b1 bd cc 91 18 be 0e 60 a2 bc
       -0.14317743 -0.08669574 -0.14899367 -0.019821193
000040 86 0e c0 bd 4e 20 2d be 6e a7 9c be 9b 9b ea bd
       -0.0937777 -0.16906855 -0.3059649 -0.11455461
000050 9f c7 81 be 31 a1 3c be 75 55 38 be 73 ad 69 be
       -0.2534761 -0.18420865 -0.1800135 -0.22820072
000060 6b 3d 77 be ab 19 f7 bd 0c d4 8b bc ce 7e c3 bd
       -0.24144523 -0.12065443 -0.017068885 -0.095456704
000070 a2 21 da bc 29 4d 66 be 3f 2a ba be 47 72 d2 bd
       -0.026627365 -0.22490372 -0.36360356 -0.10275703
000080 bf b2 08 be c8 8f 75 be 91 b5 af bd d1 6f 96 bd
       -0.13349436 -0.2398063 -0.08579553 -0.07345546
000090 29 b1 56 be a5 17 aa be 9f 1d 22 be d3 ac dd 3c
       -0.20966019 -0.33221164 -0.15831612 0.027059948
0000a0 41 b3 d8 bd c8 36 75 be a9 be 83 be 9b 9b 25 bd
       -0.10581065 -0.23946679 -0.257314 -0.0404316
0000b0 47 19 38 be 05 31 3d bc 64 ec 60 be 45 2a 75 be
       -0.17978393 -0.011547332 -0.21965176 -0.23941906
0000c0 95 88 63 be ce 00 08 bd 23 8f 4f be 78 77 56 be
       -0.2222007 -0.033203892 -0.20269446 -0.20944011
0000d0 f3 3a 81 be 68 2d 25 be fe 87 22 be 2a 34 94 be
       -0.25240287 -0.16130602 -0.1587219 -0.28946048
0000e0 7d 13 5e be 9c 00 6c be 81 d3 a9 be e5 e6 68 bd
       -0.21687122 -0.23047107 -0.33169177 -0.056860823
0000f0 9e 93 92 be a3 23 8b be d5 fd 36 bb 13 ba 86 be
       -0.28628248 -0.27175626 -0.0027922292 -0.26313838

bn3.running_mean f4 [64]
000000 a5 ba 72 c0 f9 14 37 be 9b d8 93 3e e7 bd c0 3f
       -3.7926419 -0.17879094 0.28876194 1.5057954
000010 61 b3 4c c0 56 1d 04 c0 e3 03 33 bf 09 0f ab c0
       -3.1984484 -2.0642905 -0.69927806 -5.3455853
000020 91 fd 6b 3d 36 bd 48 bf 6a bf d9 3f 7f 83 8a c0
       0.057614867 -0.7841371 1.701154 -4.328552
000030 3b af 62 bf 67 62 24 c0 35 cb d5 c0 06 4d 0e c0
       -0.8854863 -2.568506 -6.6810555 -2.2234511
000040 78 9c 0e c1 bf 09 8e c0 1c 92 1b c0 82 d7 a6 be
       -8.9132 -4.4386897 -2.4307928 -0.32586294
000050 ae d1 19 40 03 33 8f 3f 05 97 ba 3f 57 f5 49 3e
       2.4034228 1.1187443 1.4577338 0.19722496
000060 75 17 2f be 5e 13 38 c0 28 e9 04 c0 7f d5 d2 bf
       -0.17098792 -2.876182 -2.0767307 -1.6471404
000070 12 cc 31 c0 56 d2 84 c0 3f 05 9f 3e fd fa f3 c0
       -2.7780805 -4.150676 0.3105869 -7.624388
000080 85 81 c6 c0 10 58 fe bf 3f 93 ac bf e5 d8 b1 bf
       -6.2033105 -1.9870625 -1.3482436 -1.3894316
000090 37 76 e3 bf cf 08 dc be 37 de 57 40 ef 8d 5b 40
       -1.7770451 -0.4297547 3.372938 3.430538
0000a0 a4 7c 64 3e 0d ee 7d 3f 6f ea 9a bf 71 c8 f8 bf
       0.22313172 0.9919136 -1.2102793 -1.943617
0000b0 20 71 39 3d 83 f8 2a 40 02 70 d6 bf 6f ef 4e c0
       0.0452739 2.671418 -1.6752932 -3.2333639
0000c0 55 e6 30 40 01 53 ae 40 38 d0 73 c0 6a d7 ce c0
       2.7640584 5.4476323 -3.8095837 -6.4637957
0000d0 f8 22 0f bf 57 da 02 c0 0c 0d ec 3f 43 52 b0 be
       -0.55912733 -2.0445764 1.8441482 -0.3443776
0000e0 8b b3 44 3f 80 23 0f 40 8a 60 9c bf 43 a5 29 c0
       0.7683646 2.2365417 -1.2216961 -2.6507118
0000f0 90 47 94 bf 0d 59 a6 3e 99 e8 65 40 a8 f1 cf be
       -1.1584339 0.32489815 3.5923216 -0.40614057

bn3.running_var f4 [64]
000000 a7 c0 b8 41 84 e1 52 41 4b 6e 98 41 df 28 6e 41
       23.094069 13.180058 19.053854 14.884978
000010 f5 4a 82 41 1d 8a 0f 41 55 23 19 41 0f f3 d6 41
       16.2866 8.971219 9.571126 26.868681
000020 08 75 3b 41 52 6c 51 41 34 3d 19 41 34 98 29 41
       11.716072 13.088945 9.577442 10.599659
000030 d2 9f 19 41 d4 62 1f 41 61 69 ef 41 aa b3 55 41
       9.601519 9.961628 29.926455 13.356363
000040 b3 4c 10 42 59 03 88 41 b4 4a 90 41 cb 2a 88 41
       36.0749 17.001635 18.036476 17.020895
000050 c9 5c 5b 41 26 a9 6a 41 06 04 3a 41 59 2b ce 41
       13.710153 14.666296 11.625982 25.771166
000060 ea 7d 47 41 60 78 4c 41 64 06 27 41 50 61 bc 41
       12.468241 12.779388 10.43906 23.547516
000070 0b 70 86 41 f6 c2 3f 41 5e ee 78 41 53 01 99 41
       16.804708 11.985098 15.558195 19.125647
000080 95 e0 f0 41 c0 da 1d 41 83 d0 40 41 7e b9 a6 41
       30.10966 9.865906 12.050906 20.840572
000090 fd c1 56 41 e4 ec 3f 41 6a d7 54 41 e9 9b 6c 41
       13.42236 11.995335 13.302591 14.788064
0000a0 81 a3 2f 41 c6 ed 3a 41 fe c3 43 41 a1 be a3 41
       10.977418 11.68305 12.23535 20.46808
0000b0 7a 6e 8a 41 89 c0 80 41 2b 81 88 41 36 5a a6 41
       17.303944 16.094011 17.06307 20.794048
0000c0 57 15 3d 41 83 c6 1e 41 b4 80 c4 41 69 05 c6 41
       11.81771 9.923465 24.562843 24.752642
0000d0 f9 48 58 41 67 2a 6c 41 c0 e6 45 41 2d 4b 43 41
       13.517816 14.760352 12.368835 12.205853
0000e0 1f 7d 63 41 ca 37 7d 41 8f ef 61 41 13 dc 7c 41
       14.218047 15.82612 14.120986 15.803729
0000f0 9e 26 97 41 00 10 41 41 c3 64 4f 41 4c 69 78 41
       18.893856 12.066406 12.9621 15.525707

fc1.weight f4 [128, 576]
000000 67 e9 01 3e 71 04 82 bd 9e c1 6c bd f3 75 c9 3d
       0.12686692 -0.063485034 -0.057801835 0.0983695
000010 76 70 ca 3d ad 0c c6 3b af e5 04 bd f5 a2 c9 3c
       0.098847315 0.0060439915 -0.032445606 0.024613837
000020 0f 92 30 3e 41 47 b2 3c 32 69 3b bd 60 95 28 3d
       0.17243217 0.021762492 -0.04575462 0.04115808
000030 db a0 9e bd f3 9b 44 bd fa cc 9c bd 6f 60 03 bd
       -0.077455245 -0.048000287 -0.07656284 -0.032074388
000040 75 12 7e 3d 42 f1 44 3e 3e 39 32 ba 75 62 ae 3c
       0.06202932 0.19232658 -0.0006798691 0.021287182
000050 8d ae cc bd 23 a1 fd 3d 16 41 7b 3e bb c8 01 be
       -0.099942304 0.1238425 0.24536547 -0.12674229
000060 fb 5a 5d 3d c7 4e 43 3d 51 b3 92 3d 2e ef 5a bd
       0.054041844 0.04768255 0.07163108 -0.053450756
000070 9d a2 eb bd 71 d4 87 bd 64 b6 00 be ca e8 16 3e
       -0.115056254 -0.06632317 -0.12569577 0.1473724
000080 86 12 ee bd 77 6d 88 3d b6 ea 02 3b 2b 33 8d bd
       -0.11624627 0.06661504 0.0019976324 -0.06894525
000090 ca 9b 16 bc 2c 2a 8b 3d 4e 91 83 bd fa b6 29 bd
       -0.009192416 0.06795153 -0.06424199 -0.041434266
0000a0 96 05 e3 3d 4f 5f 81 be 20 77 bb 3d 1c 63 cd bd
       0.1108505 -0.25268027 0.09153581 -0.10028669
0000b0 4d f0 51 3d af e9 0c 3d 13 0f 3e 3d 3e 6e c3 3d
       0.05125456 0.034402546 0.046401095 0.095425114
0000c0 4b a3 50 3e 71 5a 09 be 9e 96 6e 3d c6 2a ac bd
       0.20374791 -0.13413407 0.05824911 -0.08406596
0000d0 76 53 06 be 0b 31 01 be 17 4a 3f 3d a8 dc 8c 3d
       -0.13117775 -0.12616365 0.046701517 0.06878024
0000e0 39 58 41 bd ea e8 da bd 8e 30 21 bd 61 6f 6a be
       -0.047203276 -0.10688956 -0.039352946 -0.2289405
0000f0 e3 eb 89 3d b3 2d e7 bc 8e 92 6b 3d 03 3b 7d bc
       0.06734445 -0.028220033 0.057512812 -0.015455964
000100 48 72 20 3d 01 7a a6 3d 8a 79 e2 bc 17 cb 00 3e
       0.039171487 0.08128739 -0.027645845 0.12577473
000110 a1 4c 89 bd 7d db 0c bd a5 31 9d 3d fc 76 33 be
       -0.06704069 -0.034389008 0.076754846 -0.17525858
000120 d8 98 b6 bd 4b 03 45 3d 04 92 3f be 15 aa 9b 3d
       -0.089158714 0.048098844 -0.18708044 0.076008
000130 5a 45 d0 3c 06 4a 3f bd 5f 6c 2e be 1e 53 8c bd
       0.025423694 -0.046701454 -0.17033528 -0.06851791
000140 ca f4 3a bc 46 85 41 bd 41 6e 2d bd c1 bb 88 bc
       -0.011410901 -0.04724624 -0.042341474 -0.01669109
000150 e4 ab a1 3d 8d 4e bf 3d 50 30 76 3d a5 58 92 3d
       0.07894114 0.09341154 0.06010467 0.07145814
000160 a0 d9 cd bd 65 af 1a bd 42 9a 2d be 87 72 8d 3d
       -0.10051274 -0.037764926 -0.16953376 0.0690661
000170 98 cd dd bc 66 ee 1a 3d c2 99 92 ba 08 e6 84 3d
       -0.027075574 0.03782501 -0.0011184739 0.064891875
000180 56 ca 93 3c 51 0c f7 3d 0b 0e 6a 3d d2 08 e5 3d
       0.018040817 0.12062896 0.0571423 0.11183323
000190 f7 24 dc bb 3e 38 84 3d 3a fa b4 3d 59 f8 82 bd
       -0.0067182737 0.0645604 0.088367894 -0.06395025
0001a0 59 96 b7 bd 8d 72 35 bc dc 89 8c be 02 d9 d5 bd
       -0.089642234 -0.011074674 -0.27448928 -0.104417816
0001b0 ff ad 14 3d 2c 2a 9a 3d cd 3f fc bd 37 ca 2b 3e
       0.036298748 0.07527575 -0.123168565 0.16776358
0001c0 c8 e8 eb bd a8 53 fd 3d 1f 24 f1 bc cd 2c 47 bc
       -0.11519009 0.12369472 -0.02943617 -0.012156677
0001d0 39 a3 97 bd 3f 92 50 bd 94 c2 32 be 46 28 b9 bc
       -0.07404179 -0.05092072 -0.17457038 -0.022602212
0001e0 e0 2b cc ba 5d 4e fc 3c ee 91 c0 3c 4b 84 97 bd
       -0.0015577041 0.030799085 0.023507085 -0.0739828
0001f0 d8 a2 e9 bc 1e ff 3e 3e 70 ef 2d 3e 58 68 99 3d
       -0.028520033 0.18652007 0.1698587 0.07490605
000200 47 e4 1f 3d a3 e4 f0 3c 90 b3 fb 3d 47 91 99 bd
       0.03903606 0.029405897 0.12290108 -0.074984126
000210 fe ba 04 3e 4f 6a b6 bd 4a 3a d2 bd ff bd aa 3d
       0.12961957 -0.089069955 -0.10265024 0.0833702
000220 19 7e 3a 3e 3a 84 9b bc 8d ca c9 bc fd dd cf bd
       0.18212165 -0.018983949 -0.024632717 -0.10149763
000230 80 da 75 be 1f 9d 9e 3d ce 9d a3 3d a2 9d 9c 3d
       -0.24009132 0.07744812 0.07989083 0.076472536
000240 12 4b 51 3e f4 3e 42 bd ca 59 c1 3d d9 95 d8 3c
       0.20438793 -0.047423318 0.09440954 0.02643864
000250 8a 8e d5 3d 82 59 0f be 6f ba a5 bc 77 7e b2 3d
       0.10427578 -0.13998988 -0.0202305 0.087155275
000260 e3 76 45 be 58 9a 1d 3b b2 38 88 bd 50 57 84 3c
       -0.19283633 0.0024048295 -0.06651439 0.016154915
000270 13 97 7e bd 9e c7 db bc aa f9 a8 3d bd 7b b5 3c
       -0.062155794 -0.026828583 0.08250745 0.02215373
000280 57 91 50 bd f0 73 0b 3c fc 1a d7 3c c5 05 22 3e
       -0.050919857 0.008511528 0.026257984 0.15822513
000290 97 08 bf bd cf e6 6e bd 40 7d 07 3d 19 90 a5 bd
       -0.0932781 -0.058325585 0.033078432 -0.08084125
0002a0 22 ea 8d 3c c1 ff eb 3c 97 01 e2 bd 23 4c 83 3d
       0.017323557 0.028808476 -0.110354595 0.06411006
0002b0 4f 6e d4 bc ba a7 56 3b af 11 72 3b b5 76 a1 3c
       -0.025931505 0.0032753781 0.003693681 0.019709924
0002c0 9d ea c0 bd 80 e7 e9 3c 8e 9d 8f bd d2 1f 20 bc
       -0.09419749 0.02855277 -0.07012473 -0.009773212
0002d0 8e d7 00 3c e6 63 30 3d 69 04 ed 3d f1 e0 36 be
       0.007863892 0.04306402 0.11573107 -0.17859246
0002e0 2b 8a 47 3d 74 5a b8 bd 25 04 09 bd e3 5f b9 3d
       0.04871575 -0.090016276 -0.03345122 0.09051492
0002f0 5e 26 01 3e f9 60 ac 3b 23 9f 80 bd 54 3f 12 3d
       0.12612292 0.0052605835 -0.06280353 0.035704926
000300 cc 69 15 3e 1e 48 b2 3d 42 bf 8a bd 8a 2b 0d 3e
       0.1459114 0.087051615 -0.06774761 0.1378614
000310 a7 e3 1a be 0d af 36 be 56 d1 b5 bc 2c 17 79 3d
       -0.15125905 -0.17840214 -0.022194546 0.060813114
000320 1b 4f 87 3d 7f 77 71 bd db fa af 3d 55 ae 17 3d
       0.06606885 -0.05895185 0.08592769 0.03703149
000330 05 1f 94 bd 25 31 97 3b 0f 9c c5 3b ad f4 9f 3d
       -0.07232479 0.004614013 0.0060305665 0.0781034
000340 17 22 de 3c 91 3a c8 bd ce 17 8a bd 86 42 1d 3e
       0.027115865 -0.09776796 -0.06742822 0.15357408
000350 1a aa 10 3d 70 f5 4d 3d 31 7e 39 3d 49 cc a6 3d
       0.03531847 0.050282896 0.04528636 0.08144433
000360 e0 45 d1 3d 51 23 ff bc 47 0c 7f 3d 9e 55 67 bd
       0.10218406 -0.03114477 0.062267568 -0.056478135
000370 2e ae 62 bd c2 38 68 bd 81 ad 45 3d b4 f8 10 bd
       -0.055341892 -0.056694753 0.04826117 -0.03539343
000380 73 c3 11 3e c5 10 07 be e3 2c 2c 3b 5f 6d b4 bd
       0.14234714 -0.13189991 0.0026271872 -0.088099234
000390 88 31 89 bd 1d 09 41 bd 5c 23 a8 3c d0 1f e3 3c
       -0.066989005 -0.04712783 0.020524673 0.02772513
0003a0 3f 87 3d 3e ec 6f d7 3d 1f 20 31 be 19 8c 7b bb
       0.18508624 0.10519394 -0.1729741 -0.0038383065
0003b0 a4 b5 b0 3d 11 4f b4 3d 14 ff 44 3d 7b bb c9 3d
       0.08628395 0.08804143 0.048094824 0.09850212
0003c0 bd 05 f1 3d e1 0f 96 bd 58 c7 58 3c 47 7b 1d bc
       0.117686726 -0.073272474 0.013231121 -0.009611911
0003d0 a5 e6 b4 3d f3 4e a5 3d 82 6b f6 3c ce 79 c0 3c
       0.088330545 0.08071699 0.03008056 0.023495581
0003e0 01 aa e9 3d 80 fc 02 bd b6 cb a8 bd ac 79 1e be
       0.11409379 -0.031979084 -0.0824198 -0.15476102
0003f0 af 1c 04 3d 7c 18 8b bc dd 4f a6 bd c5 3b d3 3d
       0.032253917 -0.016979448 -0.081207015 0.103141345
